MLService/LSTM_single_series/LSTM_single_series.tflite (tflite, 83072 bytes, 5 tensors)

lstm/lstm_cell/bias f4 [512]
000000 df 74 ef bf 78 e6 57 c0 ce 8b fa bf 6c 83 31 c0
       -1.8707541 -3.3734417 -1.9573915 -2.7736464
000010 fc 6a c0 bf f2 89 83 bf ae b1 2d c0 64 a4 b2 bf
       -1.5032649 -1.0276473 -2.7139697 -1.3956418
000020 8d c4 4e c0 7d e0 36 c0 b7 89 6b 3e f2 4e da bf
       -3.2307465 -2.8574517 0.23001753 -1.7055342
000030 8d 30 0d c0 f3 9d 0a c0 ad 27 cb bf a5 10 e6 bf
       -2.2060883 -2.1658905 -1.5871483 -1.797383
000040 9b 2e 54 c0 1e b7 2b c0 83 f5 3a bf bd 3d 33 c0
       -3.3153446 -2.6830516 -0.7303087 -2.8006432
000050 b6 80 35 c0 1b 34 8c bf 3f 68 3a c0 8d 1b 42 c0
       -2.835981 -1.0953401 -2.9126127 -3.0329316
000060 db f1 10 c0 c6 89 4d c0 10 0f 21 c0 c3 78 8d bf
       -2.2647617 -3.211534 -2.5165443 -1.1052479
000070 82 86 37 c0 bd 2a 3f c0 22 3e e8 3f 50 8b 12 c0
       -2.8675847 -2.9869835 1.8143961 -2.289753
000080 bf dd 56 c0 1a b8 1c c0 78 5c 2d bf b3 30 47 c0
       -3.3572843 -2.4487367 -0.6771922 -3.1123474
000090 1d 0d 37 c0 48 53 3d c0 07 93 39 c0 0f 55 fd be
       -2.8601754 -2.958208 -2.8995988 -0.49478957
0000a0 ae af 5d c0 96 73 28 c0 6c d1 3a c0 09 d2 4f c0
       -3.4638476 -2.6320548 -2.919032 -3.2471945
0000b0 8d eb bc bf 94 e8 2b c0 10 7a 35 c0 5a 36 52 c0
       -1.4759384 -2.6860704 -2.835575 -3.2845674
0000c0 a6 b3 46 c0 85 2a 52 bf e8 42 09 c0 eb 6f 05 c0
       -3.1047149 -0.8209613 -2.1447086 -2.084956
0000d0 2f ce c6 bf eb ca 24 c0 58 6f 33 c0 71 fe 2d c0
       -1.5531672 -2.5748851 -2.803671 -2.7186549
0000e0 0b ce 0f c0 c3 de 3a c0 09 d5 40 c0 d6 a3 31 c0
       -2.2469509 -2.9198463 -3.0130026 -2.7756248
0000f0 07 02 86 bf 7a b9 87 bf 05 2c 37 c0 a4 79 08 c0
       -1.0469369 -1.0603478 -2.8620617 -2.1324244
000100 d6 63 18 bf 3a 36 41 c0 ce b9 4c bf 83 df 5a c0
       -0.5952734 -3.0189347 -0.79971015 -3.419892
000110 b9 3d d0 bf 0a 72 46 c0 63 46 51 c0 75 a7 49 c0
       -1.6268836 -3.1007104 -3.269921 -3.1508458
000120 52 6a 2b c0 08 44 58 c0 96 f7 2b bf 34 04 d3 bf
       -2.6783643 -3.3791523 -0.6717466 -1.6485658
000130 9d 41 17 c0 e4 69 4a c0 01 a5 26 c0 50 a1 44 c0
       -2.3633797 -3.162713 -2.603821 -3.0723457
000140 e0 a8 4d c0 be b2 19 c0 a7 55 73 bf 80 8a 87 bf
       -3.2134323 -2.4015346 -0.9505257 -1.0589142
000150 98 10 4c c0 e7 78 41 bf 58 d2 1f c0 60 6c 4f bf
       -3.1885128 -0.7557511 -2.4972134 -0.8102474
000160 4d 36 3b c0 a7 13 2e c0 3c 7b ea bf 78 d0 3b c0
       -2.9251893 -2.7199495 -1.8318858 -2.934599
000170 dc e0 ec bf e5 eb 33 c0 41 2c 36 c0 48 f5 96 bf
       -1.8506122 -2.8112729 -2.846451 -1.1793604
000180 9a 6a 42 c0 30 1e 41 c0 85 2b 5e c0 3f 33 aa bf
       -3.0377564 -3.0174675 -3.4714062 -1.3296889
000190 50 bf 4a c0 09 91 9b bf 1f af 1d c0 a2 42 8d bf
       -3.1679268 -1.2153636 -2.4638135 -1.103596
0001a0 e8 41 5f c0 2f e5 f8 bf d2 80 aa bd 95 8f 56 c0
       -3.4883976 -1.9444941 -0.08325352 -3.3525136
0001b0 96 16 4b c0 66 b7 39 c0 11 b7 23 c0 22 d8 41 c0
       -3.1732535 -2.9018188 -2.5580485 -3.0288167
0001c0 41 ec d1 bf 40 f4 95 bf 6a 9c 57 c0 28 33 a8 bf
       -1.6400224 -1.1715164 -3.3689218 -1.3140612
0001d0 a2 32 4a c0 5a 9f 35 c0 53 1d 38 c0 66 36 bf bf
       -3.1593404 -2.837851 -2.8767898 -1.4938476
0001e0 ce 27 41 c0 ee 83 1e bf c7 a2 e6 bf 5b e8 15 c0
       -3.0180545 -0.6192006 -1.8018426 -2.3423069
0001f0 aa 70 35 c0 5a 61 42 c0 57 12 cb bf a0 79 26 c0
       -2.8350015 -3.0371919 -1.5864972 -2.6011734
000200 72 d8 5b 3f 6a 2d 4d bf 64 3f e5 3e c0 81 59 bd
       0.85877144 -0.8014742 0.44774926 -0.053102255
000210 cc eb 9d 3f d9 08 fd 3f 6c f0 d3 3e 13 38 dc 3f
       1.2337584 1.9768325 0.41394365 1.7204612
000220 13 40 03 bf ac 77 0e bd 42 77 83 3f 22 10 9e bf
       -0.51269644 -0.034782097 1.027077 -1.2348673
000230 f5 5b 84 bf 85 f8 1c 3f b9 ce 87 bf 0c 94 7f 3f
       -1.0340563 0.6131671 -1.0609962 0.99835277
000240 bb 65 1b be a4 3e 6c 3e ce c6 03 40 18 70 ba 3e
       -0.15175526 0.2307077 2.059009 0.36413646
000250 b0 77 35 3e 6e d0 e8 3f 47 2f cc 3e d0 b3 90 be
       0.17721438 1.8188608 0.3987982 -0.28262186
000260 ad 70 0c bf 78 2d b3 be cb 48 98 3e 6c d0 ed 3f
       -0.5485943 -0.34995627 0.29743037 1.857923
000270 8b 78 f8 bd 50 c9 92 bd e6 bc c1 3f 75 60 02 3f
       -0.12132367 -0.071673036 1.5135772 0.5092843
000280 08 8f 88 3d 35 29 f6 3e 40 d3 05 40 26 f0 94 3c
       0.06667906 0.48078313 2.0910187 0.018180918
000290 1d c5 b3 3e 2a 3b 56 3e a8 54 09 bd d8 e1 04 40
       0.35111323 0.20921007 -0.033528 2.0762844
0002a0 42 e0 0b 3e 77 9e ee bf 6e 4f 8b be 46 78 d7 bc
       0.13659766 -1.864211 -0.27209038 -0.026302468
0002b0 6d ce b2 3f 4e 1f a2 3d b8 7e a0 3c cc 22 a9 be
       1.3969246 0.07916127 0.019591674 -0.3303436
0002c0 54 17 f8 3d 26 96 fe 3f 62 14 d6 bf 44 20 32 3e
       0.121138245 1.9889572 -1.672497 0.17395121
0002d0 be df b7 3f a5 d9 07 3e cd a4 1f 3e fb 53 33 3e
       1.4365156 0.13266619 0.1559021 0.17512505
0002e0 ab 26 9d 3e 54 5a 86 be a0 3d 11 3e 69 cc 98 3c
       0.30693564 -0.2624079 0.14183664 0.018652158
0002f0 32 eb f7 3f 17 71 e6 3f 87 a5 a3 3e 8d 55 17 3f
       1.9368651 1.8003262 0.31962225 0.59114915
000300 ef 67 05 40 8d d4 55 3e f6 b9 01 40 bc 9d 34 3e
       2.0844686 0.20881863 2.0269752 0.17638296
000310 6d 61 a8 3f 58 04 1e be a9 2e 8f be 95 72 77 be
       1.3154732 -0.15431345 -0.27965286 -0.24164803
000320 73 09 fe bb 35 13 74 bd 8f 5d 93 3e 25 2f ac 3f
       -0.0077525913 -0.05958863 0.28782317 1.3451887
000330 3b 3a ed 3e 05 16 67 bf 3c 94 9d 3e cb 4a de be
       0.4633349 -0.90267974 0.30777156 -0.43416438
000340 36 71 da be ec 4b f5 3e e8 a9 cf be c1 43 ec 3f
       -0.42664498 0.47909486 -0.40559316 1.8458177
000350 a2 64 30 be 51 0a 08 40 c5 cf d0 be 5d c0 fa 3f
       -0.17225888 2.1256297 -0.40783516 1.9589955
000360 17 ba 95 bd 7c be a6 3e b6 c8 80 3f 08 ea b5 3d
       -0.073108844 0.32567203 1.0061252 0.088825285
000370 65 d1 81 3f 89 44 7e 3d 8e d9 5b bd ad cb e3 3f
       1.0142027 0.06207708 -0.053674273 1.7796532
000380 9f d4 59 3e ee c3 21 bd d9 bb 4a be ff cc e0 bf
       0.21272515 -0.039493494 -0.1979822 -1.756256
000390 24 2a f1 be f3 d1 e3 3f 90 6f 5d 3e 11 09 f4 3f
       -0.47102463 1.7798446 0.21624589 1.9065267
0003a0 ac 00 77 3e 2f fc 48 3f 18 7a 07 40 b3 60 a9 bd
       0.2412135 0.785098 2.116827 -0.08270397
0003b0 31 e3 b3 bd 89 ef bf 3e 51 9a f1 3d 32 92 97 be
       -0.08783568 0.37487438 0.11797012 -0.29603726
0003c0 a6 54 a4 3f 4e 91 f0 3f 30 ef 05 be 7f 02 da 3f
       1.2838333 1.8794343 -0.13079524 1.7032012
0003d0 a3 4e 68 3d 5c 3f 87 3e 43 12 a4 3e c1 e7 a0 3f
       0.05671562 0.26415527 0.32045183 1.2570726
0003e0 6c 25 22 be 98 57 0a 40 48 c6 88 3f 09 c6 ed 3e
       -0.15834588 2.1615963 1.0685511 0.4644015
0003f0 59 ed ba bd e2 91 4a bf 0d db 0a 3f 5a a8 ac 3e
       -0.09127302 -0.7912885 0.54240495 0.33722192

std.constant7 f4 [1, 128]
000000 cd b0 1b bc 95 9c c5 bb d1 7e 49 3c a8 3b 1b 3c
       -0.009502602 -0.006030629 0.012298302 0.009474672
000010 28 b0 74 3e 49 3e fd be 63 cb 1d bc 5c 0f 92 be
       0.23895323 -0.49461582 -0.009631011 -0.28527343
000020 ba 01 ce bb 41 17 cd 3b 84 0c 0d bf c1 dc a8 bd
       -0.006286827 0.0062588756 -0.5509722 -0.082452305
000030 7f c0 97 bc ad 39 92 bb 30 88 b7 bd 8c f2 2a 3b
       -0.018524406 -0.004462442 -0.089615226 0.002608451
000040 b1 26 27 bb 52 8e df 3a 46 37 27 3f 18 8e 16 bb
       -0.002550524 0.0017055965 0.65318716 -0.0022972878
000050 82 7a f9 bb 18 b9 db 3e d0 81 bb 3b e7 af 3e bb
       -0.007613481 0.42914653 0.005722262 -0.0029096545
000060 ac b7 18 3d ab 24 19 3d 84 cb 50 bc 51 17 e2 be
       0.03728454 0.037388485 -0.012743834 -0.44158414
000070 8b c2 12 bc c1 fc 3b bc 95 d3 09 3d 0e e3 ef bb
       -0.0089575155 -0.011473835 0.033649046 -0.007320768
000080 ce 6d 15 bd 30 eb 2b 3c ad fb 1e 3f 55 a9 8c bd
       -0.03648167 0.010493085 0.62102777 -0.06868235
000090 b9 72 5a bb dc 69 cf bb 95 74 ab 3c 52 b7 2e bf
       -0.003333254 -0.006329758 0.020929614 -0.68248475
0000a0 b0 41 08 ba 3c ef 8f 3b 25 5e 2d bc d2 28 11 bd
       -0.00051977765 0.0043925326 -0.010581528 -0.03543932
0000b0 09 61 74 be d9 72 2d 3c 7e b2 c8 bc be 8b 71 bc
       -0.23865141 0.010586464 -0.024499174 -0.01474279
0000c0 0d b7 60 ba 41 58 0e bf 6c 56 d5 bd 24 01 68 3b
       -0.00085721986 -0.55603415 -0.10416874 0.003540107
0000d0 ec 0d 4a 3e 96 61 f2 bb 36 b5 06 bc 90 46 01 bb
       0.19731873 -0.007396887 -0.008221915 -0.0019725896
0000e0 a9 e2 2e 3c c8 bd 6d 3c 72 c9 1b ba 68 11 00 bb
       0.010674157 0.014510579 -0.00059427985 -0.0019541625
0000f0 ae eb f7 3e 5b 68 e2 be 2f 27 2c bd 35 86 91 bb
       0.48421997 -0.44220242 -0.042029556 -0.0044410476
000100 a6 c1 23 3f 04 5b 89 bb 0b 1e 16 3f ac 14 8f 3c
       0.6396736 -0.004191758 0.5863959 0.017465912
000110 f7 06 f6 3d 50 10 67 3c 54 82 17 bd 82 aa fb bb
       0.12013047 0.01410301 -0.036989525 -0.007680238
000120 28 ac d2 bc ae ca 0c 3d 7b 2b ce bc 77 1e 11 3e
       -0.025716856 0.034372978 -0.025167217 0.14171778
000130 0b f8 16 bc 7d 96 44 3b 37 8d 27 bc 89 f4 a7 bc
       -0.0092144115 0.0029996925 -0.010226539 -0.020502346
000140 03 d9 01 3c 11 2a ba 3b 5b 2a ab be bb ec e8 3e
       0.007925275 0.0056812842 -0.33430752 0.4549311
000150 a5 8f 2e 3b c5 6f 21 3f 7d a5 06 3d 7b 78 0e 3f
       0.0026635912 0.6306117 0.032872666 0.5565259
000160 88 5a 00 bc dd 87 6a bc a1 72 74 ba 8d cb 96 3c
       -0.007834084 -0.014314619 -0.00093249424 0.018407607
000170 de cd d3 ba 0e 94 96 bb 72 66 82 3c 2a bb b6 be
       -0.0016159376 -0.004595286 0.01591799 -0.3568967
000180 67 d0 b5 bb c3 4b 01 3b e0 cc 8b 3c 1a b8 e0 be
       -0.005548525 0.0019728995 0.017065465 -0.43890458
000190 1e a8 10 bd 83 2e bc be 4f 2b 87 3c d2 38 e6 3e
       -0.03531658 -0.36754236 0.016500143 0.44965225
0001a0 e7 42 74 3c 00 4e 74 bb c8 26 52 3f a3 d8 60 3c
       0.014908529 -0.0037277937 0.82090425 0.013723525
0001b0 08 3d 22 3b 5e 93 39 bd d6 3b 34 3a 32 a2 99 3b
       0.0024755616 -0.045306556 0.00068753713 0.0046885246
0001c0 be e8 28 3e 52 88 ce be 2e 08 1d bc 71 a7 aa 3e
       0.16495034 -0.4033838 -0.00958447 0.33330873
0001d0 73 71 f7 bc d8 4a da 3b 5f 2c b0 3b 29 8b 22 3e
       -0.030205464 0.006661754 0.005376383 0.15873398
0001e0 de 25 8a 3c e8 e5 35 bf d7 04 16 3d 8e 7c cf 3b
       0.01686376 -0.71053934 0.03662571 0.0063319867
0001f0 c3 9a 2a 3c 92 bf af ba aa ac 8a 3d c8 e9 31 3d
       0.010412875 -0.0013408533 0.06771214 0.04343584

lstm/lstm_cell/bias1 f4 [512]
000000 df 74 ef bf 78 e6 57 c0 ce 8b fa bf 6c 83 31 c0
       -1.8707541 -3.3734417 -1.9573915 -2.7736464
000010 fc 6a c0 bf f2 89 83 bf ae b1 2d c0 64 a4 b2 bf
       -1.5032649 -1.0276473 -2.7139697 -1.3956418
000020 8d c4 4e c0 7d e0 36 c0 b7 89 6b 3e f2 4e da bf
       -3.2307465 -2.8574517 0.23001753 -1.7055342
000030 8d 30 0d c0 f3 9d 0a c0 ad 27 cb bf a5 10 e6 bf
       -2.2060883 -2.1658905 -1.5871483 -1.797383
000040 9b 2e 54 c0 1e b7 2b c0 83 f5 3a bf bd 3d 33 c0
       -3.3153446 -2.6830516 -0.7303087 -2.8006432
000050 b6 80 35 c0 1b 34 8c bf 3f 68 3a c0 8d 1b 42 c0
       -2.835981 -1.0953401 -2.9126127 -3.0329316
000060 db f1 10 c0 c6 89 4d c0 10 0f 21 c0 c3 78 8d bf
       -2.2647617 -3.211534 -2.5165443 -1.1052479
000070 82 86 37 c0 bd 2a 3f c0 22 3e e8 3f 50 8b 12 c0
       -2.8675847 -2.9869835 1.8143961 -2.289753
000080 bf dd 56 c0 1a b8 1c c0 78 5c 2d bf b3 30 47 c0
       -3.3572843 -2.4487367 -0.6771922 -3.1123474
000090 1d 0d 37 c0 48 53 3d c0 07 93 39 c0 0f 55 fd be
       -2.8601754 -2.958208 -2.8995988 -0.49478957
0000a0 ae af 5d c0 96 73 28 c0 6c d1 3a c0 09 d2 4f c0
       -3.4638476 -2.6320548 -2.919032 -3.2471945
0000b0 8d eb bc bf 94 e8 2b c0 10 7a 35 c0 5a 36 52 c0
       -1.4759384 -2.6860704 -2.835575 -3.2845674
0000c0 a6 b3 46 c0 85 2a 52 bf e8 42 09 c0 eb 6f 05 c0
       -3.1047149 -0.8209613 -2.1447086 -2.084956
0000d0 2f ce c6 bf eb ca 24 c0 58 6f 33 c0 71 fe 2d c0
       -1.5531672 -2.5748851 -2.803671 -2.7186549
0000e0 0b ce 0f c0 c3 de 3a c0 09 d5 40 c0 d6 a3 31 c0
       -2.2469509 -2.9198463 -3.0130026 -2.7756248
0000f0 07 02 86 bf 7a b9 87 bf 05 2c 37 c0 a4 79 08 c0
       -1.0469369 -1.0603478 -2.8620617 -2.1324244
000100 d6 63 18 bf 3a 36 41 c0 ce b9 4c bf 83 df 5a c0
       -0.5952734 -3.0189347 -0.79971015 -3.419892
000110 b9 3d d0 bf 0a 72 46 c0 63 46 51 c0 75 a7 49 c0
       -1.6268836 -3.1007104 -3.269921 -3.1508458
000120 52 6a 2b c0 08 44 58 c0 96 f7 2b bf 34 04 d3 bf
       -2.6783643 -3.3791523 -0.6717466 -1.6485658
000130 9d 41 17 c0 e4 69 4a c0 01 a5 26 c0 50 a1 44 c0
       -2.3633797 -3.162713 -2.603821 -3.0723457
000140 e0 a8 4d c0 be b2 19 c0 a7 55 73 bf 80 8a 87 bf
       -3.2134323 -2.4015346 -0.9505257 -1.0589142
000150 98 10 4c c0 e7 78 41 bf 58 d2 1f c0 60 6c 4f bf
       -3.1885128 -0.7557511 -2.4972134 -0.8102474
000160 4d 36 3b c0 a7 13 2e c0 3c 7b ea bf 78 d0 3b c0
       -2.9251893 -2.7199495 -1.8318858 -2.934599
000170 dc e0 ec bf e5 eb 33 c0 41 2c 36 c0 48 f5 96 bf
       -1.8506122 -2.8112729 -2.846451 -1.1793604
000180 9a 6a 42 c0 30 1e 41 c0 85 2b 5e c0 3f 33 aa bf
       -3.0377564 -3.0174675 -3.4714062 -1.3296889
000190 50 bf 4a c0 09 91 9b bf 1f af 1d c0 a2 42 8d bf
       -3.1679268 -1.2153636 -2.4638135 -1.103596
0001a0 e8 41 5f c0 2f e5 f8 bf d2 80 aa bd 95 8f 56 c0
       -3.4883976 -1.9444941 -0.08325352 -3.3525136
0001b0 96 16 4b c0 66 b7 39 c0 11 b7 23 c0 22 d8 41 c0
       -3.1732535 -2.9018188 -2.5580485 -3.0288167
0001c0 41 ec d1 bf 40 f4 95 bf 6a 9c 57 c0 28 33 a8 bf
       -1.6400224 -1.1715164 -3.3689218 -1.3140612
0001d0 a2 32 4a c0 5a 9f 35 c0 53 1d 38 c0 66 36 bf bf
       -3.1593404 -2.837851 -2.8767898 -1.4938476
0001e0 ce 27 41 c0 ee 83 1e bf c7 a2 e6 bf 5b e8 15 c0
       -3.0180545 -0.6192006 -1.8018426 -2.3423069
0001f0 aa 70 35 c0 5a 61 42 c0 57 12 cb bf a0 79 26 c0
       -2.8350015 -3.0371919 -1.5864972 -2.6011734
000200 72 d8 5b 3f 6a 2d 4d bf 64 3f e5 3e c0 81 59 bd
       0.85877144 -0.8014742 0.44774926 -0.053102255
000210 cc eb 9d 3f d9 08 fd 3f 6c f0 d3 3e 13 38 dc 3f
       1.2337584 1.9768325 0.41394365 1.7204612
000220 13 40 03 bf ac 77 0e bd 42 77 83 3f 22 10 9e bf
       -0.51269644 -0.034782097 1.027077 -1.2348673
000230 f5 5b 84 bf 85 f8 1c 3f b9 ce 87 bf 0c 94 7f 3f
       -1.0340563 0.6131671 -1.0609962 0.99835277
000240 bb 65 1b be a4 3e 6c 3e ce c6 03 40 18 70 ba 3e
       -0.15175526 0.2307077 2.059009 0.36413646
000250 b0 77 35 3e 6e d0 e8 3f 47 2f cc 3e d0 b3 90 be
       0.17721438 1.8188608 0.3987982 -0.28262186
000260 ad 70 0c bf 78 2d b3 be cb 48 98 3e 6c d0 ed 3f
       -0.5485943 -0.34995627 0.29743037 1.857923
000270 8b 78 f8 bd 50 c9 92 bd e6 bc c1 3f 75 60 02 3f
       -0.12132367 -0.071673036 1.5135772 0.5092843
000280 08 8f 88 3d 35 29 f6 3e 40 d3 05 40 26 f0 94 3c
       0.06667906 0.48078313 2.0910187 0.018180918
000290 1d c5 b3 3e 2a 3b 56 3e a8 54 09 bd d8 e1 04 40
       0.35111323 0.20921007 -0.033528 2.0762844
0002a0 42 e0 0b 3e 77 9e ee bf 6e 4f 8b be 46 78 d7 bc
       0.13659766 -1.864211 -0.27209038 -0.026302468
0002b0 6d ce b2 3f 4e 1f a2 3d b8 7e a0 3c cc 22 a9 be
       1.3969246 0.07916127 0.019591674 -0.3303436
0002c0 54 17 f8 3d 26 96 fe 3f 62 14 d6 bf 44 20 32 3e
       0.121138245 1.9889572 -1.672497 0.17395121
0002d0 be df b7 3f a5 d9 07 3e cd a4 1f 3e fb 53 33 3e
       1.4365156 0.13266619 0.1559021 0.17512505
0002e0 ab 26 9d 3e 54 5a 86 be a0 3d 11 3e 69 cc 98 3c
       0.30693564 -0.2624079 0.14183664 0.018652158
0002f0 32 eb f7 3f 17 71 e6 3f 87 a5 a3 3e 8d 55 17 3f
       1.9368651 1.8003262 0.31962225 0.59114915
000300 ef 67 05 40 8d d4 55 3e f6 b9 01 40 bc 9d 34 3e
       2.0844686 0.20881863 2.0269752 0.17638296
000310 6d 61 a8 3f 58 04 1e be a9 2e 8f be 95 72 77 be
       1.3154732 -0.15431345 -0.27965286 -0.24164803
000320 73 09 fe bb 35 13 74 bd 8f 5d 93 3e 25 2f ac 3f
       -0.0077525913 -0.05958863 0.28782317 1.3451887
000330 3b 3a ed 3e 05 16 67 bf 3c 94 9d 3e cb 4a de be
       0.4633349 -0.90267974 0.30777156 -0.43416438
000340 36 71 da be ec 4b f5 3e e8 a9 cf be c1 43 ec 3f
       -0.42664498 0.47909486 -0.40559316 1.8458177
000350 a2 64 30 be 51 0a 08 40 c5 cf d0 be 5d c0 fa 3f
       -0.17225888 2.1256297 -0.40783516 1.9589955
000360 17 ba 95 bd 7c be a6 3e b6 c8 80 3f 08 ea b5 3d
       -0.073108844 0.32567203 1.0061252 0.088825285
000370 65 d1 81 3f 89 44 7e 3d 8e d9 5b bd ad cb e3 3f
       1.0142027 0.06207708 -0.053674273 1.7796532
000380 9f d4 59 3e ee c3 21 bd d9 bb 4a be ff cc e0 bf
       0.21272515 -0.039493494 -0.1979822 -1.756256
000390 24 2a f1 be f3 d1 e3 3f 90 6f 5d 3e 11 09 f4 3f
       -0.47102463 1.7798446 0.21624589 1.9065267
0003a0 ac 00 77 3e 2f fc 48 3f 18 7a 07 40 b3 60 a9 bd
       0.2412135 0.785098 2.116827 -0.08270397
0003b0 31 e3 b3 bd 89 ef bf 3e 51 9a f1 3d 32 92 97 be
       -0.08783568 0.37487438 0.11797012 -0.29603726
0003c0 a6 54 a4 3f 4e 91 f0 3f 30 ef 05 be 7f 02 da 3f
       1.2838333 1.8794343 -0.13079524 1.7032012
0003d0 a3 4e 68 3d 5c 3f 87 3e 43 12 a4 3e c1 e7 a0 3f
       0.05671562 0.26415527 0.32045183 1.2570726
0003e0 6c 25 22 be 98 57 0a 40 48 c6 88 3f 09 c6 ed 3e
       -0.15834588 2.1615963 1.0685511 0.4644015
0003f0 59 ed ba bd e2 91 4a bf 0d db 0a 3f 5a a8 ac 3e
       -0.09127302 -0.7912885 0.54240495 0.33722192

std.constant12 i1 [512, 128] scale=0.046165667 zero_point=0
000000 04 06 01 fe f7 0a f9 09 05 fd f6 10 dc f1 17 f5
       0.18466267 0.276994 0.046165667 -0.092331335 -0.415491 0.4616567 -0.32315966 0.415491 0.23082834 -0.138497 -0.4616567 0.7386507 -1.661964 -0.69248503 1.0618104 -0.50782233
000010 03 14 fe 00 fe fa 02 0b f9 fe fe 07 0f 03 49 fb
       0.138497 0.9233134 -0.092331335 0.0 -0.092331335 -0.276994 0.092331335 0.50782233 -0.32315966 -0.092331335 -0.092331335 0.32315966 0.69248503 0.138497 3.3700938 -0.23082834
000020 08 06 f6 fe 03 03 ff 08 11 10 05 00 07 fe 05 09
       0.36932534 0.276994 -0.4616567 -0.092331335 0.138497 0.138497 -0.046165667 0.36932534 0.7848163 0.7386507 0.23082834 0.0 0.32315966 -0.092331335 0.23082834 0.415491
000030 dc 0a 07 b7 fa ca f5 33 02 02 dd fc f5 0a 01 0a
       -1.661964 0.4616567 0.32315966 -3.3700938 -0.276994 -2.4929461 -0.50782233 2.354449 0.092331335 0.092331335 -1.6157984 -0.18466267 -0.50782233 0.4616567 0.046165667 0.4616567
000040 f8 02 fb f2 ee fa 06 ff 04 fc 46 fa f9 fc fe 08
       -0.36932534 0.092331335 -0.23082834 -0.6463193 -0.830982 -0.276994 0.276994 -0.046165667 0.18466267 -0.18466267 3.2315967 -0.276994 -0.32315966 -0.18466267 -0.092331335 0.36932534
000050 01 13 1a f9 23 f7 1b fb 00 f7 f7 ff fc f9 01 09
       0.046165667 0.8771477 1.2003074 -0.32315966 1.6157984 -0.415491 1.2464731 -0.23082834 0.0 -0.415491 -0.415491 -0.046165667 -0.18466267 -0.32315966 0.046165667 0.415491
000060 00 ff f3 0b fc 0b e6 f5 f4 f8 f7 1a 18 04 35 05
       0.0 -0.046165667 -0.6001537 0.50782233 -0.18466267 0.50782233 -1.2003074 -0.50782233 -0.553988 -0.36932534 -0.415491 1.2003074 1.107976 0.18466267 2.4467804 0.23082834
000070 f3 0e fd fd 02 00 f7 eb fe 02 fe 04 05 eb bc fb
       -0.6001537 0.6463193 -0.138497 -0.138497 0.092331335 0.0 -0.415491 -0.969479 -0.092331335 0.092331335 -0.092331335 0.18466267 0.23082834 -0.969479 -3.1392653 -0.23082834
000080 02 f7 fe 00 ff 01 fe 03 ff 01 f9 ed 04 ff f6 fe
       0.092331335 -0.415491 -0.092331335 0.0 -0.046165667 0.046165667 -0.092331335 0.138497 -0.046165667 0.046165667 -0.32315966 -0.8771477 0.18466267 -0.046165667 -0.4616567 -0.092331335
000090 fd 04 02 02 01 02 ff 02 fe 01 fe 01 fd ff 0e fd
       -0.138497 0.18466267 0.092331335 0.092331335 0.046165667 0.092331335 -0.046165667 0.092331335 -0.092331335 0.046165667 -0.092331335 0.046165667 -0.138497 -0.046165667 0.6463193 -0.138497
0000a0 01 03 03 01 fe 01 00 fa ff fb 00 00 ff ff ff fd
       0.046165667 0.138497 0.138497 0.046165667 -0.092331335 0.046165667 0.0 -0.276994 -0.046165667 -0.23082834 0.0 0.0 -0.046165667 -0.046165667 -0.046165667 -0.138497
0000b0 04 00 f3 02 ff 03 00 fc fe fe 03 00 fe ff 00 04
       0.18466267 0.0 -0.6001537 0.092331335 -0.046165667 0.138497 0.0 -0.18466267 -0.092331335 -0.092331335 0.138497 0.0 -0.092331335 -0.046165667 0.0 0.18466267
0000c0 02 00 01 02 fd 00 fe 00 01 01 06 fe fe 04 fe ff
       0.092331335 0.0 0.046165667 0.092331335 -0.138497 0.0 -0.092331335 0.0 0.046165667 0.046165667 0.276994 -0.092331335 -0.092331335 0.18466267 -0.092331335 -0.046165667
0000d0 02 02 0c 01 fc 00 01 03 00 01 fe 00 fe 02 01 03
       0.092331335 0.092331335 0.553988 0.046165667 -0.18466267 0.0 0.046165667 0.138497 0.0 0.046165667 -0.092331335 0.0 -0.092331335 0.092331335 0.046165667 0.138497
0000e0 ff fe 04 e8 fb 02 01 fd 02 ff 0b fb 00 00 fd 00
       -0.046165667 -0.092331335 0.18466267 -1.107976 -0.23082834 0.092331335 0.046165667 -0.138497 0.092331335 -0.046165667 0.50782233 -0.23082834 0.0 0.0 -0.138497 0.0
0000f0 fe 03 04 02 00 ff ff fd ff fd ff 03 ff 02 02 00
       -0.092331335 0.138497 0.18466267 0.092331335 0.0 -0.046165667 -0.046165667 -0.138497 -0.046165667 -0.138497 -0.046165667 0.138497 -0.046165667 0.092331335 0.092331335 0.0

std.constant13 f4 [512, 1]
000000 fb 7b 6c 3e 2f fd 9e bc 64 6d 7f 3e 96 6c 30 3e
       0.2309417 -0.019407837 0.24944073 0.17228922
000010 cf c8 b3 3e 37 8b 91 3d ba 61 5a 3e 1b 16 4f 3e
       0.35114142 0.07106631 0.21326342 0.20223276
000020 54 41 1d 3e 3f f5 3f 3e ba b1 cd 3e b9 87 de 3e
       0.15356952 0.18745898 0.40174657 0.43462923
000030 95 e1 17 3f 0e 87 e8 bd 61 a8 fd 3e d8 d5 ee 3c
       0.59328586 -0.11353885 0.49542525 0.029154703
000040 78 d5 0f be c0 7f f3 3e 04 23 29 be 4a 49 61 3e
       -0.14046276 0.47558403 -0.16517264 0.22000614
000050 1e 60 8f bd 91 c8 4a 3d b6 39 07 3e bc 13 0b be
       -0.07000755 0.04950768 0.13205609 -0.13581747
000060 3b ae b7 bf 0f df 24 3e 8a 48 82 3e d6 e3 20 3d
       -1.4350046 0.16100715 0.25445968 0.03927978
000070 e6 59 54 bf c0 67 c2 3e c0 6e 86 3e a2 40 31 3e
       -0.82949674 0.3796978 0.2625637 0.17309812
000080 5a 89 17 3e 36 17 22 3e 51 b0 ae bc 6f 59 aa bb
       0.14798489 0.15829167 -0.021324309 -0.0051986496
000090 a9 e4 f9 bc 8f 20 50 3e 0d 2b df 3d fb 68 28 be
       -0.030504541 0.2032492 0.10896883 -0.16446297
0000a0 82 0e f6 3d 06 46 6f be bb 98 c2 3d 0b 06 36 3e
       0.12014486 -0.23366556 0.09501787 0.17775743
0000b0 9a 03 6c 3e 93 85 d2 3c 57 19 b6 3e 59 8f ed 3e
       0.23048249 0.025698459 0.35566208 0.46398428
0000c0 aa 4d 0b be 25 6d de 3d 19 d9 39 bf 94 78 c7 3e
       -0.13603845 0.108606614 -0.7259689 0.3895918
0000d0 2e a1 02 3e 2d 2c 0b 3f 2a 17 47 3c 9d 1c 6f 3e
       0.12756798 0.5436428 0.012151519 0.23350759
0000e0 d2 6d b3 3d 4f 53 ca 3d 82 d9 88 bd 29 d4 71 3e
       0.08761181 0.09879171 -0.06682111 0.23616089
0000f0 8b 7c 16 bd 3b 85 35 3e 11 4e 63 3e 78 43 ed 3d
       -0.036739867 0.17726605 0.22197749 0.11585134
000100 97 e8 9c bb e1 fd 12 3e a5 5d 3f be 43 1f 92 3e
       -0.004788469 0.1435466 -0.18688066 0.28539476
000110 36 47 e0 3d dc 9e 2b be f0 35 23 3d 83 7f e4 3d
       0.109510824 -0.16759819 0.03984636 0.111571334
000120 83 06 9a 3e 6c e2 9e 3e 23 08 67 3f 8c 55 34 3e
       0.30083093 0.3103212 0.9024679 0.17610759
000130 95 1f 80 3e 43 06 f9 3c 62 ed 9e 3d 39 9f 13 3b
       0.25024095 0.030398494 0.07760121 0.0022525324
000140 9c 4e 79 3e 87 48 1f 3e ee 05 8c 3f e4 d9 0a 3e
       0.24346393 0.1555501 1.093931 0.13559681
000150 d9 fe 04 3f 59 b3 25 be 15 d2 83 bd a9 72 9d bd
       0.51951367 -0.16181697 -0.06436554 -0.07687885
000160 d9 4f 9b 3d ad 0c 9c 3e f2 db 0e 3e 27 67 b3 3c
       0.07583589 0.3047842 0.1395109 0.021899773
000170 dd c1 90 3d a8 58 83 3d ac cb 2b 3e cd 97 70 bd
       0.070682265 0.06413394 0.16776913 -0.05873852
000180 ed 59 02 3e 7f 2e 7f 3e 60 75 a0 3e 15 5a 69 3d
       0.12729616 0.2492008 0.3133955 0.056970675
000190 35 d9 c7 3d 3e f5 f2 3a f0 8f 8a bf 73 2f 3d 3e
       0.09758226 0.0018536223 -1.0825176 0.18475132
0001a0 26 90 35 3e ad 2b 1a 3e 79 5d 78 be b0 09 52 3f
       0.1773077 0.15055723 -0.24254407 0.8204603
0001b0 4a ac 4b be 4c 4a f7 3d 0b 40 8b 3e 6e 21 73 3d
       -0.19889942 0.12074718 0.27197298 0.059358053
0001c0 19 d8 86 3e a1 b3 bd 3c 92 6a 16 be 20 8c 72 3d
       0.26336744 0.023156943 -0.14689091 0.059215665
0001d0 ce e8 f6 3d 5e 93 9f 3d 0c ed db 3e 98 b7 1e be
       0.12056123 0.0779178 0.4295429 -0.15499723
0001e0 72 53 75 3e 3e 86 89 be e3 46 13 3e e7 84 63 3e
       0.23957613 -0.2686023 0.1438251 0.22218667
0001f0 cc c9 70 3e 25 7a e2 3e f5 34 f1 3e 9b 18 89 3e
       0.2351448 0.44233814 0.47110716 0.26776585
000200 5e 8d 4e 3e b3 95 d4 3d 68 fa c1 3e cc a1 39 be
       0.20171115 0.10380115 0.37886357 -0.18128127
000210 ad b8 02 be ec 01 e9 bd da 1d c3 3d d1 f3 93 bb
       -0.1276576 -0.1137732 0.09527178 -0.004515149
000220 79 3c b6 3d 14 74 da 3d 14 a5 98 3f 77 6c 14 bf
       0.08898253 0.106666714 1.1925378 -0.57978004
000230 9b a9 98 bf c0 29 98 bd 9c 6d 18 3f 95 6c b8 bb
       -1.192676 -0.07429838 0.5954225 -0.0056281784
000240 ad 36 5a 3d c1 95 f9 3c 55 60 19 be 56 ab dd 3b
       0.0532748 0.030466916 -0.14978154 0.0067648096
000250 f9 4b ee bd 05 8f d8 bd 54 76 ca 3d 2f 55 bb 3e
       -0.116355844 -0.10574154 0.098858505 0.36588427
000260 9e 08 19 40 51 eb 02 bc 39 50 1f be 12 b4 ba bd
       2.391151 -0.007990674 -0.15557946 -0.09116377
000270 e6 93 e6 3f b2 73 60 bd ed eb c8 bf 67 56 9e 3d
       1.8013885 -0.054797836 -1.5696999 0.07731324
000280 0b af 39 3d 6c ca 99 3d 65 79 4a be 2b bf a6 bd
       0.04533295 0.07509312 -0.19772871 -0.08141931
000290 4b 10 c2 3c ab 60 03 3e 6d 86 b8 bd ea c8 18 be
       0.02368941 0.12829845 -0.09010015 -0.14920393
0002a0 b0 90 61 3e e4 0c 7b 3e e8 c1 67 3d f2 b2 b1 bd
       0.2202785 0.24516636 0.056581408 -0.08676709
0002b0 bb 9b 06 be 0e c6 63 3b 93 8b 28 3e 1c 26 e5 be
       -0.13145344 0.00347555 0.16459493 -0.44755638
0002c0 ce 1f 36 3f 47 81 cf bd 82 e0 92 3e e7 3c 57 bd
       0.7114228 -0.101320796 0.2868691 -0.052548315
0002d0 f0 fb 03 be d0 ea 16 be e6 fa 91 3e 60 60 9c bc
       -0.12889075 -0.14738011 0.28511733 -0.019088924
0002e0 1d b5 b6 3e 49 4b 31 3e 2e ce 5d 3f 86 a1 d1 3c
       0.35685053 0.17313875 0.8664273 0.025589716
0002f0 b3 72 93 be 15 e0 4c be cc 63 b5 3b 16 ef 8d 3d
       -0.28798446 -0.20007356 0.0055355784 0.06930368
000300 20 33 10 be 63 cd 49 bd 1c 17 f6 bd cc 6b 85 3d
       -0.14082003 -0.049268138 -0.120161265 0.06514701
000310 df d5 0c be 3c a5 9a 3e 3e 9a 9e 3e b2 22 55 3e
       -0.1375346 0.3020419 0.30977052 0.20814016
000320 04 d5 dd bd b1 4d 0d 3e 70 1d 81 3e c2 2c 0a be
       -0.10831645 0.13799168 0.25217772 -0.13493636
000330 c0 a2 e3 bd f7 ae 69 3e 9f 84 37 bd 10 4a eb 3e
       -0.111150265 0.2282065 -0.04480421 0.45954943
000340 37 e0 1a bd f8 86 26 3e 60 d7 50 3f 70 34 e7 bd
       -0.037811484 0.16262424 0.81578636 -0.112892985
000350 a0 76 3d bf 1b 11 a0 be a6 fb 82 3f 5a 32 6c be
       -0.7400913 -0.3126305 1.0233047 -0.23066083
000360 6d ab 12 3e 29 35 32 3e f3 a6 89 bd 4c 65 14 be
       0.14323206 0.17403091 -0.06721296 -0.14491767
000370 98 ef 2b 3d 69 54 a1 3e d3 10 26 bd e8 e5 56 be
       0.04197654 0.31509712 -0.04054339 -0.2098614
000380 d9 55 53 bc c7 0b 0e bd ed 9e af be 9b d4 b8 3e
       -0.012898886 -0.0346792 -0.34300938 0.36099705
000390 7b dd ce 3d ca 33 7b be 59 36 c0 3f 5e 52 9f 3c
       0.10100838 -0.24531475 1.5016586 0.019448455
0003a0 0d d4 89 bd 09 ff 39 be 0c 34 c0 be 42 28 8d bf
       -0.067298986 -0.18163694 -0.3753971 -1.1027911
0003b0 f7 40 39 3f 15 e4 da 3d 7a 12 cb be 37 a8 b0 3e
       0.72364753 0.106880344 -0.39662534 0.34503338
0003c0 1f 48 c2 bd 4c c7 1a be db 52 97 3d 8d 2b 24 be
       -0.09486412 -0.15115088 0.0738885 -0.16032238
0003d0 0c bb 0c bd 80 29 96 bd 39 36 3c bd c7 66 8f be
       -0.03435807 -0.07332134 -0.04595015 -0.280081
0003e0 85 8b 25 3d 84 7e 57 be 4f 76 1d be 04 97 2d 3e
       0.04041626 -0.21044356 -0.15377162 0.16952139
0003f0 96 84 b3 bd f7 e6 96 bf 3b 59 92 3f 7c 3a be 3d
       -0.08765523 -1.1789235 1.1433481 0.09288499
