MLService/LSTM_single_series/LSTM_single_series.tflite (tflite, 83072 bytes, 5 tensors)

lstm/lstm_cell/bias f4 [512]
00000000: 16ff b8bf 466c d7bf 1a76 b5bd 931c 40c0
00000010: 49f2 3cc0 f2b3 48c0 c90d aabf dc42 acbf
00000020: 11dd 46be f0a9 a5bf b61a 42c0 0f5f 2ec0
00000030: 9e16 3bc0 5c81 10c0 66ab 13be 8ab3 2fc0
00000040: 9ab9 24c0 6a97 27c0 3594 03c0 d43b 4fc0
00000050: b180 4ac0 4ab0 0bc0 ad12 a3bf 8c49 38c0
00000060: 795e 45c0 195e 23c0 d40d 3fc0 80f1 30c0
00000070: 26b2 febf 6b6e bebf f25b 48c0 d575 84bf
00000080: 7363 49c0 3f5b 2abf 9652 4cc0 8a94 00c0
00000090: 9882 17c0 1a51 07c0 a33e 33c0 44bb 41c0
000000a0: 705a 52c0 6956 3fc0 c5f2 57c0 257f 4fc0
000000b0: 863c e3bf f3df 19c0 ebf7 11c0 d11a 2ec0
000000c0: 268d 5bc0 f121 03c0 ef50 3fc0 4e5a c4bf
000000d0: 2689 c0bd 33fd a1bf db4a c2bf f151 2cc0
000000e0: dc36 33c0 0a32 3fc0 5f59 debd c49c 1fc0
000000f0: 11d3 46c0 77d6 65bf 0581 47c0 b695 4fc0
00000100: 6978 3fc0 b91d 07c0 3398 b9bf a2eb e7bf
00000110: 12b2 fcbf 9c66 45c0 0c4e 4bc0 1845 fabf
00000120: f285 2ec0 70aa 48c0 cb06 41c0 8101 33c0
00000130: 3425 d4bf f2d8 1ec0 4c67 3dc0 0197 22c0
00000140: 0cca 9dbe 2487 b2bf fb0d 93bf 5db5 39c0
00000150: ca52 58c0 c2e1 41c0 54ff 28c0 31c8 4cc0
00000160: a99e 35c0 1803 30c0 6767 aabf 452c 22c0
00000170: 61c8 3bc0 5de5 06c0 b7f8 41c0 c601 acbf
00000180: 172c 35c0 2e14 3ec0 88da 223f 8daf a8bf
00000190: 3e97 febf ad2c 08c0 1829 3cc0 59a8 81be
000001a0: ab0a 93bf 0d9a 3dc0 3d6c 13c0 2cf0 3bc0
000001b0: 25be 1cc0 c28f 4ac0 3171 c4bf 277a c2bf
000001c0: 0619 2bc0 fceb 3fc0 3435 4dc0 9af7 05c0
000001d0: d748 c1bf 35eb 2dc0 2f0a 1bc0 fdaa 4cbf
000001e0: d0f9 8bbf 2458 c5bf 51ed 39c0 13c2 4fc0
000001f0: 31a5 02c0 590b 9dbf bdaf fbbf 9060 0dbf
00000200: 9af2 a43f 5545 4dbf a15e 2040 c8c5 67bf
00000210: 988c 42bf ce4d 44bf a389 b43f a805 ae3f
00000220: a43f f43f 2a64 b23f e06a 2abf 3150 45be
00000230: a43b 15be 17cf 313e 61d0 cb3d 98f4 06bf
00000240: 848a 463b c46d 7bbf 49b7 98bf 4800 5abe
00000250: 298a 03bf d48c 9d3e a624 a13f c8f0 46bf
00000260: 14bb eabe 2a34 33bf 991f 11bf da64 ccbe
00000270: abd4 663f 174a a53f 2d05 92bd 59a5 e8bf
00000280: 8240 a7be f084 0a40 8088 a9be 1ccf b5bf
00000290: f9cc 313e f1c2 d8bd 2dda e1be 4b1b 30be
000002a0: 8c6a 05bf e20f f8bd e0c6 7dbe 727c 68bf
000002b0: 997a 843f d9d7 fe3d 8c92 b6bf c90d f8be
000002c0: 9cd9 cabd 1e23 b4be 2cd9 cdbe 9640 ad3f
000002d0: fc11 0240 7664 ae3f 43e0 a03f 97cb cc3a
000002e0: 5fa9 06bf 061d b7be 8aca ec3f 24c4 91bf
000002f0: ab02 a3be 0b6c 193f 1ff9 b7be 84f2 30bf
00000300: 56e2 13bf 3f25 113f 3b8c ad3f bfe5 a9bf
00000310: 83d2 613f d1da dbbe 2b8f 97be 63c5 923e
00000320: 979b 3cbf c302 80be b33c 2bbf df07 96bf
00000330: 6f84 8b3f 742a 32bf 15d6 03bf 2781 76be
00000340: 9384 263f 7c4d a63f de5c 273f 47e2 81bf
00000350: 23b1 5ebe 0c81 4abf 2aed 86bd 5a59 eebe
00000360: 1bb6 21bf 5ea1 30bd 2b3f b33f b352 1c3e
00000370: bdf3 1abe 9c27 aa3e f796 bdbf 2067 b43f
00000380: c16e 86be 18b8 41bf ab46 e9bc 7884 d33d
00000390: 8b82 2cbd dac5 a83e 1110 28bf 305a f53f
000003a0: 17c4 bd3f e791 edbe cdf8 6ebf 49be 66bf
000003b0: ace0 8ebe 590b 82be 8c30 b13f aeb8 9f3f
000003c0: 61c0 3ebf ec51 74be 9046 10bf bd20 aa3e
000003d0: 149e 96bf 08f3 33bf 2b90 b13d 7f8d d83f
000003e0: 06db a73c 95fa 9f3f 1063 e3be 8a9f 5bbf
000003f0: dca9 0f3f 95a3 b93f 022f 493f cd15 8e3f
-1.4452846 -1.6829917 -0.08860417 -3.001744 -2.952288 -3.135983 -1.3285457 -1.3457904
-0.19420268 -1.2942486 -3.0328803 -2.724552 -2.9232554 -2.2578955 -0.14420852 -2.7453332
-2.5738282 -2.6186166 -2.0559208 -3.2380266 -3.1641047 -2.1826348 -1.2740074 -2.879489
-3.0838912 -2.5526183 -2.985219 -2.76474 -1.9898117 -1.4877447 -3.130612 -1.034846
-3.146695 -0.6654548 -3.1925406 -2.009066 -2.3673458 -2.114325 -2.800698 -3.0270548
-3.2867699 -2.989649 -3.3741925 -3.2421353 -1.7752845 -2.4042938 -2.2807567 -2.7203867
-3.43049 -2.0489466 -2.9893148 -1.5340059 -0.09401159 -1.2655395 -1.5179094 -2.6925013
-2.8002234 -2.9874291 -0.1085689 -2.4939432 -3.1066325 -0.8978037 -3.1172497 -3.2435126
-2.9917243 -2.1111891 -1.4499573 -1.8118784 -1.9741843 -3.0843878 -3.1766386 -1.9552336
-2.7269254 -3.1354027 -3.0160396 -2.7969668 -1.6573853 -2.4819913 -2.9594297 -2.5404665
-0.30818212 -1.3947492 -1.1488642 -2.9016945 -3.380053 -3.0294042 -2.640584 -3.1997187
-2.8378088 -2.7501888 -1.3312806 -2.533952 -2.9341052 -2.1077492 -3.0308053 -1.3438041
-2.830816 -2.9699817 0.636147 -1.3178574 -1.9889905 -2.1277268 -2.9400082 -0.25323752
-1.1487631 -2.9625275 -2.3034813 -2.936534 -2.4491055 -3.1650243 -1.5347043 -1.5193528
-2.6734023 -2.9987783 -3.2063723 -2.0932374 -1.5100354 -2.717481 -2.4224966 -0.7994841
-1.0935612 -1.5417523 -2.9051096 -3.2462204 -2.0413325 -1.2269088 -1.9663006 -0.5522547
1.2886536 -0.8018392 2.5057757 -0.90536165 -0.7599578 -0.7668122 1.4104503 1.3595476
1.9081922 1.3936818 -0.6656933 -0.19268872 -0.14573532 0.17364155 0.099518545 -0.5271697
0.0030294964 -0.98214364 -1.1930934 -0.2128917 -0.5138269 0.30771506 1.2589309 -0.77711153
-0.45845854 -0.7000147 -0.5668884 -0.39920694 0.90168256 1.2913235 -0.071298935 -1.817546
-0.32666403 2.1643639 -0.33111954 -1.420383 0.17363347 -0.10584057 -0.44111767 -0.17197911
-0.521157 -0.121124044 -0.24782896 -0.9081489 1.0349914 0.124435134 -1.4263473 -0.48448017
-0.09904787 -0.35183042 -0.40204751 1.3535335 2.0323477 1.3624408 1.2568439 0.0015624639
-0.5260219 -0.3576433 1.849931 -1.1387982 -0.31837973 0.59930485 -0.35932252 -0.6912005
-0.57767236 0.5669746 1.355842 -1.3273238 0.8821184 -0.4294038 -0.29601416 0.2866622
-0.7367491 -0.25002107 -0.66889495 -1.1721152 1.089979 -0.6959603 -0.5149854 -0.24072705
0.6504604 1.2992396 0.6537608 -1.0147179 -0.2174726 -0.7910316 -0.06588204 -0.46552545
-0.63168496 -0.04312264 1.4003652 0.15265922 -0.15132041 0.33233345 -1.4811696 1.4093971
-0.26256374 -0.7567153 -0.02847608 0.10328001 -0.042116683 0.3296345 -0.65649515 1.9168148
1.4825467 -0.46400377 -0.9334839 -0.901341 -0.27905786 -0.25399283 1.384294 1.2478235
-0.74512297 -0.23859376 -0.5635767 0.33228102 -1.1766992 -0.7029271 0.08670076 1.6918181
0.02049018 1.2498347 -0.44411516 -0.8579031 0.5611856 1.4503046 0.78587353 1.1100403

std.constant7 f4 [1, 128]
00000000: e130 493e 3c17 5c3a b07c 543f a910 563c
00000010: 50d3 2cbc 0524 9a3a 71be 923e 1260 1b3e
00000020: 8abb 29bf df86 843e 1ef8 343a 3ec6 cd39
00000030: 1f57 7c3b d4fd 04b7 6828 683c c9af 463b
00000040: 9c2d 953a 45bb f0bb 008c 66bc fc38 6cbb
00000050: 6ecf d23b e7c6 b9bb a0d4 9fbe dd30 a13b
00000060: a392 90b9 ce40 10ba e235 4cbb d285 913b
00000070: c16f 0b3d 3b66 53be 72e0 183c a44b 9b3e
00000080: bcc7 083c f298 e33e 6323 99bb c40f 043e
00000090: 394d 0bbb 5bdf 3c3d 0793 2b3a 9261 9539
000000a0: 487f 0ebb 070a c8bb 86bb fa3b 658c 6f3b
000000b0: 1ced 9c3d d4f0 4f3b 9db9 843c f043 60bb
000000c0: 067d baba 8442 b2bd b364 3c3b 7818 213e
000000d0: 42e5 4b3f 30ee 97be d3b8 4b3e 62c1 90bb
000000e0: d5e0 93bb 0c3e 873b c04e 533f c384 063c
000000f0: e697 13ba 70e2 6ebe 1679 573b 8da5 b03b
00000100: 6063 a3b7 e35f 173c c9bd 43be 9d62 4f3c
00000110: eee0 dc3c 2012 3b3c 1c3b 8338 18e3 eabb
00000120: fc65 12bc 7aec a53b dd88 023c 2bb4 2cbc
00000130: 351f c03d e9ec e03a fa86 c5ba 99cf a4bb
00000140: f354 79be 0a25 513e 4245 213e f20b 7d3c
00000150: 7109 9d3a bc21 ef3a 3b7e 043b dad0 f8bb
00000160: 80e6 01bb 9344 313b a77f 9b3e f0fb 48bc
00000170: 9cf7 f4ba 8447 a8b9 fdb0 a2bb 6aa8 8c3e
00000180: e7fa 383a dc01 4abb 81a6 013f 6c14 c0be
00000190: 2917 c9bd b187 7dbb 5797 debb b9e1 273f
000001a0: 4834 a83e c811 c13b d5b5 ae3c 7727 b7ba
000001b0: 14bf 173d 6042 3c3b ec27 15be f1aa 213e
000001c0: 2dcd cb3b 99ac d33b 067f 2bbb 36ec b23b
000001d0: 04a9 86bd b60e db39 2a68 c5ba a6be e33e
000001e0: 16cc aabd 94b5 423e b93c a8bc a0f0 50bb
000001f0: 6b46 f7bc 67f3 99be 08ab f4bc 9674 0fbf
0.19647552 0.0008395796 0.8300276 0.0130654955 -0.010548428 0.0011760002 0.2866092 0.15173367
-0.66301787 0.25884148 0.00069034274 0.0003924835 0.0038504077 -7.926912e-06 0.01416979 0.0030317178
0.001138139 -0.007346543 -0.014071465 -0.0036044708 0.006433419 -0.005669463 -0.31216908 0.004919155
-0.00027575073 -0.0005502821 -0.0031160046 0.0044410015 0.034042124 -0.20644467 0.009330856 0.30331147
0.008348402 0.44452626 -0.004673408 0.12896639 -0.0021255745 0.046111446 0.0006545041 0.0002849219
-0.0021743346 -0.006104711 0.007651749 0.0036552188 0.076624125 0.0031729238 0.016201789 -0.0034220181
-0.0014227934 -0.08704093 0.0028746545 0.1573199 0.79646695 -0.2967391 0.19894724 -0.0044175843
-0.004512886 0.0041272696 0.8254204 0.008210364 -0.00056302396 -0.23328567 0.003287857 0.005390829
-1.947739e-05 0.00923917 -0.19115366 0.012657789 0.026962724 0.011417896 6.257577e-05 -0.007168185
-0.008935448 0.0050635906 0.007967201 -0.010541002 0.09380952 0.0017160448 -0.0015070133 -0.0050296304
-0.24348812 0.20424286 0.15749076 0.0154447425 0.0011980963 0.0018244307 0.002021684 -0.0075932564
-0.0019821227 0.002704893 0.30370829 -0.012267098 -0.0018689516 -0.0003209674 -0.0049649463 0.2747224
0.00070564303 -0.0030823862 0.5064469 -0.3751558 -0.098188706 -0.0038685615 -0.0067929435 0.655788
0.32852387 0.0058920123 0.021326939 -0.0013973553 0.03704746 0.0028726086 -0.1456601 0.15787865
0.006219527 0.006459784 -0.0026168241 0.0054602874 -0.06575206 0.00041781896 -0.001506095 0.4448139
-0.083397076 0.19014579 -0.020536767 -0.0031881705 -0.030184945 -0.30068514 -0.02986671 -0.5603727

lstm/lstm_cell/bias1 f4 [512]
00000000: 16ff b8bf 466c d7bf 1a76 b5bd 931c 40c0
00000010: 49f2 3cc0 f2b3 48c0 c90d aabf dc42 acbf
00000020: 11dd 46be f0a9 a5bf b61a 42c0 0f5f 2ec0
00000030: 9e16 3bc0 5c81 10c0 66ab 13be 8ab3 2fc0
00000040: 9ab9 24c0 6a97 27c0 3594 03c0 d43b 4fc0
00000050: b180 4ac0 4ab0 0bc0 ad12 a3bf 8c49 38c0
00000060: 795e 45c0 195e 23c0 d40d 3fc0 80f1 30c0
00000070: 26b2 febf 6b6e bebf f25b 48c0 d575 84bf
00000080: 7363 49c0 3f5b 2abf 9652 4cc0 8a94 00c0
00000090: 9882 17c0 1a51 07c0 a33e 33c0 44bb 41c0
000000a0: 705a 52c0 6956 3fc0 c5f2 57c0 257f 4fc0
000000b0: 863c e3bf f3df 19c0 ebf7 11c0 d11a 2ec0
000000c0: 268d 5bc0 f121 03c0 ef50 3fc0 4e5a c4bf
000000d0: 2689 c0bd 33fd a1bf db4a c2bf f151 2cc0
000000e0: dc36 33c0 0a32 3fc0 5f59 debd c49c 1fc0
000000f0: 11d3 46c0 77d6 65bf 0581 47c0 b695 4fc0
00000100: 6978 3fc0 b91d 07c0 3398 b9bf a2eb e7bf
00000110: 12b2 fcbf 9c66 45c0 0c4e 4bc0 1845 fabf
00000120: f285 2ec0 70aa 48c0 cb06 41c0 8101 33c0
00000130: 3425 d4bf f2d8 1ec0 4c67 3dc0 0197 22c0
00000140: 0cca 9dbe 2487 b2bf fb0d 93bf 5db5 39c0
00000150: ca52 58c0 c2e1 41c0 54ff 28c0 31c8 4cc0
00000160: a99e 35c0 1803 30c0 6767 aabf 452c 22c0
00000170: 61c8 3bc0 5de5 06c0 b7f8 41c0 c601 acbf
00000180: 172c 35c0 2e14 3ec0 88da 223f 8daf a8bf
00000190: 3e97 febf ad2c 08c0 1829 3cc0 59a8 81be
000001a0: ab0a 93bf 0d9a 3dc0 3d6c 13c0 2cf0 3bc0
000001b0: 25be 1cc0 c28f 4ac0 3171 c4bf 277a c2bf
000001c0: 0619 2bc0 fceb 3fc0 3435 4dc0 9af7 05c0
000001d0: d748 c1bf 35eb 2dc0 2f0a 1bc0 fdaa 4cbf
000001e0: d0f9 8bbf 2458 c5bf 51ed 39c0 13c2 4fc0
000001f0: 31a5 02c0 590b 9dbf bdaf fbbf 9060 0dbf
00000200: 9af2 a43f 5545 4dbf a15e 2040 c8c5 67bf
00000210: 988c 42bf ce4d 44bf a389 b43f a805 ae3f
00000220: a43f f43f 2a64 b23f e06a 2abf 3150 45be
00000230: a43b 15be 17cf 313e 61d0 cb3d 98f4 06bf
00000240: 848a 463b c46d 7bbf 49b7 98bf 4800 5abe
00000250: 298a 03bf d48c 9d3e a624 a13f c8f0 46bf
00000260: 14bb eabe 2a34 33bf 991f 11bf da64 ccbe
00000270: abd4 663f 174a a53f 2d05 92bd 59a5 e8bf
00000280: 8240 a7be f084 0a40 8088 a9be 1ccf b5bf
00000290: f9cc 313e f1c2 d8bd 2dda e1be 4b1b 30be
000002a0: 8c6a 05bf e20f f8bd e0c6 7dbe 727c 68bf
000002b0: 997a 843f d9d7 fe3d 8c92 b6bf c90d f8be
000002c0: 9cd9 cabd 1e23 b4be 2cd9 cdbe 9640 ad3f
000002d0: fc11 0240 7664 ae3f 43e0 a03f 97cb cc3a
000002e0: 5fa9 06bf 061d b7be 8aca ec3f 24c4 91bf
000002f0: ab02 a3be 0b6c 193f 1ff9 b7be 84f2 30bf
00000300: 56e2 13bf 3f25 113f 3b8c ad3f bfe5 a9bf
00000310: 83d2 613f d1da dbbe 2b8f 97be 63c5 923e
00000320: 979b 3cbf c302 80be b33c 2bbf df07 96bf
00000330: 6f84 8b3f 742a 32bf 15d6 03bf 2781 76be
00000340: 9384 263f 7c4d a63f de5c 273f 47e2 81bf
00000350: 23b1 5ebe 0c81 4abf 2aed 86bd 5a59 eebe
00000360: 1bb6 21bf 5ea1 30bd 2b3f b33f b352 1c3e
00000370: bdf3 1abe 9c27 aa3e f796 bdbf 2067 b43f
00000380: c16e 86be 18b8 41bf ab46 e9bc 7884 d33d
00000390: 8b82 2cbd dac5 a83e 1110 28bf 305a f53f
000003a0: 17c4 bd3f e791 edbe cdf8 6ebf 49be 66bf
000003b0: ace0 8ebe 590b 82be 8c30 b13f aeb8 9f3f
000003c0: 61c0 3ebf ec51 74be 9046 10bf bd20 aa3e
000003d0: 149e 96bf 08f3 33bf 2b90 b13d 7f8d d83f
000003e0: 06db a73c 95fa 9f3f 1063 e3be 8a9f 5bbf
000003f0: dca9 0f3f 95a3 b93f 022f 493f cd15 8e3f
-1.4452846 -1.6829917 -0.08860417 -3.001744 -2.952288 -3.135983 -1.3285457 -1.3457904
-0.19420268 -1.2942486 -3.0328803 -2.724552 -2.9232554 -2.2578955 -0.14420852 -2.7453332
-2.5738282 -2.6186166 -2.0559208 -3.2380266 -3.1641047 -2.1826348 -1.2740074 -2.879489
-3.0838912 -2.5526183 -2.985219 -2.76474 -1.9898117 -1.4877447 -3.130612 -1.034846
-3.146695 -0.6654548 -3.1925406 -2.009066 -2.3673458 -2.114325 -2.800698 -3.0270548
-3.2867699 -2.989649 -3.3741925 -3.2421353 -1.7752845 -2.4042938 -2.2807567 -2.7203867
-3.43049 -2.0489466 -2.9893148 -1.5340059 -0.09401159 -1.2655395 -1.5179094 -2.6925013
-2.8002234 -2.9874291 -0.1085689 -2.4939432 -3.1066325 -0.8978037 -3.1172497 -3.2435126
-2.9917243 -2.1111891 -1.4499573 -1.8118784 -1.9741843 -3.0843878 -3.1766386 -1.9552336
-2.7269254 -3.1354027 -3.0160396 -2.7969668 -1.6573853 -2.4819913 -2.9594297 -2.5404665
-0.30818212 -1.3947492 -1.1488642 -2.9016945 -3.380053 -3.0294042 -2.640584 -3.1997187
-2.8378088 -2.7501888 -1.3312806 -2.533952 -2.9341052 -2.1077492 -3.0308053 -1.3438041
-2.830816 -2.9699817 0.636147 -1.3178574 -1.9889905 -2.1277268 -2.9400082 -0.25323752
-1.1487631 -2.9625275 -2.3034813 -2.936534 -2.4491055 -3.1650243 -1.5347043 -1.5193528
-2.6734023 -2.9987783 -3.2063723 -2.0932374 -1.5100354 -2.717481 -2.4224966 -0.7994841
-1.0935612 -1.5417523 -2.9051096 -3.2462204 -2.0413325 -1.2269088 -1.9663006 -0.5522547
1.2886536 -0.8018392 2.5057757 -0.90536165 -0.7599578 -0.7668122 1.4104503 1.3595476
1.9081922 1.3936818 -0.6656933 -0.19268872 -0.14573532 0.17364155 0.099518545 -0.5271697
0.0030294964 -0.98214364 -1.1930934 -0.2128917 -0.5138269 0.30771506 1.2589309 -0.77711153
-0.45845854 -0.7000147 -0.5668884 -0.39920694 0.90168256 1.2913235 -0.071298935 -1.817546
-0.32666403 2.1643639 -0.33111954 -1.420383 0.17363347 -0.10584057 -0.44111767 -0.17197911
-0.521157 -0.121124044 -0.24782896 -0.9081489 1.0349914 0.124435134 -1.4263473 -0.48448017
-0.09904787 -0.35183042 -0.40204751 1.3535335 2.0323477 1.3624408 1.2568439 0.0015624639
-0.5260219 -0.3576433 1.849931 -1.1387982 -0.31837973 0.59930485 -0.35932252 -0.6912005
-0.57767236 0.5669746 1.355842 -1.3273238 0.8821184 -0.4294038 -0.29601416 0.2866622
-0.7367491 -0.25002107 -0.66889495 -1.1721152 1.089979 -0.6959603 -0.5149854 -0.24072705
0.6504604 1.2992396 0.6537608 -1.0147179 -0.2174726 -0.7910316 -0.06588204 -0.46552545
-0.63168496 -0.04312264 1.4003652 0.15265922 -0.15132041 0.33233345 -1.4811696 1.4093971
-0.26256374 -0.7567153 -0.02847608 0.10328001 -0.042116683 0.3296345 -0.65649515 1.9168148
1.4825467 -0.46400377 -0.9334839 -0.901341 -0.27905786 -0.25399283 1.384294 1.2478235
-0.74512297 -0.23859376 -0.5635767 0.33228102 -1.1766992 -0.7029271 0.08670076 1.6918181
0.02049018 1.2498347 -0.44411516 -0.8579031 0.5611856 1.4503046 0.78587353 1.1100403

std.constant12 i1 [512, 128] scale=0.042560205 zero_point=0
00000000: f21f 0e04 f408 fc01 feff 11fd 0405 bafc
00000010: fdf9 ed02 1108 11fc fff6 f609 0102 03cc
00000020: 072f fc03 03ca fa01 0ffa 0401 fcfc 03fd
00000030: f92e 0007 1d06 fffc f8fe 020d eb21 130a
00000040: 000a f215 04e7 0500 f108 0b01 ff07 f1f1
00000050: 370c c6eb fa00 00f3 0000 00fa 0315 00fd
00000060: 0708 1318 2c05 0b13 fd07 edfc d600 ef02
00000070: ff01 f4f8 00f4 ff06 42f1 1a05 0c01 0006
00000080: fced f8f5 0505 faf7 0efc fa00 fd04 fe01
00000090: 0003 0801 0103 05fc fffd fdfa ff03 fe09
000000a0: fc01 02f4 03ff 0201 0101 05fa fdff ff02
000000b0: 0000 feff 0102 fe02 05fd f4fb 0013 fd00
000000c0: fd00 fff8 fd00 0002 0b02 fc04 fd02 02fe
000000d0: 1d01 f8ff fb04 0206 0000 fb02 0003 09fb
000000e0: 0100 f20c 0802 06fa fdff fb02 02fd 05fe
000000f0: 00fc fcff fc04 fefa 07f9 fe00 0003 05fe
-0.59584284 1.3193663 0.59584284 0.17024082 -0.51072246 0.34048164 -0.17024082 0.042560205
-0.08512041 -0.042560205 0.7235235 -0.12768061 0.17024082 0.21280102 -2.9792144 -0.17024082
-0.12768061 -0.29792142 -0.8086439 0.08512041 0.7235235 0.34048164 0.7235235 -0.17024082
-0.042560205 -0.42560205 -0.42560205 0.38304186 0.042560205 0.08512041 0.12768061 -2.2131307
0.29792142 2.0003297 -0.17024082 0.12768061 0.12768061 -2.2982512 -0.25536123 0.042560205
0.63840306 -0.25536123 0.17024082 0.042560205 -0.17024082 -0.17024082 0.12768061 -0.12768061
-0.29792142 1.9577694 0.0 0.29792142 1.2342459 0.25536123 -0.042560205 -0.17024082
-0.34048164 -0.08512041 0.08512041 0.5532827 -0.8937643 1.4044868 0.8086439 0.42560205
0.0 0.42560205 -0.59584284 0.8937643 0.17024082 -1.0640051 0.21280102 0.0
-0.63840306 0.34048164 0.46816224 0.042560205 -0.042560205 0.29792142 -0.63840306 -0.63840306
2.3408113 0.51072246 -2.4684918 -0.8937643 -0.25536123 0.0 0.0 -0.5532827
0.0 0.0 0.0 -0.25536123 0.12768061 0.8937643 0.0 -0.12768061
0.29792142 0.34048164 0.8086439 1.0214449 1.872649 0.21280102 0.46816224 0.8086439
-0.12768061 0.29792142 -0.8086439 -0.17024082 -1.7875286 0.0 -0.7235235 0.08512041
-0.042560205 0.042560205 -0.51072246 -0.34048164 0.0 -0.51072246 -0.042560205 0.25536123
2.8089736 -0.63840306 1.1065654 0.21280102 0.51072246 0.042560205 0.0 0.25536123
-0.17024082 -0.8086439 -0.34048164 -0.46816224 0.21280102 0.21280102 -0.25536123 -0.38304186
0.59584284 -0.17024082 -0.25536123 0.0 -0.12768061 0.17024082 -0.08512041 0.042560205
0.0 0.12768061 0.34048164 0.042560205 0.042560205 0.12768061 0.21280102 -0.17024082
-0.042560205 -0.12768061 -0.12768061 -0.25536123 -0.042560205 0.12768061 -0.08512041 0.38304186
-0.17024082 0.042560205 0.08512041 -0.51072246 0.12768061 -0.042560205 0.08512041 0.042560205
0.042560205 0.042560205 0.21280102 -0.25536123 -0.12768061 -0.042560205 -0.042560205 0.08512041
0.0 0.0 -0.08512041 -0.042560205 0.042560205 0.08512041 -0.08512041 0.08512041
0.21280102 -0.12768061 -0.51072246 -0.21280102 0.0 0.8086439 -0.12768061 0.0
-0.12768061 0.0 -0.042560205 -0.34048164 -0.12768061 0.0 0.0 0.08512041
0.46816224 0.08512041 -0.17024082 0.17024082 -0.12768061 0.08512041 0.08512041 -0.08512041
1.2342459 0.042560205 -0.34048164 -0.042560205 -0.21280102 0.17024082 0.08512041 0.25536123
0.0 0.0 -0.21280102 0.08512041 0.0 0.12768061 0.38304186 -0.21280102
0.042560205 0.0 -0.59584284 0.51072246 0.34048164 0.08512041 0.25536123 -0.25536123
-0.12768061 -0.042560205 -0.21280102 0.08512041 0.08512041 -0.12768061 0.21280102 -0.08512041
0.0 -0.17024082 -0.17024082 -0.042560205 -0.17024082 0.17024082 -0.08512041 -0.25536123
0.29792142 -0.29792142 -0.08512041 0.0 0.0 0.12768061 0.21280102 -0.08512041

std.constant13 f4 [512, 1]
00000000: 3258 dd3e d9ce 3d3f 3502 043e b7ea 1f3f
00000010: ccc7 4f3f aa0c 68be 8c11 ee3e ada9 483e
00000020: 655b 433e db99 8f3e ce77 3c3e 9ab0 af3d
00000030: 918e 223e 45b3 8c3e e39d 3f3f f3ed 37bf
00000040: 156f 643e 24d2 eb3e 777e 7a3f 08d1 8e3e
00000050: 8c2e 013f c27c d13e dced 283f 03d9 023e
00000060: 2faa af3e 8c59 f0bd a27b 003e d149 96bd
00000070: a24a 643e 0b04 a33e 3bb4 a43d d7fe 743e
00000080: bb90 1e3f f628 cfbe 38dd f63e d642 71bf
00000090: 3985 863e f575 053f cb18 d23c ae9a 613e
000000a0: f594 53be 4e9b cb3c 9228 b43e 49b3 8c3d
000000b0: e88f b63e 1818 5b3e 1241 9b3e 47d4 493e
000000c0: 53d7 213e 1274 3c3f 697d 1f3e d48b 6c3d
000000d0: 6892 c6be 3a81 e13e 3ec6 9f3e 1127 293e
000000e0: 8054 b33d aaab 233e 87af 14bf 4491 533f
000000f0: a960 cfbd babd d53e 4d58 e33e 6820 883d
00000100: 332c d93e 4cde 65bd ffe1 cbbd 268a 373f
00000110: ad75 093e 0616 9b3c 2897 963e 0ba9 8a3d
00000120: 0663 5c3f cdd1 723e 7f7d 6e3f 1108 bebc
00000130: 240e 703e 47c8 3b3e 3f1e d93d 32e7 f83e
00000140: 8559 be3f 11d3 31bd 63c4 b83f 4ab6 13be
00000150: 084b 733e f77c a03e 4599 4a3e 1344 883d
00000160: c720 103e de75 603e 1e0d 9f3e c4c9 da3d
00000170: 60e1 793e 27ff 4b3e be1f 983e 68a8 a03e
00000180: d547 823e f458 8dbd 7f33 acbe 7dfc 103e
00000190: 1827 843f e0ca bd3e 16ad 10be 9e02 5dbe
000001a0: cd75 853e cee0 2a3e f6f6 8cbf 1407 d33c
000001b0: ab22 fa3e d718 ee3d 514f a6bd 332a 763e
000001c0: 1dcc 063e 827d 263e ad14 4e3d ecd4 eb3e
000001d0: 724e 93be 806e b03c d1b5 8c3e 85b6 cb3d
000001e0: 0f67 393f 783a 113f 6988 cd3e 850e 123d
000001f0: 34b1 e43e a83d 853e 1ba5 ae3e ae11 44bf
00000200: de40 2bbe e9a4 8b3e 9ed5 72bd cac6 88be
00000210: 6b05 5cbe 8311 0d3e 346d e53d febb ca3e
00000220: c13d 91bd 16c7 d9bb 2f68 c43d 8c90 343d
00000230: 7468 88bd e2b3 85ba 11d6 f93e 7bf6 af3e
00000240: 6879 243d 1b5b 8b3e 9141 f93e 95ed fd3d
00000250: d03d 763a b6cf 01be b4ee 613d a447 163e
00000260: 2952 aa3e 69b8 ea3e c898 603e 0470 503e
00000270: 9057 fcbe 5580 9bbe 6247 8fbc e86d 563f
00000280: a3a3 843e 10c8 26be f730 6e3e 17f7 3e3e
00000290: b96d 55bd cd64 d73e a98f 063e 46da 813e
000002a0: 90ad b33e 1fcd f3bc 505d 753d e9f3 0c3e
000002b0: bdbd 8ebe 2d3c 27bc 5420 083f 7767 af3d
000002c0: d101 8f3e 32c9 f2be 4094 2a3e b46e c8be
000002d0: 2f50 a1be df22 14be 8f5a d7be 4c69 953d
000002e0: fc84 693e 956d 793c 90d9 48bf 8bf5 943e
000002f0: 1cbd c33e b853 dd3f 341b bf3e 0e3f 0c3f
00000300: 055b 803c 35f6 c1be 771e 3dbe 2d8f e93e
00000310: 439a f5be 0d61 223f bd30 393e 099f 82bc
00000320: 54d9 c5be b601 c13e ef8e 9ebe 5bfd 093e
00000330: ebd4 c6be c5ee 813e a3e1 d43d 23bb 0a3e
00000340: 6459 933f 96f7 bfbe 5a9d 363f 0a26 a5bd
00000350: a491 b33e 47d1 183e 593e 88bd af11 873d
00000360: eb80 373e c66e 323e 2e25 61be 750b 4f3e
00000370: 29f1 113e 1743 663e cf56 a43d 5c0e 63be
00000380: 6dba a53e 0340 193e 479b 0fbf 65fd 13bf
00000390: 9ec6 4cbe 2208 6dbe f439 abbd 4911 67be
000003a0: e186 eebc a0ca 8b3d 9217 573e e28e ba3e
000003b0: 2a95 87be 1bea eb3d 7354 06be 3ce4 bbbe
000003c0: 669e c83d 6d14 3e3d d6d5 af3e eff7 d03c
000003d0: 8b7b 273e ff2e 043e 5db2 48be c462 1e3c
000003e0: cbea 78be 7b46 34bc 0dbf 06be 3f1a a13e
000003f0: 1d11 08be cd17 17be bb92 9ebe 50e1 5abf
0.4323135 0.7414375 0.12891467 0.6246752 0.8116424 -0.22661081 0.46497762 0.19595976
0.19077833 0.2804707 0.18405077 0.08578606 0.15874697 0.27480522 0.7485029 -0.71847457
0.22308 0.46058762 0.9784922 0.27893853 0.5046165 0.40915495 0.65987945 0.12778096
0.34309527 -0.1173583 0.12547162 -0.07338298 0.22294095 0.31839022 0.08042189 0.23925339
0.6193959 -0.40460938 0.48215652 -0.9424261 0.26273516 0.52133113 0.025646588 0.22031662
-0.20662291 0.024854328 0.35187203 0.068701334 0.35656667 0.2139591 0.30323082 0.19709884
0.15804796 0.7361461 0.15575184 0.057750538 -0.38783574 0.44043905 0.31205934 0.16518809
0.087563515 0.15983453 -0.58080333 0.8264353 -0.10125858 0.41746312 0.44403306 0.06646806
0.42416534 -0.056120202 -0.09955215 0.7169517 0.13423796 0.0189314 0.29412198 0.06770524
0.860886 0.23712845 0.9316024 -0.023197206 0.23442894 0.18338118 0.10601472 0.48613888
1.4871069 -0.04341418 1.4434932 -0.14425007 0.23759091 0.3134534 0.1978503 0.06653609
0.14075004 0.21919963 0.31064695 0.10683015 0.2440238 0.19921552 0.29711717 0.31378484
0.25445428 -0.06901732 -0.33633038 0.14158817 1.032443 0.37068844 -0.14128527 -0.2158303
0.26066437 0.16687319 -1.1012866 0.025760211 0.48854575 0.116258316 -0.08120597 0.24039535
0.131638 0.16258815 0.050312687 0.46060884 -0.28770787 0.021537066 0.27482465 0.09946922
0.7242288 0.5672984 0.40143135 0.03565838 0.44666445 0.26023602 0.3411034 -0.7658948
-0.16723964 0.27274254 -0.059285752 -0.26714164 -0.21486442 0.13776211 0.112024695 0.39596552
-0.07091857 -0.0066460473 0.09590184 0.044083163 -0.06660548 -0.0010200704 0.48796132 0.34367737
0.040154845 0.27217945 0.48682836 0.12398831 0.0009393366 -0.12676892 0.055159286 0.14675766
0.33265808 0.4584382 0.21933281 0.2035523 -0.49285555 -0.30371347 -0.017490093 0.83761454
0.25906095 -0.16287255 0.23260866 0.18648945 -0.052106593 0.42069092 0.1314074 0.25361842
0.35093355 -0.029760895 0.059903443 0.1376492 -0.27879134 -0.010207218 0.5317433 0.08564656
0.27931073 -0.47419125 0.16658115 -0.3914696 -0.31506488 -0.14466427 -0.42061278 0.072954744
0.22804636 0.01522388 -0.78456974 0.29093584 0.38230217 1.7291174 0.37325442 0.54783714
0.015668401 -0.37883154 -0.18468653 0.45617047 -0.47969255 0.6342934 0.18084998 -0.015944974
-0.3864237 0.37696618 -0.30968425 0.13475554 -0.3883432 0.2537748 0.10394599 0.1354795
1.1511655 -0.3749358 0.7133385 -0.08063896 0.35072052 0.14923583 -0.06652517 0.0659517
0.17920272 0.17425069 -0.21986839 0.20219214 0.14252152 0.2248653 0.0802437 -0.22173446
0.32368794 0.14965825 -0.5609631 -0.57808524 -0.19997641 -0.23147634 -0.08360663 -0.22565188
-0.02911705 0.06825757 0.21005085 0.36437136 -0.2648099 0.115192614 -0.13118152 -0.36697567
0.09795837 0.0464062 0.3434283 0.025508849 0.16355722 0.12908553 -0.1959929 0.009667102
-0.24308316 -0.011003132 -0.13158818 0.31465337 -0.13287778 -0.14755173 -0.3097132 -0.8550005
