MLService/LSTM_single_series/LSTM_single_series.tflite (tflite, 34224 bytes, 9 tensors)

lstm_1/lstm_cell_1/bias f4 [128]
-0.026623406 -0.13191763 -0.09459083 0.07409877 -0.03540268 -0.035087593 0.053143576 0.10662841
0.022403043 0.12813042 -0.00121832 0.091451354 0.08143476 0.124717 0.030674048 0.1254781
0.12770952 0.06391897 0.111199476 0.12935308 0.12389891 0.13723443 0.09954951 0.10484606
0.15114139 0.097861975 0.108946845 0.13220415 0.053196672 -0.10560148 -0.057935514 -0.06289522
0.92366856 0.9283359 0.91401607 0.9340466 0.9442424 0.91607237 0.922997 0.9343249
0.9510128 0.95279413 0.8573873 0.9164029 0.92745095 0.9369029 0.92280215 0.95071036
0.9506246 0.9416267 0.95460546 0.9590752 0.9582052 0.9733431 0.93343896 0.9197793
0.9688593 0.93620896 0.9434043 0.9577441 0.94264346 0.9171242 0.91304207 0.91307247
-0.011319791 -0.02019336 -0.019418089 0.00883421 -0.01416906 -0.016274318 0.00926462 -0.017366482
-0.027287383 0.002871675 0.041301705 -0.020275412 -0.011698259 0.012593712 0.0076981494 0.014150495
-0.009746727 -0.0073353956 0.004233509 -0.0038503748 -0.01608789 0.0010895451 0.011094749 0.024128294
-0.015192362 0.006100142 0.013084195 0.010888206 -0.010238309 -0.001121256 0.017040132 -0.0040804558
-0.03140891 -0.13205205 -0.09339262 0.07522503 -0.035870947 -0.03488111 0.056165714 0.10658598
0.019681819 0.12575464 -0.0039798412 0.089726985 0.07466978 0.1233974 0.028988449 0.11555677
0.12446324 0.0626912 0.10716964 0.12175368 0.11300245 0.13412021 0.09320013 0.0994974
0.14315675 0.08377617 0.098663546 0.11969223 0.052191157 -0.10689436 -0.059515957 -0.062539846
00000000: 5419 dabc 6a15 07be d6b8 c1bd 19c1 973d
00000010: 6702 11bd 02b8 0fbd 14ad 593d ff5f da3d
00000020: 9686 b73c 9f34 033e 09b0 9fba d94a bb3d
00000030: 44c7 a63d a06b ff3d 2448 fb3c 557d 003e
00000040: 49c6 023e f3e7 823d 8dbc e33d 2275 043e
00000050: b6be fd3d 2f87 0c3e 9de0 cb3d 88b9 d63d
00000060: cfc4 1a3e dc6b c83d 861f df3d 8660 073e
00000070: c1e4 593d 9745 d8bd ca4d 6dbd 36cf 80bd
00000080: 8b75 6c3f 6ca7 6d3f f5fc 693f ae1d 6f3f
00000090: dfb9 713f b883 6a3f 8849 6c3f eb2f 6f3f
000000a0: 9375 733f 51ea 733f bc7d 5b3f 6199 6a3f
000000b0: 6d6d 6d3f ded8 6f3f c33c 6c3f c161 733f
000000c0: 225c 733f 730e 713f 0661 743f f485 753f
000000d0: f04c 753f 032d 793f dbf5 6e3f a876 6b3f
000000e0: 2a07 783f 64ab 6f3f f282 713f b82e 753f
000000f0: 1551 713f a7c8 6a3f 20bd 693f 1ebf 693f
00000100: a576 39bc 8c6c a5bc af12 9fbc 5dbd 103c
00000110: 5825 68bc b851 85bc a2ca 173c 2744 8ebc
00000120: ca89 dfbc b632 3c3b fa2b 293d 9f18 a6bc
00000130: 0eaa 3fbc db55 4e3c c240 fc3b 7ad7 673c
00000140: bcb0 1fbc c25d f0bb 3fb9 8a3b 9256 7cbb
00000150: c0ca 83bc 11cf 8e3a c0c6 353c b3a8 c53c
00000160: 62e9 78bc b3e3 c73b 175f 563c 7264 323c
00000170: 95be 27bc 1cf7 92ba bf97 8b3c 58b5 85bb
00000180: a1a6 00bd a738 07be a144 bfbd 950f 9a3d
00000190: 6aed 12bd 7fdf 0ebd 050e 663d c049 da3d
000001a0: c43b a13c d3c5 003e 5469 82bb c8c2 b73d
000001b0: 78ec 983d c7b7 fc3d 2f79 ed3c 07a9 ec3d
000001c0: 95e6 fe3d 3e64 803d c27b db3d fe59 f93d
000001d0: d46d e73d cf56 093e b6df be3d 4bc5 cb3d
000001e0: af97 123e d792 ab3d 1d10 ca3d 3321 f53d
000001f0: 65c6 553d 6eeb dabd 01c7 73bd e414 80bd

lstm/lstm_cell/bias f4 [128]
0.0214742 0.14095587 0.11503826 0.10685497 0.13489115 0.06704969 -0.0031501593 0.13778518
0.1183207 0.056944724 -0.037696045 -0.0016079536 0.11245936 0.091948435 0.1379779 0.044998925
-0.12756458 0.073282935 0.089913785 -0.027207084 -0.037493438 0.012968604 0.07311963 0.1248743
0.0593626 0.12675929 0.056665193 -0.06869093 0.07468476 0.02564594 0.077815756 0.081978776
0.8867589 0.96707934 0.9521496 0.9401906 0.9647246 0.9366934 0.9813828 0.9640677
0.9638971 0.92113125 0.9320847 0.94580454 0.9506659 0.9423273 0.9656222 0.9487324
0.9107794 0.8993557 0.9272116 0.908941 0.9318286 0.9016498 0.9102607 0.9574217
0.93911517 0.9666461 0.9345873 0.93185943 0.95000064 0.9633326 0.9244131 0.92020386
0.014539206 -0.011221307 0.0063969917 0.009287261 -0.015826078 -0.010216451 -0.03333328 -0.006016366
0.0062178746 0.009512339 0.0113926865 0.018935312 -0.003906943 0.0056053726 0.009218838 0.026909458
0.029447205 0.0028490524 0.01382432 0.021488298 0.019251503 -0.0032921485 -0.0005970728 0.017201807
0.028615143 -0.008314327 -0.01792035 0.060562216 0.0020509274 -0.020876896 0.0031482223 -0.014309865
0.019589683 0.13703881 0.11545639 0.102930404 0.12988353 0.06669604 -0.0025747993 0.13580918
0.119905844 0.0606825 -0.037926827 -0.003573809 0.1111327 0.09069498 0.13443197 0.043776214
-0.12672795 0.074592926 0.08724157 -0.027554328 -0.03898255 0.009480909 0.07237172 0.11955721
0.059875794 0.12406 0.055252 -0.06964381 0.07255572 0.02399581 0.07698081 0.084352955
00000000: a9ea af3c bc56 103e 2e99 eb3d c7d6 da3d
00000010: e820 0a3e 5951 893d e772 4ebb 8f17 0d3e
00000020: 2052 f23d df3e 693d 2b67 1abd f8c1 d2ba
00000030: 1851 e63d 764f bc3d 144a 0d3e cb50 383d
00000040: 4aa0 02be 5d15 963d b824 b83d 64e1 debc
00000050: b892 19bd 457a 543c bfbf 953d 19be ff3d
00000060: 3326 733d 30cd 013e c319 683d d5ad 8cbd
00000070: 53f4 983d 6f17 d23c de5d 9f3d 7de4 a73d
00000080: a202 633f 8392 773f 14c0 733f 55b0 703f
00000090: 31f8 763f 23cb 6f3f e73b 7b3f 24cd 763f
000000a0: f6c1 763f 42cf 6b3f 1a9d 6e3f 3f20 723f
000000b0: d75e 733f 5d3c 713f 0433 773f 20e0 723f
000000c0: d728 693f 2d3c 663f bd5d 6d3f 5bb0 683f
000000d0: 528c 6e3f 85d2 663f d806 693f 9719 753f
000000e0: da69 703f 1e76 773f 1d41 6f3f 578e 6e3f
000000f0: 3e33 733f f79c 763f 56a6 6c3f 7b92 6b3f
00000100: da35 6e3c 93d9 37bc db9d d13b 9929 183c
00000110: b1a5 81bc e762 27bc 7a88 08bd f024 c5bb
00000120: 50bf cb3b a4d9 1b3c 64a8 3a3c 3a1e 9b3c
00000130: d005 80bb 46ad b73b 9c0a 173c 3971 dc3c
00000140: 443b f13c 2bb7 3a3b 677f 623c 3a08 b03c
00000150: 54b5 9d3c 16c1 57bb e184 1cba ceea 8c3c
00000160: 4e6a ea3c d138 08bc b3cd 92bc 1610 783d
00000170: da68 063b 0606 abbc 6852 4e3b ed73 6abc
00000180: 8b7a a03c e753 0c3e 6674 ec3d 2dcd d23d
00000190: 3000 053e ef97 883d f7bd 28bb 9011 0b3e
000001a0: 3291 f53d 378e 783d 2959 1bbd 9136 6abb
000001b0: 8b99 e33d 4abe b93d 89a8 093e b04e 333d
000001c0: f9c4 01be 2dc4 983d b5ab b23d 9db9 e1bc
000001d0: 2bac 1fbd d155 1b3c a037 943d 69da f43d
000001e0: 5240 753d 2b13 fe3d ec4f 623d 6aa1 8ebd
000001f0: 1898 943d dc92 c43c 1da8 9d3d 3ec1 ac3d

std.constant7 f4 [1, 32]
-0.32034838 0.051083002 -0.070841245 0.43279353 -0.05473267 -0.14025214 0.2689339 -0.19871968
-0.14164567 0.49789697 0.09856223 -0.23059541 -0.3972919 0.25929198 0.36366746 0.31385764
-0.33286813 -0.46518162 0.21230485 -0.37150657 -0.4426709 0.374135 0.3251555 0.21507798
-0.41498655 0.4857062 0.34431055 0.3373062 -0.4447459 -0.08364488 0.097562805 -0.027667137
00000000: b404 a4be 693c 513d 3715 91bd 1d97 dd3e
00000010: 5d2f 60bd 429e 0fbe b4b1 893e 2c7d 4bbe
00000020: 900b 11be 5aec fe3e ffda c93d 3421 6cbe
00000030: d869 cbbe ebc1 843e 9f32 ba3e f3b1 a03e
00000040: b16d aabe 492c eebe 7166 593e 1c36 bebe
00000050: c3a5 e2be 9f8e bf3e c87a a63e 673d 5c3e
00000060: 1e79 d4be 7cae f83e 7949 b03e 66b3 ac3e
00000070: bcb5 e3be 024e abbd 02cf c73d 31a6 e2bc

lstm/lstm_cell/bias1 f4 [128]
0.0214742 0.14095587 0.11503826 0.10685497 0.13489115 0.06704969 -0.0031501593 0.13778518
0.1183207 0.056944724 -0.037696045 -0.0016079536 0.11245936 0.091948435 0.1379779 0.044998925
-0.12756458 0.073282935 0.089913785 -0.027207084 -0.037493438 0.012968604 0.07311963 0.1248743
0.0593626 0.12675929 0.056665193 -0.06869093 0.07468476 0.02564594 0.077815756 0.081978776
0.8867589 0.96707934 0.9521496 0.9401906 0.9647246 0.9366934 0.9813828 0.9640677
0.9638971 0.92113125 0.9320847 0.94580454 0.9506659 0.9423273 0.9656222 0.9487324
0.9107794 0.8993557 0.9272116 0.908941 0.9318286 0.9016498 0.9102607 0.9574217
0.93911517 0.9666461 0.9345873 0.93185943 0.95000064 0.9633326 0.9244131 0.92020386
0.014539206 -0.011221307 0.0063969917 0.009287261 -0.015826078 -0.010216451 -0.03333328 -0.006016366
0.0062178746 0.009512339 0.0113926865 0.018935312 -0.003906943 0.0056053726 0.009218838 0.026909458
0.029447205 0.0028490524 0.01382432 0.021488298 0.019251503 -0.0032921485 -0.0005970728 0.017201807
0.028615143 -0.008314327 -0.01792035 0.060562216 0.0020509274 -0.020876896 0.0031482223 -0.014309865
0.019589683 0.13703881 0.11545639 0.102930404 0.12988353 0.06669604 -0.0025747993 0.13580918
0.119905844 0.0606825 -0.037926827 -0.003573809 0.1111327 0.09069498 0.13443197 0.043776214
-0.12672795 0.074592926 0.08724157 -0.027554328 -0.03898255 0.009480909 0.07237172 0.11955721
0.059875794 0.12406 0.055252 -0.06964381 0.07255572 0.02399581 0.07698081 0.084352955
00000000: a9ea af3c bc56 103e 2e99 eb3d c7d6 da3d
00000010: e820 0a3e 5951 893d e772 4ebb 8f17 0d3e
00000020: 2052 f23d df3e 693d 2b67 1abd f8c1 d2ba
00000030: 1851 e63d 764f bc3d 144a 0d3e cb50 383d
00000040: 4aa0 02be 5d15 963d b824 b83d 64e1 debc
00000050: b892 19bd 457a 543c bfbf 953d 19be ff3d
00000060: 3326 733d 30cd 013e c319 683d d5ad 8cbd
00000070: 53f4 983d 6f17 d23c de5d 9f3d 7de4 a73d
00000080: a202 633f 8392 773f 14c0 733f 55b0 703f
00000090: 31f8 763f 23cb 6f3f e73b 7b3f 24cd 763f
000000a0: f6c1 763f 42cf 6b3f 1a9d 6e3f 3f20 723f
000000b0: d75e 733f 5d3c 713f 0433 773f 20e0 723f
000000c0: d728 693f 2d3c 663f bd5d 6d3f 5bb0 683f
000000d0: 528c 6e3f 85d2 663f d806 693f 9719 753f
000000e0: da69 703f 1e76 773f 1d41 6f3f 578e 6e3f
000000f0: 3e33 733f f79c 763f 56a6 6c3f 7b92 6b3f
00000100: da35 6e3c 93d9 37bc db9d d13b 9929 183c
00000110: b1a5 81bc e762 27bc 7a88 08bd f024 c5bb
00000120: 50bf cb3b a4d9 1b3c 64a8 3a3c 3a1e 9b3c
00000130: d005 80bb 46ad b73b 9c0a 173c 3971 dc3c
00000140: 443b f13c 2bb7 3a3b 677f 623c 3a08 b03c
00000150: 54b5 9d3c 16c1 57bb e184 1cba ceea 8c3c
00000160: 4e6a ea3c d138 08bc b3cd 92bc 1610 783d
00000170: da68 063b 0606 abbc 6852 4e3b ed73 6abc
00000180: 8b7a a03c e753 0c3e 6674 ec3d 2dcd d23d
00000190: 3000 053e ef97 883d f7bd 28bb 9011 0b3e
000001a0: 3291 f53d 378e 783d 2959 1bbd 9136 6abb
000001b0: 8b99 e33d 4abe b93d 89a8 093e b04e 333d
000001c0: f9c4 01be 2dc4 983d b5ab b23d 9db9 e1bc
000001d0: 2bac 1fbd d155 1b3c a037 943d 69da f43d
000001e0: 5240 753d 2b13 fe3d ec4f 623d 6aa1 8ebd
000001f0: 1898 943d dc92 c43c 1da8 9d3d 3ec1 ac3d

std.constant12 i1 [128, 32] scale=0.0029348808 zero_point=0
0.07337202 0.10565571 0.090981305 -0.096851066 0.13500452 0.10565571 -0.04108833 -0.03521857
-0.026413927 -0.052827854 -0.10565571 -0.0058697616 0.07924178 -0.046958093 -0.044023212 -0.14967892
-0.0029348808 -0.10565571 -0.029348807 -0.014674404 -0.13206963 -0.020544166 0.06750226 -0.0763069
0.0 -0.023479046 0.058697615 -0.093916185 -0.049892973 0.22598583 0.0 0.046958093
0.0 0.044023212 0.07337202 0.12619987 0.0058697616 0.08217666 0.03228369 0.1379394
-0.03228369 -0.090981305 0.07337202 0.0058697616 0.058697615 0.020544166 -0.090981305 0.096851066
-0.061632495 0.03228369 0.19076726 0.0 -0.090981305 0.17022309 -0.03815345 -0.017609285
-0.029348807 0.058697615 -0.044023212 -0.2729439 -0.008804643 -0.026413927 0.07924178 -0.12033011
0.049892973 0.14087428 -0.13206963 0.0058697616 0.046958093 -0.13206963 0.12326499 0.0058697616
-0.12619987 -0.093916185 -0.096851066 -0.08217666 -0.20544165 -0.020544166 0.03228369 -0.044023212
-0.093916185 -0.10859059 -0.061632495 0.052827854 0.058697615 -0.052827854 -0.020544166 -0.029348807
-0.0763069 -0.0029348808 -0.07924178 -0.2612044 0.10859059 -0.12326499 0.10859059 0.17022309
-0.10272083 -0.029348807 -0.011739523 0.16435333 -0.18489748 0.17609285 0.03228369 -0.011739523
-0.017609285 -0.008804643 -0.03815345 0.049892973 0.10565571 -0.08511154 0.07924178 -0.13500452
-0.12326499 0.058697615 0.088046424 -0.049892973 -0.011739523 -0.18489748 0.1995719 0.049892973
0.07043714 0.1995719 -0.014674404 -0.10272083 0.058697615 -0.0029348808 -0.008804643 0.0
0.0058697616 0.096851066 -0.052827854 0.11446035 -0.10859059 -0.08511154 0.07924178 0.026413927
-0.026413927 0.058697615 0.052827854 -0.19076726 0.04108833 0.06750226 -0.029348807 0.0058697616
0.10565571 -0.11446035 -0.008804643 -0.06750226 -0.008804643 -0.08217666 -0.07924178 -0.13206963
0.0029348808 -0.11446035 -0.014674404 -0.24652998 0.058697615 0.08511154 -0.090981305 0.03815345
0.08217666 0.090981305 -0.1379394 0.090981305 -0.13206963 0.16435333 0.049892973 0.029348807
0.11446035 0.0058697616 -0.093916185 -0.026413927 0.07337202 0.0029348808 -0.011739523 -0.11446035
0.044023212 0.07337202 -0.0029348808 -0.020544166 0.03228369 0.11446035 0.08217666 -0.020544166
-0.06750226 0.13500452 0.044023212 -0.24359511 -0.17609285 0.0 -0.029348807 -0.11152547
0.16141844 -0.0029348808 -0.13206963 -0.20544165 0.0763069 0.07924178 -0.06456738 0.14380915
-0.029348807 -0.008804643 0.008804643 0.04108833 -0.014674404 -0.07924178 0.03228369 -0.11446035
0.11152547 -0.008804643 -0.03521857 0.0763069 0.15848356 0.011739523 -0.11152547 -0.06456738
0.14087428 0.07043714 -0.07043714 -0.16141844 0.088046424 0.15848356 0.07924178 0.17315796
0.014674404 0.049892973 -0.055762734 -0.14380915 0.0 0.1672882 -0.0029348808 -0.058697615
-0.017609285 0.18489748 0.0 -0.044023212 0.19076726 0.10272083 0.08511154 0.044023212
0.07924178 0.020544166 0.0 -0.029348807 -0.04108833 -0.06750226 0.03815345 -0.23185559
-0.044023212 -0.055762734 -0.017609285 -0.008804643 0.052827854 -0.011739523 0.07043714 -0.15848356
00000000: 1924 1fdf 2e24 f2f4 f7ee dcfe 1bf0 f1cd
00000010: ffdc f6fb d3f9 17e6 00f8 14e0 ef4d 0010
00000020: 000f 192b 021c 0b2f f5e1 1902 1407 e121
00000030: eb0b 4100 e13a f3fa f614 f1a3 fdf7 1bd7
00000040: 1130 d302 10d3 2a02 d5e0 dfe4 baf9 0bf1
00000050: e0db eb12 14ee f9f6 e6ff e5a7 25d6 253a
00000060: ddf6 fc38 c13c 0bfc fafd f311 24e3 1bd2
00000070: d614 1eef fcc1 4411 1844 fbdd 14ff fd00
00000080: 0221 ee27 dbe3 1b09 f714 12bf 0e17 f602
00000090: 24d9 fde9 fde4 e5d3 01d9 fbac 141d e10d
000000a0: 1c1f d11f d338 110a 2702 e0f7 1901 fcd9
000000b0: 0f19 fff9 0b27 1cf9 e92e 0fad c400 f6da
000000c0: 37ff d3ba 1a1b ea31 f6fd 030e fbe5 0bd9
000000d0: 26fd f41a 3604 daea 3018 e8c9 1e36 1b3b
000000e0: 0511 edcf 0039 ffec fa3f 00f1 4123 1d0f
000000f0: 1b07 00f6 f2e9 0db1 f1ed fafd 12fc 18ca

std.constant13 f4 [128, 1]
-0.077927545 -0.10698026 0.030668534 -0.19070804 0.01574511 0.20394917 0.09428923 -0.07563581
-0.06652682 0.10583923 -0.15323333 -0.2203463 -0.088924706 -0.07007201 -0.09006763 -0.21669403
0.20047595 -0.16401704 0.21033052 -0.21109584 -0.007937056 -0.07150234 -0.13365255 0.11437175
0.065130435 0.107741326 -0.19452684 0.15624824 -0.029734742 0.061732445 0.21397103 0.010976578
-0.10153236 0.054394934 -0.053903844 -0.14053428 -0.19748443 0.13735445 0.09702112 -0.08198247
0.021341959 -0.05032117 0.10801545 -0.07395428 0.14436637 -0.025876466 -0.10439115 -0.09286513
0.07570312 0.08350848 -0.009416909 -0.18872847 -0.02818644 -0.07332842 -0.16573885 0.057762947
-0.017777931 -0.08956531 -0.16812079 -0.12678194 0.12188323 0.18248165 0.20449355 -0.18005538
0.1184079 -0.3468712 0.2192959 0.22835499 -0.34780094 -0.13543703 0.01670133 -0.3189626
0.24203157 -0.20752786 -0.10762735 -0.16360024 -0.29344684 0.27288237 0.36143902 -0.24337138
0.060639184 0.19065608 0.18694292 0.19580993 -0.19897747 -0.10913846 0.20976382 0.31139696
-0.22731541 -0.31466785 0.26215756 0.092676155 0.13710923 0.13844103 0.18538134 -0.17987882
-0.10154371 0.19302636 0.1094297 -0.12687436 0.033869896 -0.1364334 0.14273895 0.09879771
0.1644253 -0.16090211 0.15253174 0.043202605 0.073473245 0.16722755 0.14138606 0.18161604
-0.12995674 -0.11054993 -0.116655186 -0.16793053 0.17184007 -0.020618763 0.18234164 0.066727296
0.010493358 -0.06973241 0.16140279 -0.06778371 0.24086358 -0.20548946 0.20813298 0.14956248
00000000: 7a98 9fbd 7718 dbbd 943c fb3c f848 43be
00000010: e4fb 803c 0dd8 503e b61a c13d f3e6 9abd
00000020: 373f 88bd 3dc2 d83d 33e9 1cbe 76a2 61be
00000030: 281e b6bd ea81 8fbd 6175 b8bd 0ae5 5dbe
00000040: 9149 4d3e 15f4 27be e260 573e 8229 58be
00000050: 6d0a 02bc d26f 92bd 37dc 08be bc3b ea3d
00000060: 1b63 853d 7ca7 dc3d 0b32 47be 8aff 1f3e
00000070: 4696 f3bc 29db 7c3d 391b 5b3e 1bd7 333c
00000080: 33f0 cfbd 39cd 5e3d 47ca 5cbd 38e8 0fbe
00000090: 5c39 4abe a5a6 0c3e 02b3 c63d 6de6 a7bd
000000a0: 55d5 ae3c 921d 4ebd 3437 dd3d 5775 97bd
000000b0: c7d4 133e e2fa d3bc 07cb d5bd 1330 bebd
000000c0: 3d0a 9b3d 7e06 ab3d 6149 1abc 0942 41be
000000d0: 40e7 e6bc 362d 96bd 72b7 29be d798 6c3d
000000e0: 06a3 91bc 046e b7bd db27 2cbe 20d3 01be
000000f0: ea9d f93d 78dc 3a3e c266 513e 7060 38be
00000100: d77f f23d 1a99 b1be 1b8f 603e e4d5 693e
00000110: f712 b2be 01b0 0abe 3ad1 883c 114f a3be
00000120: 20d7 773e 2f82 54be ba6b dcbd d286 27be
00000130: aa3e 96be 3db7 8b3e 890e b93e 5936 79be
00000140: cb60 783d 593b 433e f76d 3f3e 6682 483e
00000150: c0c0 4bbe fc83 dfbd 54cc 563e 6c6f 9f3e
00000160: 5fc5 68be 251c a1be 8439 863e ffcc bd3d
00000170: 5d66 0c3e 7cc3 0d3e 9bd4 3d3e 2732 38be
00000180: 26f6 cfbd b4a8 453e ae1c e03d 5aeb 01be
00000190: 29bb 0a3d 32b5 0bbe 292a 123e 7456 ca3d
000001a0: 1b5f 283e 86c3 24be 4831 1c3e 37f5 303d
000001b0: 2479 963d b33d 2b3e 82c7 103e 8ef9 393e
000001c0: 6113 05be 0068 e2bd eae8 eebd fbf5 2bbe
000001d0: d8f6 2f3e aee8 a8bc c4b7 3a3e 52a8 883d
000001e0: 55ec 2b3c decf 8ebd c646 253e 30d2 8abd
000001f0: f1a4 763e d46b 52be d020 553e e826 193e

lstm_1/lstm_cell_1/bias1 f4 [128]
-0.026623406 -0.13191763 -0.09459083 0.07409877 -0.03540268 -0.035087593 0.053143576 0.10662841
0.022403043 0.12813042 -0.00121832 0.091451354 0.08143476 0.124717 0.030674048 0.1254781
0.12770952 0.06391897 0.111199476 0.12935308 0.12389891 0.13723443 0.09954951 0.10484606
0.15114139 0.097861975 0.108946845 0.13220415 0.053196672 -0.10560148 -0.057935514 -0.06289522
0.92366856 0.9283359 0.91401607 0.9340466 0.9442424 0.91607237 0.922997 0.9343249
0.9510128 0.95279413 0.8573873 0.9164029 0.92745095 0.9369029 0.92280215 0.95071036
0.9506246 0.9416267 0.95460546 0.9590752 0.9582052 0.9733431 0.93343896 0.9197793
0.9688593 0.93620896 0.9434043 0.9577441 0.94264346 0.9171242 0.91304207 0.91307247
-0.011319791 -0.02019336 -0.019418089 0.00883421 -0.01416906 -0.016274318 0.00926462 -0.017366482
-0.027287383 0.002871675 0.041301705 -0.020275412 -0.011698259 0.012593712 0.0076981494 0.014150495
-0.009746727 -0.0073353956 0.004233509 -0.0038503748 -0.01608789 0.0010895451 0.011094749 0.024128294
-0.015192362 0.006100142 0.013084195 0.010888206 -0.010238309 -0.001121256 0.017040132 -0.0040804558
-0.03140891 -0.13205205 -0.09339262 0.07522503 -0.035870947 -0.03488111 0.056165714 0.10658598
0.019681819 0.12575464 -0.0039798412 0.089726985 0.07466978 0.1233974 0.028988449 0.11555677
0.12446324 0.0626912 0.10716964 0.12175368 0.11300245 0.13412021 0.09320013 0.0994974
0.14315675 0.08377617 0.098663546 0.11969223 0.052191157 -0.10689436 -0.059515957 -0.062539846
00000000: 5419 dabc 6a15 07be d6b8 c1bd 19c1 973d
00000010: 6702 11bd 02b8 0fbd 14ad 593d ff5f da3d
00000020: 9686 b73c 9f34 033e 09b0 9fba d94a bb3d
00000030: 44c7 a63d a06b ff3d 2448 fb3c 557d 003e
00000040: 49c6 023e f3e7 823d 8dbc e33d 2275 043e
00000050: b6be fd3d 2f87 0c3e 9de0 cb3d 88b9 d63d
00000060: cfc4 1a3e dc6b c83d 861f df3d 8660 073e
00000070: c1e4 593d 9745 d8bd ca4d 6dbd 36cf 80bd
00000080: 8b75 6c3f 6ca7 6d3f f5fc 693f ae1d 6f3f
00000090: dfb9 713f b883 6a3f 8849 6c3f eb2f 6f3f
000000a0: 9375 733f 51ea 733f bc7d 5b3f 6199 6a3f
000000b0: 6d6d 6d3f ded8 6f3f c33c 6c3f c161 733f
000000c0: 225c 733f 730e 713f 0661 743f f485 753f
000000d0: f04c 753f 032d 793f dbf5 6e3f a876 6b3f
000000e0: 2a07 783f 64ab 6f3f f282 713f b82e 753f
000000f0: 1551 713f a7c8 6a3f 20bd 693f 1ebf 693f
00000100: a576 39bc 8c6c a5bc af12 9fbc 5dbd 103c
00000110: 5825 68bc b851 85bc a2ca 173c 2744 8ebc
00000120: ca89 dfbc b632 3c3b fa2b 293d 9f18 a6bc
00000130: 0eaa 3fbc db55 4e3c c240 fc3b 7ad7 673c
00000140: bcb0 1fbc c25d f0bb 3fb9 8a3b 9256 7cbb
00000150: c0ca 83bc 11cf 8e3a c0c6 353c b3a8 c53c
00000160: 62e9 78bc b3e3 c73b 175f 563c 7264 323c
00000170: 95be 27bc 1cf7 92ba bf97 8b3c 58b5 85bb
00000180: a1a6 00bd a738 07be a144 bfbd 950f 9a3d
00000190: 6aed 12bd 7fdf 0ebd 050e 663d c049 da3d
000001a0: c43b a13c d3c5 003e 5469 82bb c8c2 b73d
000001b0: 78ec 983d c7b7 fc3d 2f79 ed3c 07a9 ec3d
000001c0: 95e6 fe3d 3e64 803d c27b db3d fe59 f93d
000001d0: d46d e73d cf56 093e b6df be3d 4bc5 cb3d
000001e0: af97 123e d792 ab3d 1d10 ca3d 3321 f53d
000001f0: 65c6 553d 6eeb dabd 01c7 73bd e414 80bd

std.constant22 i1 [128, 32] scale=0.0029930172 zero_point=0
0.08380448 0.04190224 -0.056867328 0.08380448 0.026937155 0.02095112 -0.077818446 -0.011972069
-0.09577655 0.04190224 0.0059860344 0.12570672 -0.15862991 0.050881293 0.050881293 0.20053215
0.044895258 0.047888275 0.11672767 -0.09577655 0.20053215 0.18257405 -0.023944138 0.15264387
0.101762585 -0.2963087 -0.0867975 -0.101762585 0.038909223 0.09876957 -0.047888275 0.011972069
0.14366482 0.08380448 -0.113734655 -0.24842043 0.23644836 0.09278353 -0.1406718 0.029930172
-0.023944138 -0.089790516 -0.16461594 0.10774862 0.0867975 -0.008979051 0.02095112 -0.05387431
0.050881293 0.08380448 -0.023944138 0.15862991 0.26637852 0.032923188 -0.065846376 -0.2244763
0.101762585 -0.09577655 0.1047556 -0.023944138 0.06883939 0.17060198 -0.09577655 -0.089790516
-0.065846376 -0.09876957 -0.044895258 0.11074164 0.014965086 -0.11972069 -0.14366482 -0.011972069
0.13468577 -0.08380448 -0.17658801 0.0029930172 0.065846376 -0.11972069 -0.09577655 0.0867975
0.06883939 0.026937155 -0.038909223 -0.14366482 -0.026937155 0.0029930172 -0.25440645 -0.07183241
-0.032923188 -0.0059860344 -0.113734655 0.032923188 0.113734655 0.11074164 -0.24542741 0.050881293
0.050881293 0.04190224 -0.08380448 0.02095112 0.09278353 0.05387431 0.11672767 0.13468577
0.077818446 -0.008979051 0.09278353 -0.17658801 0.3322249 0.08081146 -0.035916205 -0.0867975
0.077818446 0.09577655 -0.059860345 0.13169275 0.09876957 -0.017958103 -0.032923188 -0.06285336
0.0 -0.16461594 -0.22746931 -0.16760896 0.050881293 0.09876957 -0.044895258 0.2244763
0.06883939 -0.17060198 -0.1047556 -0.032923188 -0.06883939 0.017958103 -0.11672767 0.09577655
-0.04190224 0.13169275 -0.056867328 -0.11074164 -0.18856008 0.008979051 0.08380448 -0.065846376
0.032923188 0.014965086 -0.07183241 0.014965086 0.0867975 -0.101762585 -0.02095112 0.02095112
-0.023944138 0.10774862 -0.11972069 0.023944138 0.07482543 0.11972069 -0.065846376 0.029930172
0.059860345 0.07183241 -0.044895258 -0.035916205 0.0867975 0.077818446 -0.22148328 -0.035916205
-0.13468577 -0.05387431 -0.09577655 0.113734655 0.04190224 -0.017958103 -0.14366482 -0.15264387
-0.065846376 -0.07482543 -0.0029930172 0.14965086 0.12271371 -0.14665784 0.008979051 -0.059860345
-0.04190224 -0.04190224 -0.1406718 0.017958103 -0.0059860344 0.19753914 -0.056867328 -0.011972069
0.08380448 0.008979051 0.101762585 -0.089790516 0.16461594 0.13169275 -0.1047556 -0.029930172
0.032923188 -0.065846376 0.04190224 -0.065846376 0.02095112 -0.08380448 -0.06285336 -0.12869973
0.18556707 0.15563689 -0.30828077 -0.029930172 0.07482543 0.032923188 -0.14665784 -0.16162293
-0.014965086 -0.0029930172 -0.173595 -0.029930172 -0.017958103 0.038909223 -0.029930172 0.14965086
0.0867975 0.09278353 0.04190224 -0.029930172 0.07183241 0.032923188 0.014965086 0.026937155
0.1406718 -0.065846376 -0.02095112 0.02095112 -0.09278353 0.023944138 -0.08380448 -0.11074164
0.059860345 0.14366482 0.06285336 0.11074164 0.15563689 -0.07482543 0.0 -0.12271371
-0.06285336 0.032923188 0.044895258 -0.08081146 0.044895258 0.25739947 -0.23046233 0.11972069
00000000: 1c0e ed1c 0907 e6fc e00e 022a cb11 1143
00000010: 0f10 27e0 433d f833 229d e3de 0d21 f004
00000020: 301c daad 4f1f d10a f8e2 c924 1dfd 07ee
00000030: 111c f835 590b eab5 22e0 23f8 1739 e0e2
00000040: eadf f125 05d8 d0fc 2de4 c501 16d8 e01d
00000050: 1709 f3d0 f701 abe8 f5fe da0b 2625 ae11
00000060: 110e e407 1f12 272d 1afd 1fc5 6f1b f4e3
00000070: 1a20 ec2c 21fa f5eb 00c9 b4c8 1121 f14b
00000080: 17c7 ddf5 e906 d920 f22c eddb c103 1cea
00000090: 0b05 e805 1dde f907 f824 d808 1928 ea0a
000000a0: 1418 f1f4 1d1a b6f4 d3ee e026 0efa d0cd
000000b0: eae7 ff32 29cf 03ec f2f2 d106 fe42 edfc
000000c0: 1c03 22e2 372c ddf6 0bea 0eea 07e4 ebd5
000000d0: 3e34 99f6 190b cfca fbff c6f6 fa0d f632
000000e0: 1d1f 0ef6 180b 0509 2fea f907 e108 e4db
000000f0: 1430 1525 34e7 00d7 eb0b 0fe5 0f56 b328

std.constant23 i1 [128, 32] scale=0.0026912459 zero_point=0
0.15609226 0.12379731 0.17493097 -0.15878351 -0.10764983 -0.121106066 -0.024221214 0.0995761
0.11841482 -0.20453468 -0.05113367 0.061898656 0.05113367 -0.11841482 -0.026912458 -0.03767744
0.072663635 -0.053824916 -0.17762223 0.048442427 -0.18838722 -0.07804613 -0.053824916 0.0107649835
-0.15609226 0.15070976 0.0645899 0.16147475 -0.18300472 0.05920741 0.029603705 -0.14263603
0.069972396 -0.0107649835 0.14263603 -0.10495859 0.09150236 0.0053824917 0.24759462 0.0026912459
-0.15070976 0.06728115 -0.008073738 0.113032326 -0.026912458 0.11841482 0.10495859 0.19376971
-0.053824916 -0.05113367 -0.08342862 0.17762223 0.19646095 -0.048442427 0.12379731 -0.18838722
0.08611987 0.043059934 0.04575118 -0.034986198 0.08342862 -0.16147475 -0.18300472 -0.0026912459
-0.14532727 0.13994479 -0.18569596 -0.01883872 0.2287559 0.16147475 0.10226734 0.18838722
-0.1695485 0.03229495 0.121106066 0.040368687 0.15340102 -0.17762223 -0.16685724 0.05113367
0.11841482 -0.10764983 0.03767744 -0.09150236 -0.013456229 0.16685724 0.061898656 -0.20991717
0.17493097 0.029603705 0.14263603 -0.15609226 0.0995761 0.04575118 -0.16685724 -0.13725354
0.14801852 0.113032326 0.0 0.15070976 -0.053824916 0.13994479 -0.1345623 0.069972396
-0.088811114 -0.09419361 -0.034986198 -0.080737375 0.11841482 0.0053824917 -0.04575118 0.11034108
-0.05113367 -0.01883872 0.061898656 -0.040368687 -0.069972396 0.11841482 0.15070976 -0.061898656
-0.21529967 -0.024221214 0.040368687 -0.10764983 0.043059934 0.034986198 0.17762223 0.096884854
-0.20184344 0.08611987 -0.11034108 0.15340102 0.1345623 0.18300472 -0.1291798 0.11034108
-0.1695485 -0.072663635 0.029603705 -0.13994479 0.016147476 -0.14532727 -0.10495859 -0.008073738
0.0107649835 -0.20453468 -0.03229495 0.03229495 -0.07535488 -0.10495859 -0.0107649835 -0.20184344
-0.048442427 -0.09419361 -0.096884854 0.11034108 0.0026912459 -0.1991522 0.06728115 0.0
-0.24759462 -0.024221214 0.1291798 0.18838722 -0.0026912459 0.19646095 0.19646095 0.048442427
0.20184344 -0.04575118 -0.0645899 0.029603705 -0.13187104 -0.08611987 0.053824916 -0.20991717
0.14263603 0.05113367 -0.15609226 0.09419361 -0.024221214 0.1695485 0.12379731 0.1345623
0.080737375 -0.016147476 0.13187104 -0.18569596 0.1345623 0.164166 -0.03767744 -0.19107845
-0.080737375 -0.04575118 0.0995761 -0.088811114 0.16685724 -0.061898656 0.08342862 0.04575118
-0.09150236 0.026912458 -0.21260843 -0.13725354 0.15878351 -0.061898656 -0.088811114 -0.16685724
0.14263603 0.15878351 0.19646095 0.1991522 -0.12648855 -0.072663635 -0.03767744 -0.164166
0.0053824917 0.15070976 -0.029603705 0.06728115 -0.14801852 -0.0026912459 -0.14263603 -0.096884854
0.072663635 -0.07535488 -0.14532727 0.01883872 0.164166 0.1345623 0.026912458 -0.088811114
0.19646095 -0.11841482 0.11034108 -0.20722593 0.12379731 -0.03767744 0.026912458 0.0
0.113032326 -0.0026912459 0.164166 -0.15609226 -0.20722593 0.088811114 0.06728115 0.013456229
0.03229495 0.11841482 0.21529967 -0.19646095 -0.15070976 0.008073738 -0.113032326 -0.04575118
00000000: 3a2e 41c5 d8d3 f725 2cb4 ed17 13d4 f6f2
00000010: 1bec be12 bae3 ec04 c638 183c bc16 0bcb
00000020: 1afc 35d9 2202 5c01 c819 fd2a f62c 2748
00000030: eced e142 49ee 2eba 2010 11f3 1fc4 bcff
00000040: ca34 bbf9 553c 2646 c10c 2d0f 39be c213
00000050: 2cd8 0ede fb3e 17b2 410b 35c6 2511 c2cd
00000060: 372a 0038 ec34 ce1a dfdd f3e2 2c02 ef29
00000070: edf9 17f1 e62c 38e9 b0f7 0fd8 100d 4224
00000080: b520 d739 3244 d029 c1e5 0bcc 06ca d9fd
00000090: 04b4 f40c e4d9 fcb5 eedd dc29 01b6 1900
000000a0: a4f7 3046 ff49 4912 4bef e80b cfe0 14b2
000000b0: 3513 c623 f73f 2e32 1efa 31bb 323d f2b9
000000c0: e2ef 25df 3ee9 1f11 de0a b1cd 3be9 dfc2
000000d0: 353b 494a d1e5 f2c3 0238 f519 c9ff cbdc
000000e0: 1be4 ca07 3d32 0adf 49d4 29b3 2ef2 0a00
000000f0: 2aff 3dc6 b321 1905 0c2c 50b7 c803 d6ef
