MLService/BTS_Data/LSTM_single_series.tflite (tflite, 69068 bytes, 9 tensors)

lstm_1/lstm_cell_1/bias f4 [128]
0	0xc065209c	-3.5801153
1	0xc065d95b	-3.5913913
2	0xc063814f	-3.5547674
3	0xbfe1d2de	-1.7642477
4	0xc0637ee5	-3.55462
5	0xc0634798	-3.5512447
6	0xc069b542	-3.651688
7	0xc06485b3	-3.5706604
8	0xc064f8f5	-3.5776951
9	0xc061e089	-3.5293295
10	0xbf7ab124	-0.97926545
11	0xc06e0d4d	-3.7195618
12	0xc0683517	-3.6282403
13	0xbfa85c53	-1.3153175
14	0x3eb36848	0.35040498
15	0xbf712b42	-0.9420663
16	0xc075601d	-3.8339913
17	0xbf58fc23	-0.8475973
18	0xc03e3375	-2.9718907
19	0xc068740c	-3.632083
20	0xbf88bb36	-1.0682132
21	0xc0651616	-3.579473
22	0xc01753f2	-2.3644986
23	0xc065b717	-3.5893
24	0xc0811e14	-4.0349216
25	0xc077935a	-3.8683686
26	0xc06a55f5	-3.6614964
27	0xc0650904	-3.5786753
28	0xc006e3db	-2.1076572
29	0xbf899298	-1.0747862
30	0xc072d1bd	-3.7940514
31	0xbf79eaeb	-0.9762408
32	0xbdd802c9	-0.10547406
33	0xbee605aa	-0.44926196
34	0x3d43e12c	0.047822163
35	0x3f602036	0.8754915
36	0xbecc3024	-0.39880478
37	0xbe24decb	-0.16100614
38	0xbeb89b28	-0.36055875
39	0xbeb7d231	-0.3590255
40	0xbf0c2027	-0.5473656
41	0xbfd97a8f	-1.6990527
42	0x3f2aa487	0.666573
43	0xbfde7bbb	-1.738151
44	0xbed43993	-0.41450176
45	0x3f3e631c	0.7436998
46	0x3e0fe8f8	0.14053714
47	0x3f44cba8	0.76873255
48	0xbf328d55	-0.69746906
49	0xbf019b5a	-0.5062767
50	0xbff531de	-1.9155843
51	0xbf15d30f	-0.58525175
52	0xc001fde5	-2.0311215
53	0xbeb26dcb	-0.3484939
54	0xc083203d	-4.0976853
55	0xbdc5f269	-0.09665377
56	0xbf58116e	-0.84401596
57	0xbf3789dc	-0.7169473
58	0xbf10be69	-0.5654054
59	0x3eb3cbf3	0.35116538
60	0x3f116531	0.5679503
61	0x3f491601	0.785492
62	0xbf1d6a80	-0.6149063
63	0x3f54f0e5	0.83180076
64	0x3b7cb1ec	0.0038558198
65	0x3c4a016c	0.012329441
66	0xbc136711	-0.008996741
67	0xbd32464b	-0.043524068
68	0xbc235bbd	-0.009970603
69	0x3b2f1f84	0.0026721666
70	0x3bca59f0	0.006175272
71	0xbba8d1e6	-0.005151975
72	0xbb7e9c90	-0.0038850643
73	0xbc0cdad6	-0.008597096
74	0x3e6561cd	0.2240059
75	0xbb5ec893	-0.0033994063
76	0xbc4f25d0	-0.012643293
77	0xbde01437	-0.10941356
78	0xbf7b7879	-0.982307
79	0xbe86a04d	-0.26294175
80	0x3b6d1242	0.0036174213
81	0xbe644b5f	-0.22294377
82	0xbe836a57	-0.25667068
83	0xba92317f	-0.0011153667
84	0x3f751c0a	0.9574591
85	0xba1de7eb	-0.0006023633
86	0xbd463616	-0.048391424
87	0xbbbb7908	-0.005721215
88	0x3d144ef3	0.036208104
89	0xbcf3b4f9	-0.02974938
90	0x3b4c2d67	0.0031154992
91	0x3c6b2174	0.014351238
92	0xbd977610	-0.073955655
93	0xbe477656	-0.19478735
94	0x39a43901	0.0003132299
95	0x3d191086	0.037369274
96	0xc04cab88	-3.1979694
97	0xc0637695	-3.5541127
98	0xc05b91e4	-3.4307795
99	0xbfd70547	-1.6798486
100	0xc05dd294	-3.4659777
101	0xc0644ec7	-3.5673082
102	0xc0613a7d	-3.5191948
103	0xc05dac3d	-3.4636376
104	0xc05e2ec7	-3.471605
105	0xc056c6cf	-3.3558843
106	0xbf40e583	-0.7535021
107	0xc0671cef	-3.611141
108	0xc062792d	-3.538646
109	0xbf82a644	-1.020699
110	0x3e3d657c	0.18495744
111	0xbf44a643	-0.76816195
112	0xc05ca997	-3.447851
113	0xbf932611	-1.1495992
114	0xc02b1cb4	-2.673627
115	0xc0686952	-3.6314282
116	0xbf87066c	-1.0548835
117	0xc0598791	-3.3988993
118	0xc023f19d	-2.561622
119	0xc04bfd78	-3.1873455
120	0xc07f2de6	-3.9871764
121	0xc06fc659	-3.7464812
122	0xc06a67c3	-3.662583
123	0xc05fac3b	-3.494887
124	0xbfe528e4	-1.7903104
125	0xbf53c9aa	-0.8272959
126	0xc0601ecf	-3.5018804
127	0xbf5e889d	-0.86927205

lstm/lstm_cell/bias f4 [128]
0	0xc03cb263	-2.9483879
1	0xbecdfec3	-0.4023343
2	0xc0501f6e	-3.2519183
3	0xc056190d	-3.345279
4	0xbf94adfb	-1.1615595
5	0xc037e816	-2.8735404
6	0xbf353578	-0.7078471
7	0xc03edb9e	-2.9821544
8	0xbf0e7b51	-0.55656916
9	0xbeb768db	-0.35822186
10	0xc02b77d1	-2.679188
11	0xc0288da7	-2.6336458
12	0xbfcf93d1	-1.6216985
13	0xbf8d3574	-1.1031938
14	0xbeb246cf	-0.34819648
15	0xbf04918e	-0.517846
16	0xbfb18840	-1.3869705
17	0xc010bec0	-2.2616425
18	0xc043e750	-3.0609932
19	0xc0210c00	-2.5163574
20	0xbf747ffc	-0.9550779
21	0xc00fbb6e	-2.2458148
22	0xc06152a9	-3.5206702
23	0xc00cff86	-2.203096
24	0xbf6d1785	-0.9261401
25	0xbf4037e6	-0.75085294
26	0xbff26927	-1.893834
27	0xc017f5f1	-2.374386
28	0xbea0df00	-0.31420135
29	0xbfa74bbd	-1.3069988
30	0xc055315b	-3.3311374
31	0xc035651f	-2.834297
32	0xbdd7b7b8	-0.105330884
33	0x3ffcf284	1.976151
34	0xbf9705c4	-1.1798635
35	0xbf1168d7	-0.568006
36	0xbf3d054d	-0.73836213
37	0xbe72b72e	-0.2370269
38	0xbfa6ca53	-1.3030494
39	0xbcaef66b	-0.021357736
40	0x400771ba	2.1163163
41	0x3fde4fd7	1.7368115
42	0xbef4745d	-0.47745028
43	0x3f292bd5	0.6608251
44	0xbfe71ad5	-1.8055063
45	0x3fe0500d	1.752443
46	0x3f6562de	0.89603984
47	0xbf0c3396	-0.54766214
48	0xbf03e803	-0.51525897
49	0xbf1f4a65	-0.6222289
50	0xbe4e71dc	-0.20160621
51	0xbebb2567	-0.36551973
52	0xbfb677ec	-1.4255347
53	0xbebeae9e	-0.37242597
54	0xbf51df7a	-0.81981623
55	0xbf05e47d	-0.5230177
56	0xbfb04420	-1.377079
57	0xbea434f1	-0.3207164
58	0x3dcb63f4	0.09931174
59	0xbf00f883	-0.503792
60	0x3fe27864	1.769299
61	0x3eaf4768	0.34234166
62	0xbe87956b	-0.26481184
63	0xbea2f94c	-0.31830823
64	0xbe3938f6	-0.18088135
65	0xbe96da70	-0.2946353
66	0xbe203cbe	-0.15648171
67	0xbe11caf2	-0.14237574
68	0x3ebb5f52	0.3659616
69	0xbe27a988	-0.16373265
70	0x3e47a7aa	0.19497553
71	0xbe2b7b12	-0.16746166
72	0xbe888ea8	-0.26671338
73	0x3e9f21f0	0.3108058
74	0xbe7a274b	-0.24429052
75	0xbe2dcf33	-0.16973571
76	0xbef55520	-0.47916508
77	0xbe9bf96d	-0.30463734
78	0x3e9db6c1	0.30803493
79	0x3eaad83e	0.33368105
80	0xbeac2d12	-0.33628136
81	0x3e4d5c56	0.20054755
82	0xbe4796eb	-0.19491164
83	0xbe76564a	-0.24056354
84	0x3e8707fb	0.26373276
85	0x3ea56daa	0.3231023
86	0x3e2d9b9e	0.16953894
87	0xbe6eaa53	-0.23307161
88	0xbedc7559	-0.4305828
89	0x3ecb691e	0.39728636
90	0x3e89bc07	0.26901266
91	0xbe9ac112	-0.30225426
92	0x3e9b31ee	0.3031153
93	0xbe8fb331	-0.280664
94	0xbe424e34	-0.18975145
95	0x3e2c0af0	0.16801047
96	0xc03e9924	-2.978097
97	0xbe9a3f9d	-0.30126658
98	0xc05088f5	-3.2583592
99	0xc05638f9	-3.3472273
100	0xbf9ab828	-1.208745
101	0xc0378038	-2.8672009
102	0xbf6642fe	-0.8994597
103	0xc03e2405	-2.9709485
104	0xbf09492b	-0.5362727
105	0xbea170a2	-0.31531245
106	0xc02be05d	-2.685569
107	0xc029a812	-2.6508832
108	0xbff2e109	-1.8974925
109	0xbf8e0638	-1.1095648
110	0xbeb34668	-0.35014653
111	0xbefec5b4	-0.4976021
112	0xbf9b49d9	-1.2131912
113	0xc00ed0c2	-2.2314916
114	0xc0408067	-3.007837
115	0xc01a01c3	-2.4063575
116	0xbf93394e	-1.1501863
117	0xc005d22e	-2.0909534
118	0xc05d2079	-3.455107
119	0xc00f3a1e	-2.2379222
120	0xbf77ae97	-0.9675078
121	0xbf4c1bc3	-0.7972986
122	0xbff64f1f	-1.9242896
123	0xc014273e	-2.3148952
124	0xbe1bdefd	-0.15221782
125	0xbfaa30f7	-1.3296193
126	0xc05159aa	-3.2710977
127	0xc035fae3	-2.843438

std.constant7 f4 [1, 32]
0	0xbb3f5a63	-0.0029198162
1	0xbb9313e7	-0.0044884565
2	0xbb59c771	-0.0033230449
3	0x3e4ddb21	0.20103122
4	0x3982546c	0.0002485843
5	0xbbbac80c	-0.005700117
6	0x3a890d1f	0.0010456181
7	0xba76dff1	-0.0009417525
8	0xbb26a605	-0.0025428545
9	0xbb271825	-0.002549657
10	0xbee0e15d	-0.4392194
11	0xba0c0468	-0.0005341233
12	0xb949a8b0	-0.00019231695
13	0x3ecd712a	0.401254
14	0xbf186d04	-0.59541345
15	0x3edca607	0.4309542
16	0xbbd3cafb	-0.006463406
17	0x3e3e2b7e	0.18571278
18	0xbc15ec7f	-0.009150623
19	0xbb4e6d76	-0.003149835
20	0x3d9df1cb	0.07712134
21	0xbb812b76	-0.0039419485
22	0xbbf27f02	-0.0074003944
23	0x3a5fb3d6	0.00085335725
24	0xbb0aa6c8	-0.0021156538
25	0xba5a2b0e	-0.00083224557
26	0xbba6379c	-0.005072547
27	0xbc2039c3	-0.0097793965
28	0x3e473adf	0.19456051
29	0x3ecbc490	0.39798403
30	0x3b165215	0.0022937108
31	0xbf070cf3	-0.52754134

lstm/lstm_cell/bias1 f4 [128]
0	0xc03cb263	-2.9483879
1	0xbecdfec3	-0.4023343
2	0xc0501f6e	-3.2519183
3	0xc056190d	-3.345279
4	0xbf94adfb	-1.1615595
5	0xc037e816	-2.8735404
6	0xbf353578	-0.7078471
7	0xc03edb9e	-2.9821544
8	0xbf0e7b51	-0.55656916
9	0xbeb768db	-0.35822186
10	0xc02b77d1	-2.679188
11	0xc0288da7	-2.6336458
12	0xbfcf93d1	-1.6216985
13	0xbf8d3574	-1.1031938
14	0xbeb246cf	-0.34819648
15	0xbf04918e	-0.517846
16	0xbfb18840	-1.3869705
17	0xc010bec0	-2.2616425
18	0xc043e750	-3.0609932
19	0xc0210c00	-2.5163574
20	0xbf747ffc	-0.9550779
21	0xc00fbb6e	-2.2458148
22	0xc06152a9	-3.5206702
23	0xc00cff86	-2.203096
24	0xbf6d1785	-0.9261401
25	0xbf4037e6	-0.75085294
26	0xbff26927	-1.893834
27	0xc017f5f1	-2.374386
28	0xbea0df00	-0.31420135
29	0xbfa74bbd	-1.3069988
30	0xc055315b	-3.3311374
31	0xc035651f	-2.834297
32	0xbdd7b7b8	-0.105330884
33	0x3ffcf284	1.976151
34	0xbf9705c4	-1.1798635
35	0xbf1168d7	-0.568006
36	0xbf3d054d	-0.73836213
37	0xbe72b72e	-0.2370269
38	0xbfa6ca53	-1.3030494
39	0xbcaef66b	-0.021357736
40	0x400771ba	2.1163163
41	0x3fde4fd7	1.7368115
42	0xbef4745d	-0.47745028
43	0x3f292bd5	0.6608251
44	0xbfe71ad5	-1.8055063
45	0x3fe0500d	1.752443
46	0x3f6562de	0.89603984
47	0xbf0c3396	-0.54766214
48	0xbf03e803	-0.51525897
49	0xbf1f4a65	-0.6222289
50	0xbe4e71dc	-0.20160621
51	0xbebb2567	-0.36551973
52	0xbfb677ec	-1.4255347
53	0xbebeae9e	-0.37242597
54	0xbf51df7a	-0.81981623
55	0xbf05e47d	-0.5230177
56	0xbfb04420	-1.377079
57	0xbea434f1	-0.3207164
58	0x3dcb63f4	0.09931174
59	0xbf00f883	-0.503792
60	0x3fe27864	1.769299
61	0x3eaf4768	0.34234166
62	0xbe87956b	-0.26481184
63	0xbea2f94c	-0.31830823
64	0xbe3938f6	-0.18088135
65	0xbe96da70	-0.2946353
66	0xbe203cbe	-0.15648171
67	0xbe11caf2	-0.14237574
68	0x3ebb5f52	0.3659616
69	0xbe27a988	-0.16373265
70	0x3e47a7aa	0.19497553
71	0xbe2b7b12	-0.16746166
72	0xbe888ea8	-0.26671338
73	0x3e9f21f0	0.3108058
74	0xbe7a274b	-0.24429052
75	0xbe2dcf33	-0.16973571
76	0xbef55520	-0.47916508
77	0xbe9bf96d	-0.30463734
78	0x3e9db6c1	0.30803493
79	0x3eaad83e	0.33368105
80	0xbeac2d12	-0.33628136
81	0x3e4d5c56	0.20054755
82	0xbe4796eb	-0.19491164
83	0xbe76564a	-0.24056354
84	0x3e8707fb	0.26373276
85	0x3ea56daa	0.3231023
86	0x3e2d9b9e	0.16953894
87	0xbe6eaa53	-0.23307161
88	0xbedc7559	-0.4305828
89	0x3ecb691e	0.39728636
90	0x3e89bc07	0.26901266
91	0xbe9ac112	-0.30225426
92	0x3e9b31ee	0.3031153
93	0xbe8fb331	-0.280664
94	0xbe424e34	-0.18975145
95	0x3e2c0af0	0.16801047
96	0xc03e9924	-2.978097
97	0xbe9a3f9d	-0.30126658
98	0xc05088f5	-3.2583592
99	0xc05638f9	-3.3472273
100	0xbf9ab828	-1.208745
101	0xc0378038	-2.8672009
102	0xbf6642fe	-0.8994597
103	0xc03e2405	-2.9709485
104	0xbf09492b	-0.5362727
105	0xbea170a2	-0.31531245
106	0xc02be05d	-2.685569
107	0xc029a812	-2.6508832
108	0xbff2e109	-1.8974925
109	0xbf8e0638	-1.1095648
110	0xbeb34668	-0.35014653
111	0xbefec5b4	-0.4976021
112	0xbf9b49d9	-1.2131912
113	0xc00ed0c2	-2.2314916
114	0xc0408067	-3.007837
115	0xc01a01c3	-2.4063575
116	0xbf93394e	-1.1501863
117	0xc005d22e	-2.0909534
118	0xc05d2079	-3.455107
119	0xc00f3a1e	-2.2379222
120	0xbf77ae97	-0.9675078
121	0xbf4c1bc3	-0.7972986
122	0xbff64f1f	-1.9242896
123	0xc014273e	-2.3148952
124	0xbe1bdefd	-0.15221782
125	0xbfaa30f7	-1.3296193
126	0xc05159aa	-3.2710977
127	0xc035fae3	-2.843438

std.constant12 f4 [128, 32]
0	0x3e890285	0.26759735
1	0x3ebc79c7	0.3681166
2	0xbdff6bab	-0.12471708
3	0x3e6c0f02	0.230526
4	0x3f4f49fd	0.8097227
5	0x3eda39ea	0.4262231
6	0xbd3fbccc	-0.04681091
7	0x3e3e8774	0.18606359
8	0x3ea45547	0.3209631
9	0xbe2545ba	-0.1613988
10	0xbf07dec5	-0.53074294
11	0x3e874e62	0.2642699
12	0x3ea79dbb	0.32737526
13	0x3d9a7704	0.07542232
14	0xbec12bcf	-0.37728736
15	0x3d868eb1	0.06570185
16	0xbf81dd87	-1.014573
17	0xbf255bb0	-0.6459303
18	0xbdb8bf69	-0.090208836
19	0xbef408ee	-0.47663063
20	0xbf236167	-0.638205
21	0x3f1dd53c	0.61653495
22	0x3eef3125	0.46717182
23	0xbe97d8bb	-0.2965754
24	0x3f173ea2	0.59079945
25	0xbf98c85d	-1.1936146
26	0x3dec2c35	0.11531869
27	0xbf30b6cd	-0.6902893
28	0xbe3f11c3	-0.1865912
29	0xbceae667	-0.028674318
30	0xbec8d679	-0.3922613
31	0xbf01c564	-0.5069182
32	0x3e442d84	0.19157988
33	0xbf8c8356	-1.097758
34	0xbebf507b	-0.3736609
35	0xbc87ecf0	-0.016592473
36	0xbe05ae9d	-0.13054891
37	0xbe3cfdb9	-0.18456163
38	0x3f3c2fae	0.73510253
39	0x3e3b1b06	0.18272027
40	0xbf7f106e	-0.99634445
41	0x3f8fd57d	1.1237026
42	0x3e25659a	0.16152039
43	0xbc175270	-0.009235963
44	0x40023b4e	2.0348697
45	0xbf811925	-1.0085799
46	0x3c2653f1	0.010151849
47	0xbe6d7365	-0.23188551
48	0x3e839d9c	0.25706184
49	0x3e421a18	0.18955266
50	0xbe3b20dd	-0.18274255
51	0x3da6afc0	0.081389904
52	0x3f0c0124	0.5468924
53	0xbeca20e5	-0.39478222
54	0x3e2e5bc2	0.1702719
55	0x3e4d3b7b	0.20042221
56	0xbee56999	-0.44807127
57	0x3ea8cc20	0.32968235
58	0xbd64dad4	-0.055872753
59	0x3e52a4d0	0.20570683
60	0x3f83c6f6	1.0295093
61	0x3e505c2f	0.20347665
62	0xbdfb4c15	-0.12270371
63	0xbe3861d5	-0.1800607
64	0x3e526660	0.20546865
65	0x3d98bd8c	0.07458028
66	0x3f27eb31	0.6559325
67	0xbe002a47	-0.12516128
68	0xbf556703	-0.8336031
69	0x3f146273	0.5796272
70	0xbefc364b	-0.49260172
71	0x3e6c0199	0.23047484
72	0x3e3e9a32	0.18613508
73	0x3e66c15d	0.225347
74	0xbd12a92c	-0.035805866
75	0x3db3d773	0.08781328
76	0xbfd27091	-1.6440603
77	0xbe99042b	-0.29885992
78	0xbf2fda0a	-0.68692076
79	0xbe14702b	-0.14495914
80	0xbdd714b1	-0.105019934
81	0xbf4a1fb1	-0.7895461
82	0xbd8312f3	-0.06400099
83	0x3ddd312a	0.10800393
84	0xbf8eafad	-1.1147362
85	0x3e01ab9e	0.12663123
86	0x3e848754	0.25884497
87	0x3e2e20e6	0.17004737
88	0x3f1df387	0.6169972
89	0xbf8d306f	-1.1030406
90	0xbc934ad5	-0.017980019
91	0xbe9912aa	-0.29897052
92	0x3deea684	0.11652854
93	0x3ea4e927	0.3220913
94	0xbe90a29b	-0.28249058
95	0xbec2d117	-0.38050148
96	0x3f0a4806	0.5401615
97	0x3c5e4f85	0.013568764
98	0x3e6cdb8e	0.23130628
99	0x3f15c409	0.5850225
100	0x3c290531	0.010316179
101	0x3f65d73e	0.8978156
102	0xbfa3c2e4	-1.2793851
103	0x3f0bb827	0.5457787
104	0xbe901478	-0.28140616
105	0xbd53d07b	-0.051712494
106	0xbc5fce49	-0.013660022
107	0x3e3793c3	0.1792746
108	0x3f475ca2	0.7787572
109	0xbeae7b3b	-0.34078392
110	0xbf3d253b	-0.73884934
111	0xbf6920de	-0.91065776
112	0x3e0cbb9b	0.13743441
113	0xbfa1187c	-1.2585597
114	0x3e05f527	0.130818
115	0xbece3f88	-0.40282845
116	0xbfd4d9a9	-1.6628925
117	0x3d9a2e51	0.075283654
118	0x3f5cff5e	0.8632716
119	0x3f25034d	0.6445816
120	0x3fb13632	1.3844664
121	0xbfc3e5a0	-1.5304451
122	0xbd71eacf	-0.05906182
123	0xbf12101c	-0.5705583
124	0x3e575156	0.21027121
125	0x3e8465c2	0.25858885
126	0xbd0d52f7	-0.03450295
127	0xbf3aeb76	-0.73015535
128	0x3e0e2da0	0.13884592
129	0xbf76ae58	-0.9635978
130	0x3f770c47	0.9650311
131	0x3e07be2b	0.13256137
132	0x3d9bf2ec	0.07614693
133	0x3f72ecae	0.94892395
134	0x3f192ae2	0.5983106
135	0xbd8ef045	-0.069794215
136	0xbf02fb6c	-0.5116489
137	0x3f655cf4	0.8959496
138	0xbf3b0564	-0.730551
139	0xbf3766ec	-0.7164142
140	0xc04506a3	-3.07853
141	0xbf2d5916	-0.6771406
142	0x3f345d50	0.70454884
143	0x3f73300a	0.94995177
144	0xbf8704fa	-1.0548394
145	0xbf814210	-1.0098286
146	0xbf28b563	-0.65901774
147	0xbf65655f	-0.89607805
148	0xbfa0d22a	-1.2564137
149	0x3fb9b1cc	1.4507384
150	0x3f1c0a27	0.6095299
151	0xbf5552f7	-0.8332972
152	0xbdb8aa3c	-0.09016845
153	0xbfc73640	-1.5563431
154	0x3f83a817	1.0285672
155	0xbfd3cb96	-1.6546504
156	0x3ec18ef1	0.37804368
157	0xbefae626	-0.49003714
158	0xbf5b0570	-0.8555517
159	0xbf6094ed	-0.8772724
160	0x3f059bf3	0.52191085
161	0x3f3bb8d2	0.7332889
162	0x3f1da62c	0.61581683
163	0x3e363ccc	0.1779663
164	0xbf11b9a5	-0.56923896
165	0x3f50116a	0.8127657
166	0xbf801a7e	-1.0008085
167	0x3ea63d93	0.32468852
168	0x3f741953	0.9535114
169	0xbede9c62	-0.43478686
170	0xbc9e2f1a	-0.01930957
171	0x3e29f304	0.1659661
172	0xbffdac29	-1.9818164
173	0x3dce30d9	0.10067911
174	0xbf7664bb	-0.9624745
175	0xbee0a547	-0.43876097
176	0xbd1836e2	-0.037161715
177	0xbfa6ac26	-1.3021286
178	0xbdf98449	-0.121834345
179	0xbde6dc47	-0.11272483
180	0xbfeaa536	-1.8331668
181	0x3ecb2af6	0.39681214
182	0x3ebc97f4	0.3683468
183	0x3e33eee1	0.17571594
184	0x3f944443	1.1583332
185	0xbffd8216	-1.9805324
186	0xbb9a1412	-0.0047020996
187	0xbf04bde7	-0.5185227
188	0xbf0dd160	-0.55397606
189	0x3f0af638	0.5428195
190	0xbe38587f	-0.18002509
191	0xbf467b34	-0.77531743
192	0x3f8fce9e	1.123493
193	0x3e3c9221	0.18415119
194	0x3f6bd297	0.9211821
195	0x3efa010b	0.4882892
196	0xbfbe9b9c	-1.4891238
197	0x3ff5fb73	1.9217361
198	0xbfc4895b	-1.5354418
199	0x3f90a0b8	1.1299047
200	0x3f25e8f2	0.6480857
201	0x3e542729	0.20718063
202	0x3e552f58	0.20818841
203	0x3f85f9f8	1.046691
204	0xc08350c2	-4.103608
205	0xbee8b30b	-0.454491
206	0xbf6b8e0f	-0.9201364
207	0xbf4f9735	-0.810901
208	0x3e91b907	0.28461477
209	0xc00bb2ae	-2.1827807
210	0x3e67d11d	0.22638364
211	0x3e68a0f3	0.22717647
212	0xc048c536	-3.1370368
213	0x3da5aa27	0.080890946
214	0x3e05eb26	0.13077983
215	0x3f484a97	0.78238815
216	0x3f9a9bb9	1.2078773
217	0xc06ae1a1	-3.6700213
218	0xbe048b72	-0.12943819
219	0xbee1a6db	-0.44072613
220	0xbdb73373	-0.0894536
221	0x3f90d40e	1.1314714
222	0xbe39b952	-0.181371
223	0xbfddf0c9	-1.7339107
224	0x3ee4686c	0.44610918
225	0x3d8ab362	0.06772496
226	0xbe569aa5	-0.2095743
227	0x3e970eed	0.29503575
228	0x3f54f45f	0.8318538
229	0x3efed968	0.49775243
230	0xbdf21b60	-0.118216276
231	0x3ed52933	0.41632995
232	0xbd0622e4	-0.032748118
233	0xbd48a4ba	-0.04898522
234	0xbf0f8d4c	-0.56074977
235	0x3f0cb3df	0.5496196
236	0x3f99b9b7	1.2009801
237	0xbe6e8d45	-0.23296078
238	0xbf0d4548	-0.5518384
239	0xbe0130e3	-0.12616305
240	0xbf4062ae	-0.75150573
241	0xbf2a7724	-0.66588044
242	0xbc0d7076	-0.00863277
243	0xbf40377d	-0.7508467
244	0xbeec2bca	-0.46127158
245	0x3f351be6	0.70745695
246	0x3f578c17	0.84198135
247	0xbbf3a184	-0.0074350256
248	0x3f567849	0.8377729
249	0xbf8df1bc	-1.1089396
250	0xbcc4fef2	-0.024047349
251	0xbf0558c8	-0.52088594
252	0x3d6dd77d	0.058066834
253	0x3e2ccfa2	0.1687608
254	0x3c4a3aaa	0.012343088
255	0xbeb2e41d	-0.34939662

std.constant13 f4 [128, 1]
0	0x3f1519ad	0.58242303
1	0xbeefb01e	-0.46814054
2	0x3f9267d3	1.1437935
3	0x3f991bc7	1.1961602
4	0xc001787e	-2.0229793
5	0x4016c4c0	2.3557587
6	0x4089eaa9	4.309895
7	0x3f1a8b31	0.6036864
8	0xbe2cdcf5	-0.16881163
9	0xbf32944a	-0.6975752
10	0xbf88d634	-1.069037
11	0x3f7901b9	0.97268254
12	0xc00a7757	-2.163534
13	0xbf7fb919	-0.9989181
14	0xbebd73c9	-0.370024
15	0xbf9c1362	-1.2193415
16	0xc028c3d5	-2.6369526
17	0x4016743e	2.3508449
18	0xbd9ade28	-0.07561904
19	0xbf85385b	-1.0407823
20	0x3fea0987	1.8284158
21	0xc003113e	-2.0479274
22	0xbf23dd46	-0.6400951
23	0x3f73ba5d	0.9520624
24	0x40a02901	5.0050054
25	0x4088a349	4.2699323
26	0xbf19da0d	-0.60098344
27	0xbfc8e34f	-1.5694369
28	0xbf848543	-1.0353168
29	0xbe95d5f9	-0.2926481
30	0xbf26fcfc	-0.65229774
31	0x3fb83a0f	1.4392718
32	0x3c07278f	0.008249178
33	0xbfb30382	-1.3985445
34	0x3f43630a	0.76322997
35	0xbee1becc	-0.4409088
36	0x403724c0	2.861618
37	0x3aa0c869	0.0012266758
38	0x400ac7b9	2.16844
39	0xbeb08921	-0.3447962
40	0xbf8f0ff9	-1.117675
41	0xbfc08787	-1.504136
42	0x4007c336	2.1212897
43	0xbf35ebe2	-0.71063054
44	0xc053bd4a	-3.3084283
45	0xbfb0d1a2	-1.3813975
46	0xbf53a7d4	-0.8267796
47	0x3f87e62d	1.0617119
48	0x3ff7ec8e	1.9369066
49	0xbd99f913	-0.0751821
50	0x3ea326ed	0.31865636
51	0x3fee4b5f	1.8616751
52	0x3fa034b1	1.251608
53	0x4049559f	3.145851
54	0x3e5f543e	0.2180948
55	0x3f92eb43	1.1478046
56	0x4026c8d2	2.606007
57	0x4019defe	2.4042354
58	0xbf94c48b	-1.162248
59	0x3feff214	1.8745751
60	0xbfb7964a	-1.434274
61	0x3db69f16	0.08917062
62	0xbf03a622	-0.51425374
63	0x3f4d5a41	0.8021584
64	0xbf9022f9	-1.1260673
65	0xc0131628	-2.2982273
66	0xbf805931	-1.0027219
67	0xbf4d65b5	-0.8023332
68	0x3ff187ee	1.8869607
69	0xbf94db6c	-1.1629462
70	0x3f986eed	1.1908852
71	0xbf85a056	-1.0439556
72	0xc00b95ab	-2.18101
73	0x400ee975	2.232999
74	0xbf9b14b0	-1.2115688
75	0xbf9bfc32	-1.2186339
76	0xbf811fa4	-1.0087781
77	0xbff3e44a	-1.9054043
78	0x4000ced9	2.012625
79	0x3ff1bcd0	1.8885746
80	0xbfd5347e	-1.6656644
81	0x3fdab952	1.7087805
82	0xbf7a9498	-0.97882986
83	0xbf9cf94a	-1.2263577
84	0x3ff5a154	1.9189858
85	0x3fb9083d	1.4455639
86	0x3f50eae2	0.816084
87	0xbfa351f9	-1.2759391
88	0xc02a0a37	-2.6568735
89	0x4046254c	3.0960264
90	0x3fc04d22	1.5023539
91	0xbfaadb0c	-1.3348098
92	0x400c62e2	2.1935353
93	0xbfdbf5dc	-1.7184405
94	0xbf806d67	-1.0033387
95	0x3fa9f2c2	1.3277209
96	0x3ebad658	0.36491656
97	0xbe931621	-0.2872782
98	0x3f3f0a8e	0.7462548
99	0x3f006066	0.5014709
100	0xbff151c1	-1.8853074
101	0x3fc2906c	1.5200324
102	0x40271983	2.610932
103	0x3ef23313	0.47304592
104	0x3f0eeab8	0.558269
105	0xbfa54bee	-1.2913797
106	0xbf3addf4	-0.72994924
107	0x3efa2ea4	0.4886371
108	0xc0279d63	-2.6189811
109	0xbf6e71de	-0.931425
110	0xbf2af40c	-0.66778636
111	0xbfa0aac4	-1.2552114
112	0xbfda1a41	-1.7039262
113	0x401c151b	2.4387882
114	0x3e979684	0.29607022
115	0xbeaa49f7	-0.33259556
116	0x3f2f238e	0.6841363
117	0xbf9a6255	-1.2061259
118	0xbef4df1d	-0.47826472
119	0x3f128186	0.5722889
120	0x409008c3	4.5010695
121	0x407bf13d	3.936599
122	0xbf62e907	-0.8863682
123	0xbfc45d3e	-1.5340955
124	0xbf4ed4a4	-0.80793214
125	0xbe9f0cdf	-0.31064507
126	0xbf18d9cf	-0.5970735
127	0x3fafa40f	1.3721942

lstm_1/lstm_cell_1/bias1 f4 [128]
0	0xc065209c	-3.5801153
1	0xc065d95b	-3.5913913
2	0xc063814f	-3.5547674
3	0xbfe1d2de	-1.7642477
4	0xc0637ee5	-3.55462
5	0xc0634798	-3.5512447
6	0xc069b542	-3.651688
7	0xc06485b3	-3.5706604
8	0xc064f8f5	-3.5776951
9	0xc061e089	-3.5293295
10	0xbf7ab124	-0.97926545
11	0xc06e0d4d	-3.7195618
12	0xc0683517	-3.6282403
13	0xbfa85c53	-1.3153175
14	0x3eb36848	0.35040498
15	0xbf712b42	-0.9420663
16	0xc075601d	-3.8339913
17	0xbf58fc23	-0.8475973
18	0xc03e3375	-2.9718907
19	0xc068740c	-3.632083
20	0xbf88bb36	-1.0682132
21	0xc0651616	-3.579473
22	0xc01753f2	-2.3644986
23	0xc065b717	-3.5893
24	0xc0811e14	-4.0349216
25	0xc077935a	-3.8683686
26	0xc06a55f5	-3.6614964
27	0xc0650904	-3.5786753
28	0xc006e3db	-2.1076572
29	0xbf899298	-1.0747862
30	0xc072d1bd	-3.7940514
31	0xbf79eaeb	-0.9762408
32	0xbdd802c9	-0.10547406
33	0xbee605aa	-0.44926196
34	0x3d43e12c	0.047822163
35	0x3f602036	0.8754915
36	0xbecc3024	-0.39880478
37	0xbe24decb	-0.16100614
38	0xbeb89b28	-0.36055875
39	0xbeb7d231	-0.3590255
40	0xbf0c2027	-0.5473656
41	0xbfd97a8f	-1.6990527
42	0x3f2aa487	0.666573
43	0xbfde7bbb	-1.738151
44	0xbed43993	-0.41450176
45	0x3f3e631c	0.7436998
46	0x3e0fe8f8	0.14053714
47	0x3f44cba8	0.76873255
48	0xbf328d55	-0.69746906
49	0xbf019b5a	-0.5062767
50	0xbff531de	-1.9155843
51	0xbf15d30f	-0.58525175
52	0xc001fde5	-2.0311215
53	0xbeb26dcb	-0.3484939
54	0xc083203d	-4.0976853
55	0xbdc5f269	-0.09665377
56	0xbf58116e	-0.84401596
57	0xbf3789dc	-0.7169473
58	0xbf10be69	-0.5654054
59	0x3eb3cbf3	0.35116538
60	0x3f116531	0.5679503
61	0x3f491601	0.785492
62	0xbf1d6a80	-0.6149063
63	0x3f54f0e5	0.83180076
64	0x3b7cb1ec	0.0038558198
65	0x3c4a016c	0.012329441
66	0xbc136711	-0.008996741
67	0xbd32464b	-0.043524068
68	0xbc235bbd	-0.009970603
69	0x3b2f1f84	0.0026721666
70	0x3bca59f0	0.006175272
71	0xbba8d1e6	-0.005151975
72	0xbb7e9c90	-0.0038850643
73	0xbc0cdad6	-0.008597096
74	0x3e6561cd	0.2240059
75	0xbb5ec893	-0.0033994063
76	0xbc4f25d0	-0.012643293
77	0xbde01437	-0.10941356
78	0xbf7b7879	-0.982307
79	0xbe86a04d	-0.26294175
80	0x3b6d1242	0.0036174213
81	0xbe644b5f	-0.22294377
82	0xbe836a57	-0.25667068
83	0xba92317f	-0.0011153667
84	0x3f751c0a	0.9574591
85	0xba1de7eb	-0.0006023633
86	0xbd463616	-0.048391424
87	0xbbbb7908	-0.005721215
88	0x3d144ef3	0.036208104
89	0xbcf3b4f9	-0.02974938
90	0x3b4c2d67	0.0031154992
91	0x3c6b2174	0.014351238
92	0xbd977610	-0.073955655
93	0xbe477656	-0.19478735
94	0x39a43901	0.0003132299
95	0x3d191086	0.037369274
96	0xc04cab88	-3.1979694
97	0xc0637695	-3.5541127
98	0xc05b91e4	-3.4307795
99	0xbfd70547	-1.6798486
100	0xc05dd294	-3.4659777
101	0xc0644ec7	-3.5673082
102	0xc0613a7d	-3.5191948
103	0xc05dac3d	-3.4636376
104	0xc05e2ec7	-3.471605
105	0xc056c6cf	-3.3558843
106	0xbf40e583	-0.7535021
107	0xc0671cef	-3.611141
108	0xc062792d	-3.538646
109	0xbf82a644	-1.020699
110	0x3e3d657c	0.18495744
111	0xbf44a643	-0.76816195
112	0xc05ca997	-3.447851
113	0xbf932611	-1.1495992
114	0xc02b1cb4	-2.673627
115	0xc0686952	-3.6314282
116	0xbf87066c	-1.0548835
117	0xc0598791	-3.3988993
118	0xc023f19d	-2.561622
119	0xc04bfd78	-3.1873455
120	0xc07f2de6	-3.9871764
121	0xc06fc659	-3.7464812
122	0xc06a67c3	-3.662583
123	0xc05fac3b	-3.494887
124	0xbfe528e4	-1.7903104
125	0xbf53c9aa	-0.8272959
126	0xc0601ecf	-3.5018804
127	0xbf5e889d	-0.86927205

std.constant22 f4 [128, 32]
0	0xbfb456b9	-1.4088966
1	0xbf3f719f	-0.7478275
2	0xbf8767e7	-1.0578583
3	0x3f791f7a	0.97313654
4	0x3f273aed	0.6532429
5	0x3da9a71a	0.08283825
6	0xbf3373c5	-0.70098525
7	0x3f02cfea	0.510985
8	0xbf037c6d	-0.51361734
9	0xc0037db7	-2.054548
10	0xbfdef575	-1.7418658
11	0xbf7a4fdd	-0.9777811
12	0x3f0e21a6	0.55520093
13	0x3fcf9153	1.6216224
14	0x406dfd26	3.718576
15	0x3fd27a6f	1.6443614
16	0xc00ec705	-2.2308972
17	0x403f51c5	2.9893658
18	0x3fefd8e4	1.8738065
19	0xbf24510d	-0.64186174
20	0xc097f41d	-4.748549
21	0x3f473ca8	0.7782693
22	0x3f0f6f7a	0.56029475
23	0x3fb6d7dd	1.4284626
24	0xbf84ac43	-1.036507
25	0x3f90f82a	1.1325734
26	0xbe1fd2c3	-0.15607743
27	0xbf60e5b4	-0.878505
28	0x3fe1488b	1.7600263
29	0x3fdeaf70	1.7397289
30	0x3fa45156	1.2837322
31	0xbfa5e73a	-1.296119
32	0xbf9bc67a	-1.2169945
33	0xbeb76ba1	-0.35824302
34	0xbf61c184	-0.88185906
35	0x3f53b7db	0.82702416
36	0x3eff2140	0.49830055
37	0x3e08ff61	0.1337867
38	0xbf18e963	-0.5973112
39	0x3f284c4b	0.65741414
40	0xbf44b767	-0.7684235
41	0xbf7f5d29	-0.99751526
42	0xbf7d7d1b	-0.9901902
43	0xbf645692	-0.89194596
44	0x3f310f7e	0.69164264
45	0x3f70e832	0.941043
46	0x405d6b78	3.4596844
47	0x3fc7cc2f	1.5609187
48	0xbfd423cf	-1.6573428
49	0x3fa02992	1.2512686
50	0x3fd06157	1.6279706
51	0xbee0ec01	-0.43930057
52	0xc0025128	-2.0362034
53	0x3f48a0b3	0.7837021
54	0x3ea2c7cc	0.31793058
55	0x3f952341	1.1651384
56	0xbf9ed787	-1.2409524
57	0x3fb390d2	1.4028571
58	0xbe535827	-0.20639096
59	0xbf394b23	-0.72380275
60	0x3f2556ab	0.6458537
61	0x3f8f59be	1.1199262
62	0x3f53fbcb	0.8280608
63	0xbf11338b	-0.56719273
64	0xbf685fed	-0.9077137
65	0xbef1f16b	-0.472545
66	0xbf2c66da	-0.6734444
67	0x3f915609	1.1354381
68	0x3e3a6d2c	0.18205708
69	0xbc217eb9	-0.009856873
70	0xbe6a09e2	-0.22855332
71	0x3e8185e1	0.25297454
72	0xbeb30830	-0.34967184
73	0xbf8c170d	-1.0944535
74	0xbfaf1347	-1.3677758
75	0xbec8aeac	-0.39195764
76	0x3e11cb96	0.14237818
77	0x3fa60c2b	1.2972463
78	0x40234c70	2.5515404
79	0x3fb36fba	1.4018471
80	0xbfb87595	-1.4410883
81	0x3ff0322a	1.8765309
82	0x3f8bf775	1.0934893
83	0xbe73d8f8	-0.23813236
84	0xc06655cb	-3.5989864
85	0x3e8a605b	0.27026638
86	0x3d1081cf	0.035280045
87	0x3f80e3bc	1.0069499
88	0xbf02eac3	-0.5113947
89	0x3f1edca4	0.6205542
90	0x3d7a54fa	0.061116196
91	0xbf3e8815	-0.74426395
92	0x3fa44ccc	1.2835937
93	0x3f9440b4	1.1582246
94	0x3eb0b82a	0.34515506
95	0xbf9a1c68	-1.2039919
96	0xbf3f92e0	-0.7483349
97	0xbddb07b3	-0.10694828
98	0xbeef9f1f	-0.46801087
99	0x3f89e645	1.0773398
100	0x3e9de20c	0.30836523
101	0x3e68acbd	0.22722144
102	0xbe631a8c	-0.22178096
103	0x3e2e50f9	0.17023076
104	0xbedc0ff8	-0.42980933
105	0xbf3f9301	-0.74833685
106	0xbfe724e8	-1.8058138
107	0xbed11590	-0.40836763
108	0x3e85fe30	0.26170492
109	0x3ffdf2d3	1.9839729
110	0x4076caef	3.856136
111	0x40162ce0	2.346489
112	0xbf97cf52	-1.1860144
113	0x3f5d70f3	0.8650047
114	0x40084c6e	2.129665
115	0xbc5e88b1	-0.013582394
116	0xc0c9d6ef	-6.307487
117	0x3ea31291	0.31850103
118	0xbdf74517	-0.12073725
119	0x3f58489e	0.84485805
120	0xbf5a327c	-0.85233283
121	0x3f1a46ac	0.60264087
122	0x3c9209ce	0.01782694
123	0xbf2ef23e	-0.6833838
124	0x3fdfd5df	1.7487143
125	0x4001e3a0	2.0295181
126	0x3eb119c4	0.3458997
127	0xbfd21c63	-1.6414913
128	0xbf9efacc	-1.2420287
129	0xbf2866d8	-0.6578193
130	0xbf229c1d	-0.6351946
131	0x3eebf64a	0.4608634
132	0x3eaa5cf7	0.33274052
133	0xbdaf666f	-0.085644595
134	0xbeea11f4	-0.45716822
135	0x3f0b58db	0.5443246
136	0xbf2e585a	-0.68103564
137	0xbfad8749	-1.3556911
138	0xbf7e7468	-0.9939637
139	0xbf53eeb7	-0.82786125
140	0x3f1bdd25	0.60884315
141	0x3f690987	0.9103016
142	0x4063b192	3.557713
143	0x3fb622b0	1.4229336
144	0xbfef4723	-1.8693584
145	0x3f932f58	1.1498823
146	0x3fd0d35d	1.6314503
147	0xbe5086fc	-0.20363992
148	0xc036dbe3	-2.8571708
149	0x3f006f2a	0.5016962
150	0x3ee86e48	0.45396638
151	0x3f8d481f	1.1037635
152	0xbf7eca41	-0.99527365
153	0x3fabecf7	1.3431691
154	0xbe433345	-0.19062527
155	0xbee2d80e	-0.44305462
156	0x3f36d598	0.7141967
157	0x3fa2f6c7	1.273156
158	0x3f83b496	1.0289485
159	0xbf193c21	-0.59857374
160	0xbf9dcac0	-1.2327499
161	0xbf0e979f	-0.55700105
162	0xbf13fc5d	-0.5780695
163	0x3f2174d3	0.63068885
164	0x3ed75fce	0.4206528
165	0x3d7b0321	0.06128228
166	0xbeaaa872	-0.3333164
167	0x3efb1ba1	0.49044517
168	0xbf30a5fe	-0.69003284
169	0xbf89d540	-1.0768204
170	0xbf7b1f05	-0.9809421
171	0xbf42e73a	-0.76134074
172	0x3f33ad80	0.70186615
173	0x3f6abb23	0.916918
174	0x40466ceb	3.1003978
175	0x3fc17035	1.5112368
176	0xbfdc6a79	-1.7219993
177	0x3f9ef0be	1.2417219
178	0x3fca66dc	1.581264
179	0xbe761ff6	-0.2403563
180	0xc0167c8d	-2.351352
181	0x3f3a55c5	0.72787124
182	0x3ea930de	0.33045095
183	0x3f923bc9	1.1424495
184	0xbf866118	-1.0498381
185	0x3fa22431	1.2667295
186	0xbe61c240	-0.22046757
187	0xbf2ac8dd	-0.66712743
188	0x3f48d3d3	0.7844822
189	0x3f801a6e	1.0008066
190	0x3f88c421	1.0684854
191	0xbf0fe922	-0.5621511
192	0xbf3516ee	-0.7073811
193	0xbf110edc	-0.566633
194	0xbf4048db	-0.7511117
195	0x3f094c3e	0.5363196
196	0x3dfd55ac	0.12369856
197	0xbe0c9045	-0.1372691
198	0xbea6952f	-0.32535693
199	0x3e15e496	0.1463798
200	0xbea70320	-0.32619572
201	0xbf8f3793	-1.1188835
202	0xbf67a73d	-0.9048956
203	0xbea10e4d	-0.31456223
204	0x3e913fd6	0.28369015
205	0x3f67e72f	0.90587133
206	0x4030dbf7	2.7634256
207	0x3f6d6735	0.92735606
208	0xbfbce6c1	-1.475792
209	0x3fe54002	1.7910159
210	0x3f51b5c9	0.8191801
211	0xbe7ff2a7	-0.24994908
212	0xc00fa807	-2.2446306
213	0x3e4697b5	0.19393809
214	0x3ea175b6	0.3153512
215	0x3f46e87d	0.776985
216	0xbf02d56f	-0.51106924
217	0x3edf5d7d	0.43626013
218	0x3c231cb4	0.009955574
219	0xbefc2676	-0.49248093
220	0x3f867899	1.0505553
221	0x3f8f37fa	1.1188958
222	0x3f1f7e56	0.6230215
223	0xbf2e650f	-0.68122953
224	0xbf50128e	-0.8127831
225	0xbf291347	-0.6604504
226	0xbeeb5913	-0.45966396
227	0x3f3bd1c3	0.73366946
228	0x3ccd8ede	0.025092538
229	0x3d16dd7e	0.036832325
230	0xbea99dc6	-0.33128184
231	0x3ea3e5e7	0.3201134
232	0xbeb6f3ee	-0.3573298
233	0xbf8e0c4e	-1.1097505
234	0xbf90d6d9	-1.1315566
235	0xbf1104f5	-0.5664819
236	0x3ed22513	0.4104391
237	0x3f833b47	1.0252465
238	0x4042e7e3	3.0454032
239	0x3f7c2d98	0.9850707
240	0xbfdc3262	-1.7202876
241	0x3fffb96c	1.9978461
242	0x3f88d98c	1.069139
243	0xbecd0297	-0.40041038
244	0xc02d8766	-2.711389
245	0x3e398b54	0.18119556
246	0x3eda2f8d	0.42614403
247	0x3f4e9c40	0.8070717
248	0xbf274479	-0.65338856
249	0x3f4d47de	0.80187786
250	0xbd770131	-0.06030387
251	0xbeea0c1f	-0.45712373
252	0x3f874894	1.0569024
253	0x3f846971	1.0344678
254	0x3f41babf	0.75675577
255	0xbf33a226	-0.70169294

std.constant23 f4 [128, 32]
0	0x3f07e1e5	0.5307906
1	0x3c30838b	0.01077355
2	0x3f33d419	0.7024551
3	0x3f3a295d	0.72719365
4	0xbebbd4a0	-0.36685658
5	0x3f4ee9fd	0.8082579
6	0xbffd228d	-1.9776169
7	0x3ee259c0	0.442091
8	0xbe60ba10	-0.21945977
9	0xbdf977b9	-0.121810384
10	0x3e8cfd7f	0.27537152
11	0x3e7e0943	0.2480822
12	0x3f15dd28	0.5854058
13	0xbe47b75d	-0.19503541
14	0xbf4c7166	-0.7986053
15	0xbf319134	-0.6936219
16	0x3ec6897f	0.38776776
17	0xbf80f11d	-1.0073582
18	0x3ef93b34	0.4867798
19	0xbcfc4a5b	-0.030797174
20	0xbfa98a7f	-1.3245391
21	0xbe9dd0f3	-0.30823478
22	0xbe08a7b8	-0.1334523
23	0x3f579eef	0.8422689
24	0x3fff522f	1.9946955
25	0xbfb12348	-1.3838892
26	0x3d916971	0.071001895
27	0xbe35d740	-0.17757893
28	0x3eed4444	0.46341145
29	0x3e9d0068	0.30664372
30	0x3d838598	0.06421965
31	0xbf1283cf	-0.57232374
32	0xbe852290	-0.26002932
33	0xbf46ca12	-0.77652085
34	0xbda931a7	-0.082614236
35	0x3d93b1c8	0.072116435
36	0x3e88ddef	0.26731822
37	0x3e426fee	0.1898801
38	0xbeb8ae86	-0.3607065
39	0xbee06da1	-0.4383364
40	0xbf31959d	-0.69368917
41	0x3f889b30	1.067236
42	0xbf1953e3	-0.59893626
43	0xbea5d88d	-0.32391778
44	0x3f0c9c40	0.5492592
45	0xbf821a9e	-1.0164373
46	0x3ca9aea4	0.020713158
47	0x3e523ab1	0.20530201
48	0xbefa5346	-0.48891658
49	0xbe8fdd19	-0.28098372
50	0xbf07cfe2	-0.5305158
51	0xbf4aad6d	-0.79170877
52	0xbe337910	-0.1752665
53	0x3f27ed8f	0.6559686
54	0x3f3f4d9b	0.7472779
55	0xbe0b8700	-0.13625717
56	0x3ecc5d2a	0.3991483
57	0xbeb6154a	-0.35563117
58	0x3f3b19a0	0.73085976
59	0xbf20f692	-0.62876236
60	0x3f8720aa	1.0556843
61	0xbf4219b6	-0.7582048
62	0xbef38cbf	-0.47568318
63	0x3d87f6a4	0.0663884
64	0x3d1e61ff	0.038667675
65	0xbef7c0d4	-0.48389304
66	0x3e95feb9	0.292959
67	0x3e7b2a65	0.24527891
68	0xbe731e6c	-0.23742074
69	0x3ee15347	0.44008848
70	0xbf8ea48c	-1.1143966
71	0x3e205607	0.15657817
72	0xbf13d46e	-0.57746017
73	0x3e9bcd87	0.30430242
74	0xbca2c25e	-0.019868072
75	0xbdfa10f3	-0.12210264
76	0xbc8ac93d	-0.016941661
77	0xbef0ffec	-0.47070253
78	0xbd47c990	-0.04877621
79	0xbe2a30a5	-0.16620119
80	0xbe0e7a20	-0.13913774
81	0xbf15c1d2	-0.5849887
82	0xbde486b4	-0.11158505
83	0xbd97371c	-0.07383558
84	0xbf041b9f	-0.51604646
85	0x3e435cc4	0.19078356
86	0xbe1d8466	-0.15382537
87	0x3ee28d45	0.44248405
88	0x3f4d29aa	0.801417
89	0xbf5394e8	-0.8264909
90	0x3ebb45dd	0.3657674
91	0xbe84fc6e	-0.2597384
92	0x3ee4be86	0.44676608
93	0xbe501e31	-0.20324017
94	0xbd6bb41e	-0.05754482
95	0xbe5acd6b	-0.21367423
96	0xbe0f062b	-0.13967197
97	0xbeb90844	-0.3613912
98	0x3ecc093e	0.398508
99	0xbe1cfcc6	-0.153308
100	0xbe4b2b1f	-0.19840668
101	0x3e9c6cf3	0.30551872
102	0xbff885a0	-1.9415779
103	0xbe01e5fe	-0.12685391
104	0xbde75e9b	-0.112973414
105	0x3e4a540f	0.19758628
106	0xbdc3b5c3	-0.09556153
107	0x3c5e7692	0.013578074
108	0x3dba0ebd	0.09084842
109	0xbe06a86d	-0.13150187
110	0x3e9e5c42	0.30929762
111	0x3e840373	0.25783882
112	0xbd6a6867	-0.057228472
113	0xbeebe4a8	-0.46072888
114	0x3dc87134	0.09787217
115	0xbe60f7bd	-0.21969505
116	0xbecc8fec	-0.39953554
117	0x3e86727e	0.26259226
118	0x3cad1b8b	0.021131298
119	0x3d8290ed	0.06375299
120	0x3fcf6fb8	1.6205969
121	0xbf737958	-0.9510703
122	0x3d995b66	0.07488136
123	0xbcff67f1	-0.031177493
124	0x3e6a7d71	0.22899415
125	0xbe27fff4	-0.16406232
126	0xbd5be207	-0.053682353
127	0x3d022bbc	0.03177999
128	0x3e1530f6	0.14569458
129	0xbee2f140	-0.44324684
130	0x3dd882f5	0.10571853
131	0x3e6e986e	0.23300335
132	0xbe2bdabe	-0.16782662
133	0x3f0c4148	0.5478711
134	0xbf877508	-1.058259
135	0xbe34c3ed	-0.17652865
136	0xbeea271b	-0.4573296
137	0x3f22b3f0	0.6355581
138	0xbd96f8bb	-0.0737166
139	0xbd9d3c6b	-0.076775394
140	0x3d9e03e5	0.077155866
141	0xbf30fdde	-0.6913737
142	0xbe665116	-0.2249187
143	0xbefa3468	-0.48868108
144	0xbe10ed06	-0.14152917
145	0xbefb5a10	-0.4909215
146	0xbe7458d9	-0.23862018
147	0xbeff1529	-0.4982083
148	0xbf3ed0d8	-0.7453742
149	0x3eecf08b	0.4627727
150	0x3eeed5ba	0.46647435
151	0x3eb8e2b3	0.36110458
152	0x3f79e3ea	0.97613394
153	0xbf548778	-0.8301921
154	0x3ece3839	0.4027727
155	0xbf291f55	-0.66063434
156	0x3f27d278	0.65555525
157	0xbdbe30e8	-0.09286672
158	0xbe6a4a04	-0.22879797
159	0xbe70f214	-0.23529845
160	0xbe287a39	-0.16452874
161	0xbf18bf22	-0.59666646
162	0x3d1a914e	0.03773623
163	0xbcd9e250	-0.026597172
164	0x3e59a0ca	0.21252742
165	0x3deb33a1	0.11484457
166	0xbef55320	-0.47914982
167	0xbe33dd1e	-0.17564818
168	0xbf0f6e28	-0.5602746
169	0x3f3b20e7	0.7309708
170	0xbea4879e	-0.32134718
171	0xbed586ee	-0.41704506
172	0x3eb84fdd	0.3599843
173	0xbf1054e7	-0.5637955
174	0x3e0d0b4c	0.1377384
175	0x3daedd97	0.08538359
176	0xbf00a823	-0.50256556
177	0xbe2fd36d	-0.17170496
178	0xbeaa863e	-0.33305544
179	0xbee41b08	-0.44551873
180	0xbe46b7ea	-0.19406095
181	0x3f117280	0.5681534
182	0x3f4c148e	0.79718864
183	0x3d09b135	0.033616263
184	0x3f1cb655	0.61215717
185	0xbe1ad1bf	-0.15119074
186	0x3f16387a	0.58679926
187	0xbf16eef2	-0.5895835
188	0x3f37d8df	0.71815294
189	0xbe1f1129	-0.1553389
190	0xbec50d26	-0.38486594
191	0xbcb3e6c0	-0.021960616
192	0x3ef16bda	0.47152597
193	0xbef73507	-0.48282644
194	0x3e212a40	0.15738773
195	0x3e296bbd	0.16545005
196	0xbe2f68dc	-0.17129844
197	0x3eac1e8d	0.33617058
198	0xbf347ad8	-0.70499945
199	0xbd151bee	-0.03640359
200	0xbf03e580	-0.51522064
201	0x3e4418d9	0.19150104
202	0x3e0d2fd1	0.13787772
203	0x3dabac42	0.08382465
204	0x3e9b1f09	0.30297115
205	0xbeed2d76	-0.46323746
206	0xbec1c4a9	-0.37845352
207	0xbe996c94	-0.2996565
208	0x3df595ff	0.119915
209	0xbf0cd396	-0.55010355
210	0xbe082b8d	-0.13297863
211	0xbe637b2d	-0.22214957
212	0xbf1955aa	-0.5989634
213	0x3e83c000	0.25732422
214	0x3e9ec42b	0.3100904
215	0x3e906bbe	0.282072
216	0x3f191be6	0.59808195
217	0xbf0dbfb0	-0.55370617
218	0x3c3f6c48	0.011683531
219	0xbda0ad9c	-0.07845613
220	0x3f160ce7	0.5861344
221	0xbe048afb	-0.12943642
222	0xbe9fe50b	-0.31229433
223	0xbedcbbe3	-0.43112096
224	0x3e4417b8	0.19149673
225	0xbea5ef0b	-0.32408938
226	0x3e195fc2	0.14977935
227	0x3dcbc875	0.099503435
228	0xbe778a60	-0.2417388
229	0x3ebd5289	0.36977032
230	0xbf63faf1	-0.8905478
231	0xbdaae1aa	-0.08343823
232	0xbeecb0d4	-0.4622866
233	0x3ed02cea	0.40659267
234	0xbd86e06e	-0.06585775
235	0xbd04eef2	-0.03245444
236	0x3e80dec9	0.25169972
237	0xbee53320	-0.44765568
238	0xbdcd7ae9	-0.10033209
239	0xbe906b6c	-0.28206956
240	0xbdde613f	-0.10858392
241	0xbed8056d	-0.4219164
242	0x3e20fa3d	0.15720458
243	0xbcbaf9fe	-0.022824284
244	0xbf026ac4	-0.5094416
245	0x3c4ed1f3	0.012623298
246	0x3ebeb57d	0.3724784
247	0x3e84c5fe	0.25932306
248	0x3f0da702	0.5533296
249	0xbe9e507a	-0.30920774
250	0x3e70b603	0.23506932
251	0xbeb290cc	-0.34876096
252	0x3f3de6df	0.74180406
253	0x3ca4192c	0.020031534
254	0xbd33729e	-0.04381048
255	0xbe1e9eff	-0.1549034
