LSTM_single_series/LSTM_single_series.tflite (tflite, 83072 bytes, 5 tensors)

lstm/lstm_cell/bias f4 [512]
-1.4823799 -1.5850042 -1.542477 -0.5350204 -0.8110625 -0.9762781 -0.47105646 -0.5318207
-1.5392812 -1.4762127 -0.31773785 -0.8739893 -0.4623403 -0.9550629 -0.41809183 -1.9390638
-1.1172869 -0.8210347 -0.93729997 -0.958358 -0.6137164 -0.34759688 -0.78488207 -1.4054905
-1.5065385 -0.86114854 -0.7739266 -0.93220955 -0.80587226 -0.94062173 -0.56840503 -0.96053654
-1.9831275 -1.615424 -1.6236327 -0.8465419 -1.4186528 -0.85873944 -0.59766674 -0.9488237
-0.19152665 -1.3948712 -1.4243915 -1.5434352 -1.5676454 0.018376416 -0.52851564 -0.33560088
-1.6345546 -0.37858117 -1.0088551 -0.95136136 -1.5622138 -0.3340631 -1.6842073 -1.3747098
-0.5007882 -1.6043494 -0.92862314 -1.2398429 -0.76060814 -1.3563707 -1.5506077 -0.9250011
-0.6730572 -0.57111263 -0.9329604 -0.8868411 -1.8166682 -0.60196775 -0.9291208 -0.98327214
-0.20257738 -1.4352933 -0.8610606 -0.93667376 -0.25581807 -1.0134177 -0.90645 -1.2971511
-1.3146445 -1.1210841 -0.5399294 -0.9376489 -1.5237665 -0.44310567 -0.8605893 -1.7374133
-1.2438375 -0.5954722 -1.5911194 -0.90571046 -1.5834203 -1.6297791 -0.8448329 -1.5503099
-1.2733239 -1.338504 -1.0274076 -0.9288158 -0.73357797 -1.4546311 -0.61160755 -1.7711946
-0.716969 -1.565939 -0.6089092 -0.8756151 -1.5067371 -1.0834235 -1.5279615 -1.1969709
-0.5917333 -0.494768 -0.914568 -0.025544416 -1.6877322 -1.4355817 -0.91505563 -1.1885523
-1.0184178 -1.3994452 -1.8401551 -0.95385766 -1.1584634 -0.75494325 -0.960363 -0.763558
-0.17392042 0.31166467 -0.040951237 1.0910532 1.0175141 0.8126277 1.3419491 1.3623904
0.097484395 0.22488989 1.344905 1.1556333 1.4216883 1.1907902 1.425212 0.2636034
-0.25069544 1.0039176 0.9673825 0.89792645 1.3833696 1.3868519 2.807239e-05 0.38105017
0.30223525 0.8839255 1.2794427 0.86773497 1.2240151 0.821111 0.9272267 1.016637
0.66202825 0.13623111 -0.06726134 1.2535548 0.8827089 1.1430295 1.3016335 1.1702505
0.8328195 0.8291487 0.0052753617 0.287529 -0.09531443 1.3625937 0.724859 0.6736737
0.07583703 1.4131421 0.99722314 1.2695838 0.37656483 1.4462614 0.4751571 0.35022745
0.6156784 0.41938162 1.2787498 0.5136605 1.2354735 0.6586539 0.09760824 1.1417803
1.1993189 0.81353444 0.8236591 1.1583228 -0.0046636267 1.402853 0.99463534 0.7487391
1.4156864 0.6827335 1.2214484 1.2000607 1.4489549 0.6180468 0.84492546 0.45002788
0.09323005 0.52139807 1.3745579 0.8231686 0.079168245 0.6722468 -0.0871906 0.34112173
0.63122696 1.3478684 0.45605305 1.0920001 0.24034303 -0.0588946 1.2635655 0.25301078
0.7289517 0.35715032 0.7173984 0.6207201 0.44077596 0.5911754 0.73798394 0.19192062
1.335925 0.7252999 0.51853526 1.2459191 0.6388283 -0.22658561 0.8155818 0.664827
1.3804232 1.178026 0.8598856 0.7539147 0.2598318 0.39101365 1.3012726 0.90930796
0.80697227 0.57965314 0.50932294 1.0225139 0.6995586 1.2357866 0.75548774 1.2573321
00000000: a0be bdbf 6be1 cabf e36f c5bf 19f7 08bf
00000010: cba1 4fbf 5ded 79bf 502e f1be 6725 08bf
00000020: 2b07 c5bf 8af4 bcbf 89ae a2be c3bd 5fbf
00000030: deb7 ecbe 017f 74bf 2210 d6be 3e33 f8bf
00000040: 4203 8fbf 552f 52bf e4f2 6fbf f356 75bf
00000050: 851c 1dbf 38f8 b1be 08ee 48bf 1de7 b3bf
00000060: 41d6 c0bf 3b74 5cbf 0e20 46bf 49a5 6ebf
00000070: a54d 4ebf 96cc 70bf fe82 11bf b9e5 75bf
00000080: 1fd7 fdbf 37c6 cebf 32d3 cfbf f8b6 58bf
00000090: 6a96 b5bf 59d6 5bbf b000 19bf 1ce6 72bf
000000a0: 901f 44be 248b b2bf 7652 b6bf 498f c5bf
000000b0: 9ba8 c8bf 238a 963c cd4c 07bf e1d3 abbe
000000c0: 1639 d1bf 64d5 c1be 2a22 81bf 6b8c 73bf
000000d0: 9ff6 c7bf 520a abbe 1b94 d7bf 7ef6 afbf
000000e0: a833 00bf 525b cdbf 3fba 6dbf 2cb3 9ebf
000000f0: 37b7 42bf 8e9d adbf 507a c6bf dfcc 6cbf
00000100: 7a4d 2cbf 7034 12bf 7ed6 6ebf 0508 63bf
00000110: 9588 e8bf 8f1a 1abf dcda 6dbf b9b7 7bbf
00000120: 7270 4fbe b1b7 b7bf 786e 5cbf dac9 6fbf
00000130: 96fa 82be acb7 81bf 1b0d 68bf 0c09 a6bf
00000140: 4546 a8bf af7f 8fbf d038 0abf c209 70bf
00000150: c80a c3bf bfde e2be 954f 5cbf 8f63 debf
00000160: 1136 9fbf de70 18bf cda9 cbbf a4dc 67bf
00000170: 84ad cabf 9a9c d0bf f846 58bf 8e70 c6bf
00000180: 47fc a2bf 1954 abbf 1882 83bf dfc6 6dbf
00000190: c4cb 3bbf 5a31 babf 5092 1cbf 81b6 e2bf
000001a0: 488b 37bf b070 c8bf 79e1 1bbf 5028 60bf
000001b0: c3dc c0bf 9fad 8abf 3e94 c3bf 5836 99bf
000001c0: d57b 17bf 3b52 fdbe 2121 6abf 8642 d1bc
000001d0: 9c07 d8bf 24c1 b7bf 1641 6abf 7b22 98bf
000001e0: 845b 82bf 0521 b3bf 348a ebbf 0430 74bf
000001f0: 8748 94bf f643 41bf 59da 75bf 8978 43bf
00000200: 3218 32be 8392 9f3e 7cbc 27bd a2a7 8b3f
00000210: e73d 823f 5e08 503f fdc4 ab3f cf62 ae3f
00000220: e6a5 c73d 8949 663e d925 ac3f cbeb 933f
00000230: e2f9 b53f d06b 983f 596d b63f 06f7 863e
00000240: 275b 80be 5f80 803f 61a6 773f 82de 653f
00000250: 4112 b13f 5d84 b13f 007d eb37 0219 c33e
00000260: 94be 9a3e f148 623f c7c4 a33f e123 5e3f
00000270: 87ac 9c3f 5534 523f bb5e 6d3f 2921 823f
00000280: af7a 293f 2b80 0b3e 50c0 89bd 7c74 a03f
00000290: 36f9 613f ca4e 923f ed9b a63f c5ca 953f
000002a0: a933 553f 1743 543f f1dc ac3b 0037 933e
000002b0: 3634 c3bd 7869 ae3f 5c90 393f e175 2c3f
000002c0: 7250 9b3d d7e1 b43f 044a 7f3f b981 a23f
000002d0: 1bcd c03e 181f b93f cb47 f33e 0351 b33e
000002e0: 1a9d 1d3f 30b9 d63e 13ae a33f 417f 033f
000002f0: ff23 9e3f 8b9d 283f d4e6 c73d db25 923f
00000300: 4883 993f cb43 503f 53db 523f ec43 943f
00000310: 56d1 98bb b090 b33f 6ca0 7e3f 5ead 3f3f
00000320: 3635 b53f 9fc7 2e3f 6c58 9c3f 979b 993f
00000330: 5b77 b93f 5138 1e3f 094d 583f 0e6a e63e
00000340: 65ef be3d 587a 053f 83f1 af3f 2dbb 523f
00000350: f622 a23d 5e18 2c3f fc90 b2bd 82a7 ae3e
00000360: 1798 213f f486 ac3f c97f e93e a9c6 8b3f
00000370: 7c1c 763e 773b 71bd 84bc a13f a18a 813e
00000380: 949c 3a3f 68dc b63e 6ca7 373f 83e7 1e3f
00000390: 63ad e13e 4557 173f 84ec 3c3f d786 443e
000003a0: 97ff aa3f 41ad 393f babe 043f 477a 9f3f
000003b0: 408a 233f 0f06 68be f8c9 503f 1a32 2a3f
000003c0: b5b1 b03f 8ec9 963f 7621 5c3f 8e00 413f
000003d0: ac08 853e f132 c83e 1a90 a63f 68c8 683f
000003e0: bc95 4e3f 2664 143f fd62 023f bce1 823f
000003f0: 4616 333f 412e 9e3f a567 413f 42f0 a03f

std.constant7 f4 [1, 128]
0.15023138 -0.0019537634 -0.0038991072 0.28055668 -0.00031029043 0.24643365 -0.3476339 -0.3165976
0.00024107075 0.012085008 0.41851312 -0.113748185 0.34911364 -0.023873478 0.37292802 -0.022983154
-0.26966897 -0.000964938 -0.00047561605 0.0013325916 -0.27469093 0.4188731 0.3939996 -0.0027142062
0.003236396 -0.0015249043 -0.1742877 0.004264135 0.1521179 0.004014172 -0.029324586 -0.029313263
0.005318281 0.0027488032 0.0014261131 -0.14799641 -0.025577955 0.1346393 0.2704851 0.07462793
0.17690195 0.010680439 0.13069293 -0.03588897 -0.0032958176 0.59534 -0.054966744 0.054907527
0.017200822 0.410234 0.012843519 0.083752036 -0.04495112 0.43768716 -0.30819225 0.0022288735
-0.009721421 0.013228135 -0.09528952 -0.0030856018 -0.1847302 -0.009328249 -0.007041742 -0.06715668
-0.23150621 -0.084886596 -0.014210298 -0.09486411 0.0013209046 -0.2909397 -0.06464908 0.0012241893
0.48596278 -0.00048928626 -0.14016211 0.063255504 0.4814904 0.001550684 0.037564397 0.00061317376
-0.15291469 0.11885408 -0.32248673 -0.0026502965 -0.010970508 -0.02335384 -0.31260255 -0.00072404393
0.0050119683 0.2893295 -0.002236767 0.0007733892 -0.00283566 -0.002093591 0.12666431 -0.010826127
-0.006113329 -0.0049727964 0.19192895 0.0019307168 0.0044150553 -0.0026673623 0.113855824 0.0066524204
-0.20957318 0.0022640494 0.020903965 0.121276446 0.0013534408 0.24621312 0.043222975 0.0058247135
-0.27841672 -0.3272756 -9.423771e-05 0.2532267 0.002897284 1.8142891e-05 0.11831348 -0.011534431
-0.0040733265 0.0007930681 0.00030131097 0.06332021 -0.0054334886 -0.17891374 0.027856067 0.1824119
00000000: 41d6 193e b60a 00bb 2a88 7fbb 20a5 8f3e
00000010: 7aae a2b9 1a59 7c3e 12fd b1be 1519 a2be
00000020: f0c7 7c39 3300 463c 5a47 d63e cff4 e8bd
00000030: 06bf b23e 5092 c3bc 6cf0 be3e 2b47 bcbc
00000040: 0d12 8abe e5f3 7cba 1b5c f9b9 5baa ae3a
00000050: 4aa4 8cbe 8976 d63e 51ba c93e d3e0 31bb
00000060: b719 543b 4cdf c7ba 7a78 32be 28ba 8b3b
00000070: cbc4 1b3e 5189 833b 1d3a f0bc 5e22 f0bc
00000080: f944 ae3b 4425 343b 6aec ba3a 5f8c 17be
00000090: dc88 d1bc e2de 093e 067d 8a3e 87d6 983d
000000a0: c925 353e 02fd 2e3c 5ed4 053e 5000 13bd
000000b0: a5fe 57bb 3468 183f cf24 61bd b7e6 603d
000000c0: bde8 8c3c 310a d23e a06d 523c 3086 ab3d
000000d0: aa1e 38bd 8818 e03e 60cb 9dbe 4b12 123b
000000e0: 9846 1fbc d2ba 583c 2727 c3bd cf37 4abb
000000f0: ea29 3dbe 83d5 18bc 6abe e6bb 7189 89bd
00000100: f70f 6dbe 06d9 adbd 4fd2 68bc 1d48 c2bd
00000110: 3422 ad3a 0cf6 94be bd66 84bd fa74 a03a
00000120: 1dd0 f83e 7243 00ba a886 0fbe 1a8c 813d
00000130: e985 f63e 5240 cb3a 20dd 193d 65bd 203a
00000140: ab95 1cbe c569 f33d fb1c a5be 99b0 2dbb
00000150: a5bd 33bc 8d50 bfbc 710d a0be c4cd 3dba
00000160: 703b a43b ff22 943e b996 12bb 45bd 4a3a
00000170: 7bd6 39bb a134 09bb 4ab4 013e 1160 31bc
00000180: 5252 c8bb d7f2 a2bb 0689 443e 1b10 fd3a
00000190: 2bac 903b eace 2ebb 3e2d e93d 8cfc d93b
000001a0: 5a9a 56be 7260 143b cb3e ab3c c95f f83d
000001b0: f065 b13a 4b1f 7c3e 930a 313d 3ddd be3b
000001c0: a38c 8ebe ab90 a7be 7ca1 c5b8 eea6 813e
000001d0: 5ce0 3d3b 9031 9837 564e f23d e9fa 3cbc
000001e0: 8a79 85bb e6e5 4f3a 46f9 9d39 07ae 813d
000001f0: 680b b2bb 2a35 37be 6832 e43c 2fca 3a3e

lstm/lstm_cell/bias1 f4 [512]
-1.4823799 -1.5850042 -1.542477 -0.5350204 -0.8110625 -0.9762781 -0.47105646 -0.5318207
-1.5392812 -1.4762127 -0.31773785 -0.8739893 -0.4623403 -0.9550629 -0.41809183 -1.9390638
-1.1172869 -0.8210347 -0.93729997 -0.958358 -0.6137164 -0.34759688 -0.78488207 -1.4054905
-1.5065385 -0.86114854 -0.7739266 -0.93220955 -0.80587226 -0.94062173 -0.56840503 -0.96053654
-1.9831275 -1.615424 -1.6236327 -0.8465419 -1.4186528 -0.85873944 -0.59766674 -0.9488237
-0.19152665 -1.3948712 -1.4243915 -1.5434352 -1.5676454 0.018376416 -0.52851564 -0.33560088
-1.6345546 -0.37858117 -1.0088551 -0.95136136 -1.5622138 -0.3340631 -1.6842073 -1.3747098
-0.5007882 -1.6043494 -0.92862314 -1.2398429 -0.76060814 -1.3563707 -1.5506077 -0.9250011
-0.6730572 -0.57111263 -0.9329604 -0.8868411 -1.8166682 -0.60196775 -0.9291208 -0.98327214
-0.20257738 -1.4352933 -0.8610606 -0.93667376 -0.25581807 -1.0134177 -0.90645 -1.2971511
-1.3146445 -1.1210841 -0.5399294 -0.9376489 -1.5237665 -0.44310567 -0.8605893 -1.7374133
-1.2438375 -0.5954722 -1.5911194 -0.90571046 -1.5834203 -1.6297791 -0.8448329 -1.5503099
-1.2733239 -1.338504 -1.0274076 -0.9288158 -0.73357797 -1.4546311 -0.61160755 -1.7711946
-0.716969 -1.565939 -0.6089092 -0.8756151 -1.5067371 -1.0834235 -1.5279615 -1.1969709
-0.5917333 -0.494768 -0.914568 -0.025544416 -1.6877322 -1.4355817 -0.91505563 -1.1885523
-1.0184178 -1.3994452 -1.8401551 -0.95385766 -1.1584634 -0.75494325 -0.960363 -0.763558
-0.17392042 0.31166467 -0.040951237 1.0910532 1.0175141 0.8126277 1.3419491 1.3623904
0.097484395 0.22488989 1.344905 1.1556333 1.4216883 1.1907902 1.425212 0.2636034
-0.25069544 1.0039176 0.9673825 0.89792645 1.3833696 1.3868519 2.807239e-05 0.38105017
0.30223525 0.8839255 1.2794427 0.86773497 1.2240151 0.821111 0.9272267 1.016637
0.66202825 0.13623111 -0.06726134 1.2535548 0.8827089 1.1430295 1.3016335 1.1702505
0.8328195 0.8291487 0.0052753617 0.287529 -0.09531443 1.3625937 0.724859 0.6736737
0.07583703 1.4131421 0.99722314 1.2695838 0.37656483 1.4462614 0.4751571 0.35022745
0.6156784 0.41938162 1.2787498 0.5136605 1.2354735 0.6586539 0.09760824 1.1417803
1.1993189 0.81353444 0.8236591 1.1583228 -0.0046636267 1.402853 0.99463534 0.7487391
1.4156864 0.6827335 1.2214484 1.2000607 1.4489549 0.6180468 0.84492546 0.45002788
0.09323005 0.52139807 1.3745579 0.8231686 0.079168245 0.6722468 -0.0871906 0.34112173
0.63122696 1.3478684 0.45605305 1.0920001 0.24034303 -0.0588946 1.2635655 0.25301078
0.7289517 0.35715032 0.7173984 0.6207201 0.44077596 0.5911754 0.73798394 0.19192062
1.335925 0.7252999 0.51853526 1.2459191 0.6388283 -0.22658561 0.8155818 0.664827
1.3804232 1.178026 0.8598856 0.7539147 0.2598318 0.39101365 1.3012726 0.90930796
0.80697227 0.57965314 0.50932294 1.0225139 0.6995586 1.2357866 0.75548774 1.2573321
00000000: a0be bdbf 6be1 cabf e36f c5bf 19f7 08bf
00000010: cba1 4fbf 5ded 79bf 502e f1be 6725 08bf
00000020: 2b07 c5bf 8af4 bcbf 89ae a2be c3bd 5fbf
00000030: deb7 ecbe 017f 74bf 2210 d6be 3e33 f8bf
00000040: 4203 8fbf 552f 52bf e4f2 6fbf f356 75bf
00000050: 851c 1dbf 38f8 b1be 08ee 48bf 1de7 b3bf
00000060: 41d6 c0bf 3b74 5cbf 0e20 46bf 49a5 6ebf
00000070: a54d 4ebf 96cc 70bf fe82 11bf b9e5 75bf
00000080: 1fd7 fdbf 37c6 cebf 32d3 cfbf f8b6 58bf
00000090: 6a96 b5bf 59d6 5bbf b000 19bf 1ce6 72bf
000000a0: 901f 44be 248b b2bf 7652 b6bf 498f c5bf
000000b0: 9ba8 c8bf 238a 963c cd4c 07bf e1d3 abbe
000000c0: 1639 d1bf 64d5 c1be 2a22 81bf 6b8c 73bf
000000d0: 9ff6 c7bf 520a abbe 1b94 d7bf 7ef6 afbf
000000e0: a833 00bf 525b cdbf 3fba 6dbf 2cb3 9ebf
000000f0: 37b7 42bf 8e9d adbf 507a c6bf dfcc 6cbf
00000100: 7a4d 2cbf 7034 12bf 7ed6 6ebf 0508 63bf
00000110: 9588 e8bf 8f1a 1abf dcda 6dbf b9b7 7bbf
00000120: 7270 4fbe b1b7 b7bf 786e 5cbf dac9 6fbf
00000130: 96fa 82be acb7 81bf 1b0d 68bf 0c09 a6bf
00000140: 4546 a8bf af7f 8fbf d038 0abf c209 70bf
00000150: c80a c3bf bfde e2be 954f 5cbf 8f63 debf
00000160: 1136 9fbf de70 18bf cda9 cbbf a4dc 67bf
00000170: 84ad cabf 9a9c d0bf f846 58bf 8e70 c6bf
00000180: 47fc a2bf 1954 abbf 1882 83bf dfc6 6dbf
00000190: c4cb 3bbf 5a31 babf 5092 1cbf 81b6 e2bf
000001a0: 488b 37bf b070 c8bf 79e1 1bbf 5028 60bf
000001b0: c3dc c0bf 9fad 8abf 3e94 c3bf 5836 99bf
000001c0: d57b 17bf 3b52 fdbe 2121 6abf 8642 d1bc
000001d0: 9c07 d8bf 24c1 b7bf 1641 6abf 7b22 98bf
000001e0: 845b 82bf 0521 b3bf 348a ebbf 0430 74bf
000001f0: 8748 94bf f643 41bf 59da 75bf 8978 43bf
00000200: 3218 32be 8392 9f3e 7cbc 27bd a2a7 8b3f
00000210: e73d 823f 5e08 503f fdc4 ab3f cf62 ae3f
00000220: e6a5 c73d 8949 663e d925 ac3f cbeb 933f
00000230: e2f9 b53f d06b 983f 596d b63f 06f7 863e
00000240: 275b 80be 5f80 803f 61a6 773f 82de 653f
00000250: 4112 b13f 5d84 b13f 007d eb37 0219 c33e
00000260: 94be 9a3e f148 623f c7c4 a33f e123 5e3f
00000270: 87ac 9c3f 5534 523f bb5e 6d3f 2921 823f
00000280: af7a 293f 2b80 0b3e 50c0 89bd 7c74 a03f
00000290: 36f9 613f ca4e 923f ed9b a63f c5ca 953f
000002a0: a933 553f 1743 543f f1dc ac3b 0037 933e
000002b0: 3634 c3bd 7869 ae3f 5c90 393f e175 2c3f
000002c0: 7250 9b3d d7e1 b43f 044a 7f3f b981 a23f
000002d0: 1bcd c03e 181f b93f cb47 f33e 0351 b33e
000002e0: 1a9d 1d3f 30b9 d63e 13ae a33f 417f 033f
000002f0: ff23 9e3f 8b9d 283f d4e6 c73d db25 923f
00000300: 4883 993f cb43 503f 53db 523f ec43 943f
00000310: 56d1 98bb b090 b33f 6ca0 7e3f 5ead 3f3f
00000320: 3635 b53f 9fc7 2e3f 6c58 9c3f 979b 993f
00000330: 5b77 b93f 5138 1e3f 094d 583f 0e6a e63e
00000340: 65ef be3d 587a 053f 83f1 af3f 2dbb 523f
00000350: f622 a23d 5e18 2c3f fc90 b2bd 82a7 ae3e
00000360: 1798 213f f486 ac3f c97f e93e a9c6 8b3f
00000370: 7c1c 763e 773b 71bd 84bc a13f a18a 813e
00000380: 949c 3a3f 68dc b63e 6ca7 373f 83e7 1e3f
00000390: 63ad e13e 4557 173f 84ec 3c3f d786 443e
000003a0: 97ff aa3f 41ad 393f babe 043f 477a 9f3f
000003b0: 408a 233f 0f06 68be f8c9 503f 1a32 2a3f
000003c0: b5b1 b03f 8ec9 963f 7621 5c3f 8e00 413f
000003d0: ac08 853e f132 c83e 1a90 a63f 68c8 683f
000003e0: bc95 4e3f 2664 143f fd62 023f bce1 823f
000003f0: 4616 333f 412e 9e3f a567 413f 42f0 a03f

std.constant12 i1 [512, 128] scale=0.029129155 zero_point=0
-0.2621624 0.3204207 0.17477493 0.6408414 -0.17477493 0.378679 -0.378679 -0.11651662
-0.23303324 0.6117123 0.029129155 -0.34954986 0.11651662 -0.40780818 0.23303324 -0.17477493
-0.05825831 -0.20390409 -0.029129155 -0.23303324 -0.17477493 0.378679 0.6117123 0.34954986
-0.14564577 0.23303324 -0.49519563 0.46606648 0.34954986 0.46606648 -1.2234246 -0.34954986
0.34954986 -0.20390409 -0.11651662 -0.3204207 -0.81561637 0.14564577 0.17477493 0.29129153
-0.757358 0.81561637 -0.6990997 -0.05825831 0.11651662 0.20390409 0.81561637 -1.0777787
-0.40780818 0.20390409 0.11651662 0.14564577 0.11651662 0.20390409 -0.3204207 -0.11651662
-1.3399411 -0.14564577 -0.20390409 0.20390409 -0.23303324 -0.6699706 0.2621624 -0.43693733
-0.378679 0.6117123 -0.05825831 -0.43693733 -0.14564577 -0.40780818 0.0 0.029129155
0.11651662 -0.3204207 -0.05825831 0.34954986 0.23303324 0.23303324 -0.20390409 -0.23303324
-0.17477493 0.6117123 -0.29129153 0.34954986 0.11651662 1.0777787 -0.3204207 -0.29129153
0.49519563 0.29129153 0.43693733 -0.029129155 0.3204207 0.087387465 0.11651662 0.29129153
-0.2621624 -0.17477493 0.40780818 0.72822887 -1.2234246 -0.6699706 0.5534539 -0.087387465
-0.2621624 -0.23303324 1.4273286 0.17477493 0.5534539 -0.5534539 0.8447455 0.49519563
-0.23303324 -0.34954986 -0.05825831 -0.5534539 -0.29129153 -0.029129155 0.3204207 -0.46606648
-0.34954986 -0.23303324 -0.3204207 0.087387465 -0.43693733 -0.46606648 0.5534539 0.23303324
-0.29129153 0.029129155 0.029129155 -0.20390409 0.05825831 0.40780818 0.23303324 -0.05825831
-0.11651662 0.029129155 -0.17477493 0.17477493 -0.087387465 -0.05825831 -0.087387465 -0.23303324
0.23303324 0.05825831 0.05825831 0.14564577 0.11651662 -0.087387465 -0.23303324 -0.17477493
0.029129155 -0.029129155 -0.23303324 -0.087387465 0.0 -0.029129155 0.6990997 0.029129155
-0.14564577 -0.05825831 0.029129155 0.29129153 0.14564577 0.23303324 -0.14564577 -0.14564577
0.78648716 -0.23303324 -0.14564577 -0.17477493 0.0 -0.3204207 -0.6408414 0.6408414
-0.05825831 -0.14564577 0.087387465 -0.029129155 0.087387465 -0.17477493 -0.49519563 -0.029129155
0.6699706 -0.087387465 0.05825831 0.029129155 -0.11651662 -0.029129155 0.087387465 0.11651662
0.2621624 -0.5534539 -0.029129155 -0.11651662 0.029129155 0.0 -0.14564577 -0.20390409
0.087387465 0.087387465 -0.11651662 0.029129155 -0.087387465 -0.23303324 0.29129153 0.0
0.087387465 -0.11651662 -0.087387465 -0.11651662 0.0 -0.6408414 0.11651662 0.029129155
-0.11651662 -0.05825831 -0.087387465 0.05825831 -0.14564577 0.029129155 -0.14564577 0.20390409
0.087387465 -0.05825831 -0.2621624 -0.3204207 0.5243248 0.20390409 -0.6117123 0.029129155
0.11651662 0.20390409 -0.46606648 -0.14564577 -0.17477493 -0.11651662 -0.23303324 -0.087387465
0.11651662 0.49519563 0.05825831 0.72822887 -0.029129155 0.0 0.0 0.20390409
0.087387465 0.029129155 0.05825831 0.23303324 0.14564577 0.11651662 -0.23303324 -0.05825831
00000000: f70b 0616 fa0d f3fc f815 01f4 04f2 08fa
00000010: fef9 fff8 fa0d 150c fb08 ef10 0c10 d6f4
00000020: 0cf9 fcf5 e405 060a e61c e8fe 0407 1cdb
00000030: f207 0405 0407 f5fc d2fb f907 f8e9 09f1
00000040: f315 fef1 fbf2 0001 04f5 fe0c 0808 f9f8
00000050: fa15 f60c 0425 f5f6 110a 0fff 0b03 040a
00000060: f7fa 0e19 d6e9 13fd f7f8 3106 13ed 1d11
00000070: f8f4 feed f6ff 0bf0 f4f8 f503 f1f0 1308
00000080: f601 01f9 020e 08fe fc01 fa06 fdfe fdf8
00000090: 0802 0205 04fd f8fa 01ff f8fd 00ff 1801
000000a0: fbfe 010a 0508 fbfb 1bf8 fbfa 00f5 ea16
000000b0: fefb 03ff 03fa efff 17fd 0201 fcff 0304
000000c0: 09ed fffc 0100 fbf9 0303 fc01 fdf8 0a00
000000d0: 03fc fdfc 00ea 0401 fcfe fd02 fb01 fb07
000000e0: 03fe f7f5 1207 eb01 0407 f0fb fafc f8fd
000000f0: 0411 0219 ff00 0007 0301 0208 0504 f8fe

std.constant13 f4 [512, 1]
0.081244215 -0.30531672 0.096070774 0.4269737 0.04426983 -0.47847903 0.29204845 -0.05619276
1.5729998e-05 -1.5496192 -0.059455432 0.0975948 0.106141895 0.09721078 -0.06711406 0.741005
0.9506826 0.079407714 0.08690753 0.14470637 -0.0076587005 0.22585656 -0.30252886 0.4625206
-0.043213807 0.09677071 -0.009728733 -0.033229955 -0.057951022 0.18975995 -0.23064327 -0.014194688
-0.38433117 -0.28316215 -0.06388955 0.2108032 -0.7288268 -0.1380664 0.17050745 0.1373551
-0.07560449 -0.67982423 -0.1981403 0.500341 -0.27860767 0.2450764 -0.06498257 0.26980442
-1.2483112 0.04295521 0.057643704 0.008616863 -0.22122559 0.023385061 0.48110497 0.019103061
0.28039035 -0.37672544 -0.07268633 0.13824102 -0.01767654 0.46193537 -0.30406034 0.018849472
0.33538306 0.17930563 0.15526204 0.10125268 0.11588049 0.15001251 0.07927002 0.025309522
0.028804755 0.2737595 -0.070448585 0.082944766 0.13631794 0.20939364 0.056894016 0.4701343
0.102829315 0.8089954 -0.031733997 -0.06636367 -0.24231535 -0.17635673 0.44096944 0.19633606
0.096526444 0.024544252 -0.24948917 0.07127471 -0.12515354 0.09998576 -0.06934577 -0.40236267
0.3021963 0.4097415 -0.09293287 0.052709598 0.28151768 0.080609374 0.45668927 -0.07155121
0.17692982 0.013864477 -0.17792091 0.069526374 0.21802102 -1.1582767 -0.16167693 0.36955044
-0.030658906 0.52682143 0.14888471 -0.712696 -0.55195975 0.020829843 0.004301269 0.22644739
0.061149966 0.10552693 -0.18160024 0.034469403 0.35824722 0.16746305 0.22323374 -0.041674152
0.6219787 0.3931969 0.109767586 -0.04595989 0.05114952 0.23494218 -0.024051288 -0.07156962
0.08693682 1.2429423 0.07947205 -0.05267923 -0.1128864 -0.06990318 -0.1196225 0.5623276
-0.11281258 0.06958214 0.023395147 0.004487159 0.011092801 -0.10547303 -0.18699263 -0.68780756
0.25109944 -0.011432987 -0.010749771 -0.26441157 -0.10451544 -0.34041354 -1.822721 -0.09635033
0.50093704 0.33853847 0.1443186 0.107576795 1.2444377 0.0109851835 0.12073358 0.03731434
1.6371471 1.1190025 0.59022146 1.0696762 0.6555787 0.02402842 -0.3509094 -0.14087984
1.0888418 -0.06188007 -0.1134508 0.029671082 0.384435 -0.058229648 0.5015487 -0.11937603
0.38901505 0.27979264 -0.05369674 -0.003408365 -0.2206157 -1.3272728 0.48663875 -0.07150201
-0.02978136 0.07990936 0.001566248 0.07307832 0.0966835 -0.017213615 0.008877462 0.21995029
-0.03089572 -0.13897511 -0.011931986 0.081586175 -0.03353082 0.33587024 -0.005446188 -0.19251662
0.17560394 -1.0755754 -0.15617242 -0.017677872 0.39598995 -0.119208016 -0.48639795 -0.028207248
-0.9382242 -0.0133832265 0.16765739 -0.053625256 0.37284458 0.45334068 0.13340802 0.3918682
-1.2678355 -0.07774278 -0.8089536 0.7050119 1.300072 0.6791662 -1.2084353 0.118915506
-0.041925643 0.059745245 -0.5191303 -0.056874253 0.22005992 1.2083657 1.2128359 -1.3268107
-0.07371989 0.4653339 0.1564469 0.47979853 0.6479384 0.23356123 0.020752747 -1.2983109
0.19996496 0.010852673 -0.007876914 -0.23021775 -1.3611323 -0.16895497 0.04219236 -0.16959076
00000000: 5e63 a63d 7952 9cbe c1c0 c43d 4c9c da3e
00000010: 4854 353d 34fb f4be 6087 953e 612a 66bd
00000020: eaf3 8337 ec59 c6bf 8a87 73bd c8df c73d
00000030: ec60 d93d 7216 c73d 1973 89bd 81b2 3d3f
00000040: ef5f 733f 83a0 a23d 93fc b13d e82d 143e
00000050: d6f5 fabb f146 673e 10e5 9abe 80cf ec3e
00000060: f600 31bd b92f c63d 4465 1fbc 221c 08bd
00000070: 0d5e 6dbd 6f50 423e c02d 6cbe d690 68bc
00000080: 0ec7 c4be a1fa 90be 86d8 82bd cbdc 573e
00000090: 6594 3abf 4761 0dbe 8199 2e3e d1a6 0c3e
000000a0: 87d6 9abd f608 2ebf 4ae5 4abe 5916 003f
000000b0: aaa5 8ebe 4ff5 7a3e 9515 85bd ce23 8a3e
000000c0: a9c8 9fbf cdf1 2f3d ce1b 6c3d be2d 0d3c
000000d0: f688 62be 0792 bf3c 6453 f63e 067e 9c3c
000000e0: 538f 8f3e 28e2 c0be 92dc 94bd 0e8f 0d3e
000000f0: 64ce 90bc cb82 ec3e ccad 9bbe 356a 9a3c
00000100: 54b7 ab3e e59b 373e 03fd 1e3e 915d cf3d
00000110: c052 ed3d e19c 193e 5258 a23d ea55 cf3c
00000120: f3f7 eb3c 352a 8c3e 5947 90bd f2de a93d
00000130: ee96 0b3e 496b 563e b309 693d 71b5 f03e
00000140: 2d98 d23d 531a 4f3f 82fb 01bd ade9 87bd
00000150: 8421 78be dc96 34be bfc6 e13e 520c 493e
00000160: a8af c53d 0711 c93c 177a 7fbe 7af8 913d
00000170: 4028 00be 56c5 cc3d 2805 8ebd 7b02 cebe
00000180: 79b9 9a3e a3c9 d13e 9753 bebd 05e6 573d
00000190: 1623 903e 8716 a53d 2dd3 e93e 7189 92bd
000001a0: 172d 353e d527 633c e630 36be d863 8e3d
000001b0: e740 5f3e 6942 94bf a38e 25be b735 bd3e
000001c0: 6328 fbbc c5dd 063f 3c75 183e 3f73 36bf
000001d0: 3c4d 0dbf 59a3 aa3c a9f1 8c3b d3e1 673e
000001e0: 6378 7a3d 811e d83d 6af5 39be ca2f 0d3d
000001f0: 2e6c b73e 6f7b 2b3e 6397 643e 84b2 2abd
00000200: ff39 1f3f 1b51 c93e d4cd e03d 7040 3cbd
00000210: 2982 513d af94 703e 3507 c5bc 1893 92bd
00000220: ee0b b23d bc18 9f3f 3ec2 a23d 2dc6 57bd
00000230: fc30 e7bd 6629 8fbd a4fc f4bd b4f4 0f3f
00000240: 480a e7bd 1581 8e3d 2ea7 bf3c 0509 933b
00000250: 94be 353c 3e02 d8bd ff7a 3fbe 2814 30bf
00000260: 1b90 803e 6c51 3bbc cf1f 30bc f460 87be
00000270: 310c d6bd af4a aebe ec4e e9bf 5253 c5bd
00000280: 693d 003f ea54 ad3e 41c8 133e 3951 dc3d
00000290: bc49 9f3f 33fb 333c 2b43 f73d ecd6 183d
000002a0: 098e d13f 793b 8f3f c118 173f 26eb 883f
000002b0: 01d4 273f 40d7 c43c 66aa b3be ce42 10be
000002c0: 2b5f 8b3f f575 7dbd e558 e8bd c510 f33c
000002d0: aad4 c43e 3682 6ebd 7f65 003f 6c7b f4bd
000002e0: fb2c c73e fb40 8f3e 1df1 5bbd e05e 5fbb
000002f0: 15e9 61be 13e4 a9bf b728 f93e a56f 92bd
00000300: 0af8 f3bc 85a7 a33d 904a cd3a 16aa 953d
00000310: 0002 c63d 9103 8dbc c672 113c a63a 613e
00000320: 0519 fdbc 7e4f 0ebe 607e 43bc a716 a73d
00000330: 9d57 09bd 2ff7 ab3e f075 b2bb 1423 45be
00000340: 85d1 333e 74ac 89bf aaeb 1fbe 2fd1 90bc
00000350: 32bf ca3e 5523 f4bd 2709 f9be e312 e7bc
00000360: 762f 70bf 5245 5bbc 61ae 2b3e 28a6 5bbd
00000370: 7ce5 be3e 451c e83e 1d9c 083e f3a2 c83e
00000380: 6f48 a2bf 9b37 9fbd 9517 4fbf a97b 343f
00000390: c268 a63f d6dd 2d3f 02ae 9abf f989 f33d
000003a0: 39ba 2bbd 6eb7 743d b9e5 04bf faf4 68bd
000003b0: 6357 613e baab 9a3f 353e 9b3f efd4 a9bf
000003c0: 74fa 96bd 3f40 ee3e 9e33 203e 27a8 f53e
000003d0: 4adf 253f ad2a 6f3e aa01 aa3c 0d2f a6bf
000003e0: 9dc3 4c3e 69cf 313c 2c0e 01bc 34be 6bbe
000003f0: 9539 aebf 8802 2dbe e5d1 2c3d 33a9 2dbe
