MLService_rpi/BTS_Data/exported_models/tflite_model/LSTM_single_series.tflite (tflite, 34224 bytes, 9 tensors)

lstm_1/lstm_cell_1/bias f4 [128]
0	0xc065209c	-3.5801153
1	0xc065d95b	-3.5913913
2	0xc063814f	-3.5547674
3	0xbfe1d2de	-1.7642477
4	0xc0637ee5	-3.55462
5	0xc0634798	-3.5512447
6	0xc069b542	-3.651688
7	0xc06485b3	-3.5706604
8	0xc064f8f5	-3.5776951
9	0xc061e089	-3.5293295
10	0xbf7ab124	-0.97926545
11	0xc06e0d4d	-3.7195618
12	0xc0683517	-3.6282403
13	0xbfa85c53	-1.3153175
14	0x3eb36848	0.35040498
15	0xbf712b42	-0.9420663
16	0xc075601d	-3.8339913
17	0xbf58fc23	-0.8475973
18	0xc03e3375	-2.9718907
19	0xc068740c	-3.632083
20	0xbf88bb36	-1.0682132
21	0xc0651616	-3.579473
22	0xc01753f2	-2.3644986
23	0xc065b717	-3.5893
24	0xc0811e14	-4.0349216
25	0xc077935a	-3.8683686
26	0xc06a55f5	-3.6614964
27	0xc0650904	-3.5786753
28	0xc006e3db	-2.1076572
29	0xbf899298	-1.0747862
30	0xc072d1bd	-3.7940514
31	0xbf79eaeb	-0.9762408
32	0xbdd802c9	-0.10547406
33	0xbee605aa	-0.44926196
34	0x3d43e12c	0.047822163
35	0x3f602036	0.8754915
36	0xbecc3024	-0.39880478
37	0xbe24decb	-0.16100614
38	0xbeb89b28	-0.36055875
39	0xbeb7d231	-0.3590255
40	0xbf0c2027	-0.5473656
41	0xbfd97a8f	-1.6990527
42	0x3f2aa487	0.666573
43	0xbfde7bbb	-1.738151
44	0xbed43993	-0.41450176
45	0x3f3e631c	0.7436998
46	0x3e0fe8f8	0.14053714
47	0x3f44cba8	0.76873255
48	0xbf328d55	-0.69746906
49	0xbf019b5a	-0.5062767
50	0xbff531de	-1.9155843
51	0xbf15d30f	-0.58525175
52	0xc001fde5	-2.0311215
53	0xbeb26dcb	-0.3484939
54	0xc083203d	-4.0976853
55	0xbdc5f269	-0.09665377
56	0xbf58116e	-0.84401596
57	0xbf3789dc	-0.7169473
58	0xbf10be69	-0.5654054
59	0x3eb3cbf3	0.35116538
60	0x3f116531	0.5679503
61	0x3f491601	0.785492
62	0xbf1d6a80	-0.6149063
63	0x3f54f0e5	0.83180076
64	0x3b7cb1ec	0.0038558198
65	0x3c4a016c	0.012329441
66	0xbc136711	-0.008996741
67	0xbd32464b	-0.043524068
68	0xbc235bbd	-0.009970603
69	0x3b2f1f84	0.0026721666
70	0x3bca59f0	0.006175272
71	0xbba8d1e6	-0.005151975
72	0xbb7e9c90	-0.0038850643
73	0xbc0cdad6	-0.008597096
74	0x3e6561cd	0.2240059
75	0xbb5ec893	-0.0033994063
76	0xbc4f25d0	-0.012643293
77	0xbde01437	-0.10941356
78	0xbf7b7879	-0.982307
79	0xbe86a04d	-0.26294175
80	0x3b6d1242	0.0036174213
81	0xbe644b5f	-0.22294377
82	0xbe836a57	-0.25667068
83	0xba92317f	-0.0011153667
84	0x3f751c0a	0.9574591
85	0xba1de7eb	-0.0006023633
86	0xbd463616	-0.048391424
87	0xbbbb7908	-0.005721215
88	0x3d144ef3	0.036208104
89	0xbcf3b4f9	-0.02974938
90	0x3b4c2d67	0.0031154992
91	0x3c6b2174	0.014351238
92	0xbd977610	-0.073955655
93	0xbe477656	-0.19478735
94	0x39a43901	0.0003132299
95	0x3d191086	0.037369274
96	0xc04cab88	-3.1979694
97	0xc0637695	-3.5541127
98	0xc05b91e4	-3.4307795
99	0xbfd70547	-1.6798486
100	0xc05dd294	-3.4659777
101	0xc0644ec7	-3.5673082
102	0xc0613a7d	-3.5191948
103	0xc05dac3d	-3.4636376
104	0xc05e2ec7	-3.471605
105	0xc056c6cf	-3.3558843
106	0xbf40e583	-0.7535021
107	0xc0671cef	-3.611141
108	0xc062792d	-3.538646
109	0xbf82a644	-1.020699
110	0x3e3d657c	0.18495744
111	0xbf44a643	-0.76816195
112	0xc05ca997	-3.447851
113	0xbf932611	-1.1495992
114	0xc02b1cb4	-2.673627
115	0xc0686952	-3.6314282
116	0xbf87066c	-1.0548835
117	0xc0598791	-3.3988993
118	0xc023f19d	-2.561622
119	0xc04bfd78	-3.1873455
120	0xc07f2de6	-3.9871764
121	0xc06fc659	-3.7464812
122	0xc06a67c3	-3.662583
123	0xc05fac3b	-3.494887
124	0xbfe528e4	-1.7903104
125	0xbf53c9aa	-0.8272959
126	0xc0601ecf	-3.5018804
127	0xbf5e889d	-0.86927205

lstm/lstm_cell/bias f4 [128]
0	0xc03cb263	-2.9483879
1	0xbecdfec3	-0.4023343
2	0xc0501f6e	-3.2519183
3	0xc056190d	-3.345279
4	0xbf94adfb	-1.1615595
5	0xc037e816	-2.8735404
6	0xbf353578	-0.7078471
7	0xc03edb9e	-2.9821544
8	0xbf0e7b51	-0.55656916
9	0xbeb768db	-0.35822186
10	0xc02b77d1	-2.679188
11	0xc0288da7	-2.6336458
12	0xbfcf93d1	-1.6216985
13	0xbf8d3574	-1.1031938
14	0xbeb246cf	-0.34819648
15	0xbf04918e	-0.517846
16	0xbfb18840	-1.3869705
17	0xc010bec0	-2.2616425
18	0xc043e750	-3.0609932
19	0xc0210c00	-2.5163574
20	0xbf747ffc	-0.9550779
21	0xc00fbb6e	-2.2458148
22	0xc06152a9	-3.5206702
23	0xc00cff86	-2.203096
24	0xbf6d1785	-0.9261401
25	0xbf4037e6	-0.75085294
26	0xbff26927	-1.893834
27	0xc017f5f1	-2.374386
28	0xbea0df00	-0.31420135
29	0xbfa74bbd	-1.3069988
30	0xc055315b	-3.3311374
31	0xc035651f	-2.834297
32	0xbdd7b7b8	-0.105330884
33	0x3ffcf284	1.976151
34	0xbf9705c4	-1.1798635
35	0xbf1168d7	-0.568006
36	0xbf3d054d	-0.73836213
37	0xbe72b72e	-0.2370269
38	0xbfa6ca53	-1.3030494
39	0xbcaef66b	-0.021357736
40	0x400771ba	2.1163163
41	0x3fde4fd7	1.7368115
42	0xbef4745d	-0.47745028
43	0x3f292bd5	0.6608251
44	0xbfe71ad5	-1.8055063
45	0x3fe0500d	1.752443
46	0x3f6562de	0.89603984
47	0xbf0c3396	-0.54766214
48	0xbf03e803	-0.51525897
49	0xbf1f4a65	-0.6222289
50	0xbe4e71dc	-0.20160621
51	0xbebb2567	-0.36551973
52	0xbfb677ec	-1.4255347
53	0xbebeae9e	-0.37242597
54	0xbf51df7a	-0.81981623
55	0xbf05e47d	-0.5230177
56	0xbfb04420	-1.377079
57	0xbea434f1	-0.3207164
58	0x3dcb63f4	0.09931174
59	0xbf00f883	-0.503792
60	0x3fe27864	1.769299
61	0x3eaf4768	0.34234166
62	0xbe87956b	-0.26481184
63	0xbea2f94c	-0.31830823
64	0xbe3938f6	-0.18088135
65	0xbe96da70	-0.2946353
66	0xbe203cbe	-0.15648171
67	0xbe11caf2	-0.14237574
68	0x3ebb5f52	0.3659616
69	0xbe27a988	-0.16373265
70	0x3e47a7aa	0.19497553
71	0xbe2b7b12	-0.16746166
72	0xbe888ea8	-0.26671338
73	0x3e9f21f0	0.3108058
74	0xbe7a274b	-0.24429052
75	0xbe2dcf33	-0.16973571
76	0xbef55520	-0.47916508
77	0xbe9bf96d	-0.30463734
78	0x3e9db6c1	0.30803493
79	0x3eaad83e	0.33368105
80	0xbeac2d12	-0.33628136
81	0x3e4d5c56	0.20054755
82	0xbe4796eb	-0.19491164
83	0xbe76564a	-0.24056354
84	0x3e8707fb	0.26373276
85	0x3ea56daa	0.3231023
86	0x3e2d9b9e	0.16953894
87	0xbe6eaa53	-0.23307161
88	0xbedc7559	-0.4305828
89	0x3ecb691e	0.39728636
90	0x3e89bc07	0.26901266
91	0xbe9ac112	-0.30225426
92	0x3e9b31ee	0.3031153
93	0xbe8fb331	-0.280664
94	0xbe424e34	-0.18975145
95	0x3e2c0af0	0.16801047
96	0xc03e9924	-2.978097
97	0xbe9a3f9d	-0.30126658
98	0xc05088f5	-3.2583592
99	0xc05638f9	-3.3472273
100	0xbf9ab828	-1.208745
101	0xc0378038	-2.8672009
102	0xbf6642fe	-0.8994597
103	0xc03e2405	-2.9709485
104	0xbf09492b	-0.5362727
105	0xbea170a2	-0.31531245
106	0xc02be05d	-2.685569
107	0xc029a812	-2.6508832
108	0xbff2e109	-1.8974925
109	0xbf8e0638	-1.1095648
110	0xbeb34668	-0.35014653
111	0xbefec5b4	-0.4976021
112	0xbf9b49d9	-1.2131912
113	0xc00ed0c2	-2.2314916
114	0xc0408067	-3.007837
115	0xc01a01c3	-2.4063575
116	0xbf93394e	-1.1501863
117	0xc005d22e	-2.0909534
118	0xc05d2079	-3.455107
119	0xc00f3a1e	-2.2379222
120	0xbf77ae97	-0.9675078
121	0xbf4c1bc3	-0.7972986
122	0xbff64f1f	-1.9242896
123	0xc014273e	-2.3148952
124	0xbe1bdefd	-0.15221782
125	0xbfaa30f7	-1.3296193
126	0xc05159aa	-3.2710977
127	0xc035fae3	-2.843438

std.constant7 f4 [1, 32]
0	0xbb3f5a63	-0.0029198162
1	0xbb9313e7	-0.0044884565
2	0xbb59c771	-0.0033230449
3	0x3e4ddb21	0.20103122
4	0x3982546c	0.0002485843
5	0xbbbac80c	-0.005700117
6	0x3a890d1f	0.0010456181
7	0xba76dff1	-0.0009417525
8	0xbb26a605	-0.0025428545
9	0xbb271825	-0.002549657
10	0xbee0e15d	-0.4392194
11	0xba0c0468	-0.0005341233
12	0xb949a8b0	-0.00019231695
13	0x3ecd712a	0.401254
14	0xbf186d04	-0.59541345
15	0x3edca607	0.4309542
16	0xbbd3cafb	-0.006463406
17	0x3e3e2b7e	0.18571278
18	0xbc15ec7f	-0.009150623
19	0xbb4e6d76	-0.003149835
20	0x3d9df1cb	0.07712134
21	0xbb812b76	-0.0039419485
22	0xbbf27f02	-0.0074003944
23	0x3a5fb3d6	0.00085335725
24	0xbb0aa6c8	-0.0021156538
25	0xba5a2b0e	-0.00083224557
26	0xbba6379c	-0.005072547
27	0xbc2039c3	-0.0097793965
28	0x3e473adf	0.19456051
29	0x3ecbc490	0.39798403
30	0x3b165215	0.0022937108
31	0xbf070cf3	-0.52754134

lstm/lstm_cell/bias1 f4 [128]
0	0xc03cb263	-2.9483879
1	0xbecdfec3	-0.4023343
2	0xc0501f6e	-3.2519183
3	0xc056190d	-3.345279
4	0xbf94adfb	-1.1615595
5	0xc037e816	-2.8735404
6	0xbf353578	-0.7078471
7	0xc03edb9e	-2.9821544
8	0xbf0e7b51	-0.55656916
9	0xbeb768db	-0.35822186
10	0xc02b77d1	-2.679188
11	0xc0288da7	-2.6336458
12	0xbfcf93d1	-1.6216985
13	0xbf8d3574	-1.1031938
14	0xbeb246cf	-0.34819648
15	0xbf04918e	-0.517846
16	0xbfb18840	-1.3869705
17	0xc010bec0	-2.2616425
18	0xc043e750	-3.0609932
19	0xc0210c00	-2.5163574
20	0xbf747ffc	-0.9550779
21	0xc00fbb6e	-2.2458148
22	0xc06152a9	-3.5206702
23	0xc00cff86	-2.203096
24	0xbf6d1785	-0.9261401
25	0xbf4037e6	-0.75085294
26	0xbff26927	-1.893834
27	0xc017f5f1	-2.374386
28	0xbea0df00	-0.31420135
29	0xbfa74bbd	-1.3069988
30	0xc055315b	-3.3311374
31	0xc035651f	-2.834297
32	0xbdd7b7b8	-0.105330884
33	0x3ffcf284	1.976151
34	0xbf9705c4	-1.1798635
35	0xbf1168d7	-0.568006
36	0xbf3d054d	-0.73836213
37	0xbe72b72e	-0.2370269
38	0xbfa6ca53	-1.3030494
39	0xbcaef66b	-0.021357736
40	0x400771ba	2.1163163
41	0x3fde4fd7	1.7368115
42	0xbef4745d	-0.47745028
43	0x3f292bd5	0.6608251
44	0xbfe71ad5	-1.8055063
45	0x3fe0500d	1.752443
46	0x3f6562de	0.89603984
47	0xbf0c3396	-0.54766214
48	0xbf03e803	-0.51525897
49	0xbf1f4a65	-0.6222289
50	0xbe4e71dc	-0.20160621
51	0xbebb2567	-0.36551973
52	0xbfb677ec	-1.4255347
53	0xbebeae9e	-0.37242597
54	0xbf51df7a	-0.81981623
55	0xbf05e47d	-0.5230177
56	0xbfb04420	-1.377079
57	0xbea434f1	-0.3207164
58	0x3dcb63f4	0.09931174
59	0xbf00f883	-0.503792
60	0x3fe27864	1.769299
61	0x3eaf4768	0.34234166
62	0xbe87956b	-0.26481184
63	0xbea2f94c	-0.31830823
64	0xbe3938f6	-0.18088135
65	0xbe96da70	-0.2946353
66	0xbe203cbe	-0.15648171
67	0xbe11caf2	-0.14237574
68	0x3ebb5f52	0.3659616
69	0xbe27a988	-0.16373265
70	0x3e47a7aa	0.19497553
71	0xbe2b7b12	-0.16746166
72	0xbe888ea8	-0.26671338
73	0x3e9f21f0	0.3108058
74	0xbe7a274b	-0.24429052
75	0xbe2dcf33	-0.16973571
76	0xbef55520	-0.47916508
77	0xbe9bf96d	-0.30463734
78	0x3e9db6c1	0.30803493
79	0x3eaad83e	0.33368105
80	0xbeac2d12	-0.33628136
81	0x3e4d5c56	0.20054755
82	0xbe4796eb	-0.19491164
83	0xbe76564a	-0.24056354
84	0x3e8707fb	0.26373276
85	0x3ea56daa	0.3231023
86	0x3e2d9b9e	0.16953894
87	0xbe6eaa53	-0.23307161
88	0xbedc7559	-0.4305828
89	0x3ecb691e	0.39728636
90	0x3e89bc07	0.26901266
91	0xbe9ac112	-0.30225426
92	0x3e9b31ee	0.3031153
93	0xbe8fb331	-0.280664
94	0xbe424e34	-0.18975145
95	0x3e2c0af0	0.16801047
96	0xc03e9924	-2.978097
97	0xbe9a3f9d	-0.30126658
98	0xc05088f5	-3.2583592
99	0xc05638f9	-3.3472273
100	0xbf9ab828	-1.208745
101	0xc0378038	-2.8672009
102	0xbf6642fe	-0.8994597
103	0xc03e2405	-2.9709485
104	0xbf09492b	-0.5362727
105	0xbea170a2	-0.31531245
106	0xc02be05d	-2.685569
107	0xc029a812	-2.6508832
108	0xbff2e109	-1.8974925
109	0xbf8e0638	-1.1095648
110	0xbeb34668	-0.35014653
111	0xbefec5b4	-0.4976021
112	0xbf9b49d9	-1.2131912
113	0xc00ed0c2	-2.2314916
114	0xc0408067	-3.007837
115	0xc01a01c3	-2.4063575
116	0xbf93394e	-1.1501863
117	0xc005d22e	-2.0909534
118	0xc05d2079	-3.455107
119	0xc00f3a1e	-2.2379222
120	0xbf77ae97	-0.9675078
121	0xbf4c1bc3	-0.7972986
122	0xbff64f1f	-1.9242896
123	0xc014273e	-2.3148952
124	0xbe1bdefd	-0.15221782
125	0xbfaa30f7	-1.3296193
126	0xc05159aa	-3.2710977
127	0xc035fae3	-2.843438

std.constant12 i1 [128, 32] scale=0.04094678 zero_point=0
0	0x07	0.28662747
1	0x09	0.36852103
2	0xfd	-0.122840345
3	0x06	0.24568069
4	0x14	0.81893563
5	0x0a	0.40946782
6	0xff	-0.04094678
7	0x05	0.20473391
8	0x08	0.32757425
9	0xfc	-0.16378713
10	0xf3	-0.53230816
11	0x06	0.24568069
12	0x08	0.32757425
13	0x02	0.08189356
14	0xf7	-0.36852103
15	0x02	0.08189356
16	0xe7	-1.0236695
17	0xf0	-0.6551485
18	0xfe	-0.08189356
19	0xf4	-0.49136138
20	0xf0	-0.6551485
21	0x0f	0.6142017
22	0x0b	0.4504146
23	0xf9	-0.28662747
24	0x0e	0.57325494
25	0xe3	-1.1874566
26	0x03	0.122840345
27	0xef	-0.6960953
28	0xfb	-0.20473391
29	0xff	-0.04094678
30	0xf6	-0.40946782
31	0xf4	-0.49136138
32	0x05	0.20473391
33	0xe5	-1.1055632
34	0xf7	-0.36852103
35	0x00	0.0
36	0xfd	-0.122840345
37	0xfb	-0.20473391
38	0x12	0.73704207
39	0x04	0.16378713
40	0xe8	-0.98272276
41	0x1b	1.1055632
42	0x04	0.16378713
43	0x00	0.0
44	0x32	2.047339
45	0xe7	-1.0236695
46	0x00	0.0
47	0xfa	-0.24568069
48	0x06	0.24568069
49	0x05	0.20473391
50	0xfc	-0.16378713
51	0x02	0.08189356
52	0x0d	0.53230816
53	0xf6	-0.40946782
54	0x04	0.16378713
55	0x05	0.20473391
56	0xf5	-0.4504146
57	0x08	0.32757425
58	0xff	-0.04094678
59	0x05	0.20473391
60	0x19	1.0236695
61	0x05	0.20473391
62	0xfd	-0.122840345
63	0xfc	-0.16378713
64	0x05	0.20473391
65	0x02	0.08189356
66	0x10	0.6551485
67	0xfd	-0.122840345
68	0xec	-0.81893563
69	0x0e	0.57325494
70	0xf4	-0.49136138
71	0x06	0.24568069
72	0x05	0.20473391
73	0x06	0.24568069
74	0xff	-0.04094678
75	0x02	0.08189356
76	0xd8	-1.6378713
77	0xf9	-0.28662747
78	0xef	-0.6960953
79	0xfc	-0.16378713
80	0xfd	-0.122840345
81	0xed	-0.77798885
82	0xfe	-0.08189356
83	0x03	0.122840345
84	0xe5	-1.1055632
85	0x03	0.122840345
86	0x06	0.24568069
87	0x04	0.16378713
88	0x0f	0.6142017
89	0xe5	-1.1055632
90	0x00	0.0
91	0xf9	-0.28662747
92	0x03	0.122840345
93	0x08	0.32757425
94	0xf9	-0.28662747
95	0xf7	-0.36852103
96	0x0d	0.53230816
97	0x00	0.0
98	0x06	0.24568069
99	0x0e	0.57325494
100	0x00	0.0
101	0x16	0.9008292
102	0xe1	-1.2693503
103	0x0d	0.53230816
104	0xf9	-0.28662747
105	0xff	-0.04094678
106	0x00	0.0
107	0x04	0.16378713
108	0x13	0.77798885
109	0xf8	-0.32757425
110	0xee	-0.73704207
111	0xea	-0.9008292
112	0x03	0.122840345
113	0xe1	-1.2693503
114	0x03	0.122840345
115	0xf6	-0.40946782
116	0xd7	-1.678818
117	0x02	0.08189356
118	0x15	0.8598824
119	0x10	0.6551485
120	0x22	1.3921906
121	0xdb	-1.5150309
122	0xff	-0.04094678
123	0xf2	-0.57325494
124	0x05	0.20473391
125	0x06	0.24568069
126	0xff	-0.04094678
127	0xee	-0.73704207
128	0x03	0.122840345
129	0xe8	-0.98272276
130	0x18	0.98272276
131	0x03	0.122840345
132	0x02	0.08189356
133	0x17	0.941776
134	0x0f	0.6142017
135	0xfe	-0.08189356
136	0xf4	-0.49136138
137	0x16	0.9008292
138	0xee	-0.73704207
139	0xef	-0.6960953
140	0xb5	-3.0710087
141	0xef	-0.6960953
142	0x11	0.6960953
143	0x17	0.941776
144	0xe6	-1.0646163
145	0xe7	-1.0236695
146	0xf0	-0.6551485
147	0xea	-0.9008292
148	0xe1	-1.2693503
149	0x23	1.4331374
150	0x0f	0.6142017
151	0xec	-0.81893563
152	0xfe	-0.08189356
153	0xda	-1.5559777
154	0x19	1.0236695
155	0xd8	-1.6378713
156	0x09	0.36852103
157	0xf4	-0.49136138
158	0xeb	-0.8598824
159	0xeb	-0.8598824
160	0x0d	0.53230816
161	0x12	0.73704207
162	0x0f	0.6142017
163	0x04	0.16378713
164	0xf2	-0.57325494
165	0x14	0.81893563
166	0xe8	-0.98272276
167	0x08	0.32757425
168	0x17	0.941776
169	0xf5	-0.4504146
170	0x00	0.0
171	0x04	0.16378713
172	0xd0	-1.9654455
173	0x02	0.08189356
174	0xe8	-0.98272276
175	0xf5	-0.4504146
176	0xff	-0.04094678
177	0xe0	-1.310297
178	0xfd	-0.122840345
179	0xfd	-0.122840345
180	0xd3	-1.8426051
181	0x0a	0.40946782
182	0x09	0.36852103
183	0x04	0.16378713
184	0x1c	1.1465099
185	0xd0	-1.9654455
186	0x00	0.0
187	0xf3	-0.53230816
188	0xf2	-0.57325494
189	0x0d	0.53230816
190	0xfc	-0.16378713
191	0xed	-0.77798885
192	0x1b	1.1055632
193	0x04	0.16378713
194	0x16	0.9008292
195	0x0c	0.49136138
196	0xdc	-1.4740841
197	0x2f	1.9244988
198	0xdb	-1.5150309
199	0x1c	1.1465099
200	0x10	0.6551485
201	0x05	0.20473391
202	0x05	0.20473391
203	0x1a	1.0646163
204	0x9c	-4.094678
205	0xf5	-0.4504146
206	0xea	-0.9008292
207	0xec	-0.81893563
208	0x07	0.28662747
209	0xcb	-2.1701794
210	0x06	0.24568069
211	0x06	0.24568069
212	0xb3	-3.1529021
213	0x02	0.08189356
214	0x03	0.122840345
215	0x13	0.77798885
216	0x1d	1.1874566
217	0xa6	-3.6852102
218	0xfd	-0.122840345
219	0xf5	-0.4504146
220	0xfe	-0.08189356
221	0x1c	1.1465099
222	0xfc	-0.16378713
223	0xd6	-1.7197648
224	0x0b	0.4504146
225	0x02	0.08189356
226	0xfb	-0.20473391
227	0x07	0.28662747
228	0x14	0.81893563
229	0x0c	0.49136138
230	0xfd	-0.122840345
231	0x0a	0.40946782
232	0xff	-0.04094678
233	0xff	-0.04094678
234	0xf2	-0.57325494
235	0x0d	0.53230816
236	0x1d	1.1874566
237	0xfa	-0.24568069
238	0xf3	-0.53230816
239	0xfd	-0.122840345
240	0xee	-0.73704207
241	0xf0	-0.6551485
242	0x00	0.0
243	0xee	-0.73704207
244	0xf5	-0.4504146
245	0x11	0.6960953
246	0x15	0.8598824
247	0x00	0.0
248	0x14	0.81893563
249	0xe5	-1.1055632
250	0xff	-0.04094678
251	0xf3	-0.53230816
252	0x01	0.04094678
253	0x04	0.16378713
254	0x00	0.0
255	0xf7	-0.36852103

std.constant13 f4 [128, 1]
0	0x3f1519ad	0.58242303
1	0xbeefb01e	-0.46814054
2	0x3f9267d3	1.1437935
3	0x3f991bc7	1.1961602
4	0xc001787e	-2.0229793
5	0x4016c4c0	2.3557587
6	0x4089eaa9	4.309895
7	0x3f1a8b31	0.6036864
8	0xbe2cdcf5	-0.16881163
9	0xbf32944a	-0.6975752
10	0xbf88d634	-1.069037
11	0x3f7901b9	0.97268254
12	0xc00a7757	-2.163534
13	0xbf7fb919	-0.9989181
14	0xbebd73c9	-0.370024
15	0xbf9c1362	-1.2193415
16	0xc028c3d5	-2.6369526
17	0x4016743e	2.3508449
18	0xbd9ade28	-0.07561904
19	0xbf85385b	-1.0407823
20	0x3fea0987	1.8284158
21	0xc003113e	-2.0479274
22	0xbf23dd46	-0.6400951
23	0x3f73ba5d	0.9520624
24	0x40a02901	5.0050054
25	0x4088a349	4.2699323
26	0xbf19da0d	-0.60098344
27	0xbfc8e34f	-1.5694369
28	0xbf848543	-1.0353168
29	0xbe95d5f9	-0.2926481
30	0xbf26fcfc	-0.65229774
31	0x3fb83a0f	1.4392718
32	0x3c07278f	0.008249178
33	0xbfb30382	-1.3985445
34	0x3f43630a	0.76322997
35	0xbee1becc	-0.4409088
36	0x403724c0	2.861618
37	0x3aa0c869	0.0012266758
38	0x400ac7b9	2.16844
39	0xbeb08921	-0.3447962
40	0xbf8f0ff9	-1.117675
41	0xbfc08787	-1.504136
42	0x4007c336	2.1212897
43	0xbf35ebe2	-0.71063054
44	0xc053bd4a	-3.3084283
45	0xbfb0d1a2	-1.3813975
46	0xbf53a7d4	-0.8267796
47	0x3f87e62d	1.0617119
48	0x3ff7ec8e	1.9369066
49	0xbd99f913	-0.0751821
50	0x3ea326ed	0.31865636
51	0x3fee4b5f	1.8616751
52	0x3fa034b1	1.251608
53	0x4049559f	3.145851
54	0x3e5f543e	0.2180948
55	0x3f92eb43	1.1478046
56	0x4026c8d2	2.606007
57	0x4019defe	2.4042354
58	0xbf94c48b	-1.162248
59	0x3feff214	1.8745751
60	0xbfb7964a	-1.434274
61	0x3db69f16	0.08917062
62	0xbf03a622	-0.51425374
63	0x3f4d5a41	0.8021584
64	0xbf9022f9	-1.1260673
65	0xc0131628	-2.2982273
66	0xbf805931	-1.0027219
67	0xbf4d65b5	-0.8023332
68	0x3ff187ee	1.8869607
69	0xbf94db6c	-1.1629462
70	0x3f986eed	1.1908852
71	0xbf85a056	-1.0439556
72	0xc00b95ab	-2.18101
73	0x400ee975	2.232999
74	0xbf9b14b0	-1.2115688
75	0xbf9bfc32	-1.2186339
76	0xbf811fa4	-1.0087781
77	0xbff3e44a	-1.9054043
78	0x4000ced9	2.012625
79	0x3ff1bcd0	1.8885746
80	0xbfd5347e	-1.6656644
81	0x3fdab952	1.7087805
82	0xbf7a9498	-0.97882986
83	0xbf9cf94a	-1.2263577
84	0x3ff5a154	1.9189858
85	0x3fb9083d	1.4455639
86	0x3f50eae2	0.816084
87	0xbfa351f9	-1.2759391
88	0xc02a0a37	-2.6568735
89	0x4046254c	3.0960264
90	0x3fc04d22	1.5023539
91	0xbfaadb0c	-1.3348098
92	0x400c62e2	2.1935353
93	0xbfdbf5dc	-1.7184405
94	0xbf806d67	-1.0033387
95	0x3fa9f2c2	1.3277209
96	0x3ebad658	0.36491656
97	0xbe931621	-0.2872782
98	0x3f3f0a8e	0.7462548
99	0x3f006066	0.5014709
100	0xbff151c1	-1.8853074
101	0x3fc2906c	1.5200324
102	0x40271983	2.610932
103	0x3ef23313	0.47304592
104	0x3f0eeab8	0.558269
105	0xbfa54bee	-1.2913797
106	0xbf3addf4	-0.72994924
107	0x3efa2ea4	0.4886371
108	0xc0279d63	-2.6189811
109	0xbf6e71de	-0.931425
110	0xbf2af40c	-0.66778636
111	0xbfa0aac4	-1.2552114
112	0xbfda1a41	-1.7039262
113	0x401c151b	2.4387882
114	0x3e979684	0.29607022
115	0xbeaa49f7	-0.33259556
116	0x3f2f238e	0.6841363
117	0xbf9a6255	-1.2061259
118	0xbef4df1d	-0.47826472
119	0x3f128186	0.5722889
120	0x409008c3	4.5010695
121	0x407bf13d	3.936599
122	0xbf62e907	-0.8863682
123	0xbfc45d3e	-1.5340955
124	0xbf4ed4a4	-0.80793214
125	0xbe9f0cdf	-0.31064507
126	0xbf18d9cf	-0.5970735
127	0x3fafa40f	1.3721942

lstm_1/lstm_cell_1/bias1 f4 [128]
0	0xc065209c	-3.5801153
1	0xc065d95b	-3.5913913
2	0xc063814f	-3.5547674
3	0xbfe1d2de	-1.7642477
4	0xc0637ee5	-3.55462
5	0xc0634798	-3.5512447
6	0xc069b542	-3.651688
7	0xc06485b3	-3.5706604
8	0xc064f8f5	-3.5776951
9	0xc061e089	-3.5293295
10	0xbf7ab124	-0.97926545
11	0xc06e0d4d	-3.7195618
12	0xc0683517	-3.6282403
13	0xbfa85c53	-1.3153175
14	0x3eb36848	0.35040498
15	0xbf712b42	-0.9420663
16	0xc075601d	-3.8339913
17	0xbf58fc23	-0.8475973
18	0xc03e3375	-2.9718907
19	0xc068740c	-3.632083
20	0xbf88bb36	-1.0682132
21	0xc0651616	-3.579473
22	0xc01753f2	-2.3644986
23	0xc065b717	-3.5893
24	0xc0811e14	-4.0349216
25	0xc077935a	-3.8683686
26	0xc06a55f5	-3.6614964
27	0xc0650904	-3.5786753
28	0xc006e3db	-2.1076572
29	0xbf899298	-1.0747862
30	0xc072d1bd	-3.7940514
31	0xbf79eaeb	-0.9762408
32	0xbdd802c9	-0.10547406
33	0xbee605aa	-0.44926196
34	0x3d43e12c	0.047822163
35	0x3f602036	0.8754915
36	0xbecc3024	-0.39880478
37	0xbe24decb	-0.16100614
38	0xbeb89b28	-0.36055875
39	0xbeb7d231	-0.3590255
40	0xbf0c2027	-0.5473656
41	0xbfd97a8f	-1.6990527
42	0x3f2aa487	0.666573
43	0xbfde7bbb	-1.738151
44	0xbed43993	-0.41450176
45	0x3f3e631c	0.7436998
46	0x3e0fe8f8	0.14053714
47	0x3f44cba8	0.76873255
48	0xbf328d55	-0.69746906
49	0xbf019b5a	-0.5062767
50	0xbff531de	-1.9155843
51	0xbf15d30f	-0.58525175
52	0xc001fde5	-2.0311215
53	0xbeb26dcb	-0.3484939
54	0xc083203d	-4.0976853
55	0xbdc5f269	-0.09665377
56	0xbf58116e	-0.84401596
57	0xbf3789dc	-0.7169473
58	0xbf10be69	-0.5654054
59	0x3eb3cbf3	0.35116538
60	0x3f116531	0.5679503
61	0x3f491601	0.785492
62	0xbf1d6a80	-0.6149063
63	0x3f54f0e5	0.83180076
64	0x3b7cb1ec	0.0038558198
65	0x3c4a016c	0.012329441
66	0xbc136711	-0.008996741
67	0xbd32464b	-0.043524068
68	0xbc235bbd	-0.009970603
69	0x3b2f1f84	0.0026721666
70	0x3bca59f0	0.006175272
71	0xbba8d1e6	-0.005151975
72	0xbb7e9c90	-0.0038850643
73	0xbc0cdad6	-0.008597096
74	0x3e6561cd	0.2240059
75	0xbb5ec893	-0.0033994063
76	0xbc4f25d0	-0.012643293
77	0xbde01437	-0.10941356
78	0xbf7b7879	-0.982307
79	0xbe86a04d	-0.26294175
80	0x3b6d1242	0.0036174213
81	0xbe644b5f	-0.22294377
82	0xbe836a57	-0.25667068
83	0xba92317f	-0.0011153667
84	0x3f751c0a	0.9574591
85	0xba1de7eb	-0.0006023633
86	0xbd463616	-0.048391424
87	0xbbbb7908	-0.005721215
88	0x3d144ef3	0.036208104
89	0xbcf3b4f9	-0.02974938
90	0x3b4c2d67	0.0031154992
91	0x3c6b2174	0.014351238
92	0xbd977610	-0.073955655
93	0xbe477656	-0.19478735
94	0x39a43901	0.0003132299
95	0x3d191086	0.037369274
96	0xc04cab88	-3.1979694
97	0xc0637695	-3.5541127
98	0xc05b91e4	-3.4307795
99	0xbfd70547	-1.6798486
100	0xc05dd294	-3.4659777
101	0xc0644ec7	-3.5673082
102	0xc0613a7d	-3.5191948
103	0xc05dac3d	-3.4636376
104	0xc05e2ec7	-3.471605
105	0xc056c6cf	-3.3558843
106	0xbf40e583	-0.7535021
107	0xc0671cef	-3.611141
108	0xc062792d	-3.538646
109	0xbf82a644	-1.020699
110	0x3e3d657c	0.18495744
111	0xbf44a643	-0.76816195
112	0xc05ca997	-3.447851
113	0xbf932611	-1.1495992
114	0xc02b1cb4	-2.673627
115	0xc0686952	-3.6314282
116	0xbf87066c	-1.0548835
117	0xc0598791	-3.3988993
118	0xc023f19d	-2.561622
119	0xc04bfd78	-3.1873455
120	0xc07f2de6	-3.9871764
121	0xc06fc659	-3.7464812
122	0xc06a67c3	-3.662583
123	0xc05fac3b	-3.494887
124	0xbfe528e4	-1.7903104
125	0xbf53c9aa	-0.8272959
126	0xc0601ecf	-3.5018804
127	0xbf5e889d	-0.86927205

std.constant22 i1 [128, 32] scale=0.09242666 zero_point=0
0	0xf1	-1.3863999
1	0xf8	-0.73941326
2	0xf5	-1.0166932
3	0x0b	1.0166932
4	0x07	0.6469866
5	0x01	0.09242666
6	0xf8	-0.73941326
7	0x06	0.55455995
8	0xfa	-0.55455995
9	0xea	-2.0333865
10	0xed	-1.7561065
11	0xf5	-1.0166932
12	0x06	0.55455995
13	0x12	1.6636798
14	0x28	3.6970663
15	0x12	1.6636798
16	0xe8	-2.2182398
17	0x20	2.957653
18	0x14	1.8485332
19	0xf9	-0.6469866
20	0xcd	-4.7137594
21	0x08	0.73941326
22	0x06	0.55455995
23	0x0f	1.3863999
24	0xf5	-1.0166932
25	0x0c	1.1091199
26	0xfe	-0.18485332
27	0xf6	-0.9242666
28	0x13	1.7561065
29	0x13	1.7561065
30	0x0e	1.2939732
31	0xf2	-1.2939732
32	0xf3	-1.2015465
33	0xfc	-0.36970663
34	0xf6	-0.9242666
35	0x09	0.8318399
36	0x05	0.4621333
37	0x01	0.09242666
38	0xfa	-0.55455995
39	0x07	0.6469866
40	0xf8	-0.73941326
41	0xf5	-1.0166932
42	0xf5	-1.0166932
43	0xf6	-0.9242666
44	0x07	0.6469866
45	0x0a	0.9242666
46	0x25	3.4197865
47	0x11	1.5712532
48	0xee	-1.6636798
49	0x0e	1.2939732
50	0x12	1.6636798
51	0xfb	-0.4621333
52	0xea	-2.0333865
53	0x08	0.73941326
54	0x03	0.27727997
55	0x0d	1.2015465
56	0xf3	-1.2015465
57	0x0f	1.3863999
58	0xfe	-0.18485332
59	0xf8	-0.73941326
60	0x07	0.6469866
61	0x0c	1.1091199
62	0x09	0.8318399
63	0xfa	-0.55455995
64	0xf6	-0.9242666
65	0xfb	-0.4621333
66	0xf9	-0.6469866
67	0x0c	1.1091199
68	0x02	0.18485332
69	0x00	0.0
70	0xfe	-0.18485332
71	0x03	0.27727997
72	0xfc	-0.36970663
73	0xf4	-1.1091199
74	0xf1	-1.3863999
75	0xfc	-0.36970663
76	0x02	0.18485332
77	0x0e	1.2939732
78	0x1c	2.5879464
79	0x0f	1.3863999
80	0xf0	-1.4788265
81	0x14	1.8485332
82	0x0c	1.1091199
83	0xfd	-0.27727997
84	0xd9	-3.6046395
85	0x03	0.27727997
86	0x00	0.0
87	0x0b	1.0166932
88	0xfa	-0.55455995
89	0x07	0.6469866
90	0x01	0.09242666
91	0xf8	-0.73941326
92	0x0e	1.2939732
93	0x0d	1.2015465
94	0x04	0.36970663
95	0xf3	-1.2015465
96	0xf8	-0.73941326
97	0xff	-0.09242666
98	0xfb	-0.4621333
99	0x0c	1.1091199
100	0x03	0.27727997
101	0x02	0.18485332
102	0xfe	-0.18485332
103	0x02	0.18485332
104	0xfb	-0.4621333
105	0xf8	-0.73941326
106	0xec	-1.8485332
107	0xfc	-0.36970663
108	0x03	0.27727997
109	0x15	1.9409598
110	0x2a	3.8819196
111	0x19	2.3106666
112	0xf3	-1.2015465
113	0x09	0.8318399
114	0x17	2.125813
115	0x00	0.0
116	0xbc	-6.2850127
117	0x03	0.27727997
118	0xff	-0.09242666
119	0x09	0.8318399
120	0xf7	-0.8318399
121	0x07	0.6469866
122	0x00	0.0
123	0xf9	-0.6469866
124	0x13	1.7561065
125	0x16	2.0333865
126	0x04	0.36970663
127	0xee	-1.6636798
128	0xf3	-1.2015465
129	0xf9	-0.6469866
130	0xf9	-0.6469866
131	0x05	0.4621333
132	0x04	0.36970663
133	0xff	-0.09242666
134	0xfb	-0.4621333
135	0x06	0.55455995
136	0xf9	-0.6469866
137	0xf1	-1.3863999
138	0xf5	-1.0166932
139	0xf7	-0.8318399
140	0x07	0.6469866
141	0x0a	0.9242666
142	0x26	3.512213
143	0x0f	1.3863999
144	0xec	-1.8485332
145	0x0c	1.1091199
146	0x12	1.6636798
147	0xfe	-0.18485332
148	0xe1	-2.8652263
149	0x05	0.4621333
150	0x05	0.4621333
151	0x0c	1.1091199
152	0xf5	-1.0166932
153	0x0f	1.3863999
154	0xfe	-0.18485332
155	0xfb	-0.4621333
156	0x08	0.73941326
157	0x0e	1.2939732
158	0x0b	1.0166932
159	0xfa	-0.55455995
160	0xf3	-1.2015465
161	0xfa	-0.55455995
162	0xfa	-0.55455995
163	0x07	0.6469866
164	0x05	0.4621333
165	0x01	0.09242666
166	0xfc	-0.36970663
167	0x05	0.4621333
168	0xf9	-0.6469866
169	0xf4	-1.1091199
170	0xf5	-1.0166932
171	0xf8	-0.73941326
172	0x08	0.73941326
173	0x0a	0.9242666
174	0x22	3.1425064
175	0x10	1.4788265
176	0xed	-1.7561065
177	0x0d	1.2015465
178	0x11	1.5712532
179	0xfd	-0.27727997
180	0xe7	-2.3106666
181	0x08	0.73941326
182	0x04	0.36970663
183	0x0c	1.1091199
184	0xf5	-1.0166932
185	0x0e	1.2939732
186	0xfe	-0.18485332
187	0xf9	-0.6469866
188	0x08	0.73941326
189	0x0b	1.0166932
190	0x0c	1.1091199
191	0xfa	-0.55455995
192	0xf8	-0.73941326
193	0xfa	-0.55455995
194	0xf8	-0.73941326
195	0x06	0.55455995
196	0x01	0.09242666
197	0xff	-0.09242666
198	0xfc	-0.36970663
199	0x02	0.18485332
200	0xfc	-0.36970663
201	0xf4	-1.1091199
202	0xf6	-0.9242666
203	0xfd	-0.27727997
204	0x03	0.27727997
205	0x0a	0.9242666
206	0x1e	2.7727997
207	0x0a	0.9242666
208	0xf0	-1.4788265
209	0x13	1.7561065
210	0x09	0.8318399
211	0xfd	-0.27727997
212	0xe8	-2.2182398
213	0x02	0.18485332
214	0x03	0.27727997
215	0x08	0.73941326
216	0xfa	-0.55455995
217	0x05	0.4621333
218	0x00	0.0
219	0xfb	-0.4621333
220	0x0b	1.0166932
221	0x0c	1.1091199
222	0x07	0.6469866
223	0xf9	-0.6469866
224	0xf7	-0.8318399
225	0xf9	-0.6469866
226	0xfb	-0.4621333
227	0x08	0.73941326
228	0x00	0.0
229	0x00	0.0
230	0xfc	-0.36970663
231	0x03	0.27727997
232	0xfc	-0.36970663
233	0xf4	-1.1091199
234	0xf4	-1.1091199
235	0xfa	-0.55455995
236	0x04	0.36970663
237	0x0b	1.0166932
238	0x21	3.0500798
239	0x0b	1.0166932
240	0xed	-1.7561065
241	0x16	2.0333865
242	0x0c	1.1091199
243	0xfc	-0.36970663
244	0xe3	-2.6803732
245	0x02	0.18485332
246	0x05	0.4621333
247	0x09	0.8318399
248	0xf9	-0.6469866
249	0x09	0.8318399
250	0xff	-0.09242666
251	0xfb	-0.4621333
252	0x0b	1.0166932
253	0x0b	1.0166932
254	0x08	0.73941326
255	0xf8	-0.73941326

std.constant23 i1 [128, 32] scale=0.059411522 zero_point=0
0	0x09	0.5347037
1	0x00	0.0
2	0x0c	0.71293825
3	0x0c	0.71293825
4	0xfa	-0.35646912
5	0x0e	0.8317613
6	0xdf	-1.9605802
7	0x07	0.41588065
8	0xfc	-0.23764609
9	0xfe	-0.118823044
10	0x05	0.2970576
11	0x04	0.23764609
12	0x0a	0.5941152
13	0xfd	-0.17823456
14	0xf3	-0.7723498
15	0xf4	-0.71293825
16	0x07	0.41588065
17	0xef	-1.0099958
18	0x08	0.47529218
19	0xff	-0.059411522
20	0xea	-1.3070534
21	0xfb	-0.2970576
22	0xfe	-0.118823044
23	0x0e	0.8317613
24	0x22	2.0199916
25	0xe9	-1.366465
26	0x01	0.059411522
27	0xfd	-0.17823456
28	0x08	0.47529218
29	0x05	0.2970576
30	0x01	0.059411522
31	0xf6	-0.5941152
32	0xfc	-0.23764609
33	0xf3	-0.7723498
34	0xff	-0.059411522
35	0x01	0.059411522
36	0x04	0.23764609
37	0x03	0.17823456
38	0xfa	-0.35646912
39	0xf9	-0.41588065
40	0xf4	-0.71293825
41	0x12	1.0694073
42	0xf6	-0.5941152
43	0xfb	-0.2970576
44	0x09	0.5347037
45	0xef	-1.0099958
46	0x00	0.0
47	0x03	0.17823456
48	0xf8	-0.47529218
49	0xfb	-0.2970576
50	0xf7	-0.5347037
51	0xf3	-0.7723498
52	0xfd	-0.17823456
53	0x0b	0.6535267
54	0x0d	0.7723498
55	0xfe	-0.118823044
56	0x07	0.41588065
57	0xfa	-0.35646912
58	0x0c	0.71293825
59	0xf5	-0.6535267
60	0x12	1.0694073
61	0xf3	-0.7723498
62	0xf8	-0.47529218
63	0x01	0.059411522
64	0x01	0.059411522
65	0xf8	-0.47529218
66	0x05	0.2970576
67	0x04	0.23764609
68	0xfc	-0.23764609
69	0x07	0.41588065
70	0xed	-1.1288189
71	0x03	0.17823456
72	0xf6	-0.5941152
73	0x05	0.2970576
74	0x00	0.0
75	0xfe	-0.118823044
76	0x00	0.0
77	0xf8	-0.47529218
78	0xff	-0.059411522
79	0xfd	-0.17823456
80	0xfe	-0.118823044
81	0xf6	-0.5941152
82	0xfe	-0.118823044
83	0xff	-0.059411522
84	0xf7	-0.5347037
85	0x03	0.17823456
86	0xfd	-0.17823456
87	0x07	0.41588065
88	0x0d	0.7723498
89	0xf2	-0.8317613
90	0x06	0.35646912
91	0xfc	-0.23764609
92	0x08	0.47529218
93	0xfd	-0.17823456
94	0xff	-0.059411522
95	0xfc	-0.23764609
96	0xfe	-0.118823044
97	0xfa	-0.35646912
98	0x07	0.41588065
99	0xfd	-0.17823456
100	0xfd	-0.17823456
101	0x05	0.2970576
102	0xdf	-1.9605802
103	0xfe	-0.118823044
104	0xfe	-0.118823044
105	0x03	0.17823456
106	0xfe	-0.118823044
107	0x00	0.0
108	0x02	0.118823044
109	0xfe	-0.118823044
110	0x05	0.2970576
111	0x04	0.23764609
112	0xff	-0.059411522
113	0xf8	-0.47529218
114	0x02	0.118823044
115	0xfc	-0.23764609
116	0xf9	-0.41588065
117	0x04	0.23764609
118	0x00	0.0
119	0x01	0.059411522
120	0x1b	1.6041111
121	0xf0	-0.95058435
122	0x01	0.059411522
123	0xff	-0.059411522
124	0x04	0.23764609
125	0xfd	-0.17823456
126	0xff	-0.059411522
127	0x01	0.059411522
128	0x02	0.118823044
129	0xf9	-0.41588065
130	0x02	0.118823044
131	0x04	0.23764609
132	0xfd	-0.17823456
133	0x09	0.5347037
134	0xee	-1.0694073
135	0xfd	-0.17823456
136	0xf8	-0.47529218
137	0x0b	0.6535267
138	0xff	-0.059411522
139	0xff	-0.059411522
140	0x01	0.059411522
141	0xf4	-0.71293825
142	0xfc	-0.23764609
143	0xf8	-0.47529218
144	0xfe	-0.118823044
145	0xf8	-0.47529218
146	0xfc	-0.23764609
147	0xf8	-0.47529218
148	0xf3	-0.7723498
149	0x08	0.47529218
150	0x08	0.47529218
151	0x06	0.35646912
152	0x10	0.95058435
153	0xf2	-0.8317613
154	0x07	0.41588065
155	0xf5	-0.6535267
156	0x0b	0.6535267
157	0xfe	-0.118823044
158	0xfc	-0.23764609
159	0xfc	-0.23764609
160	0xfd	-0.17823456
161	0xf6	-0.5941152
162	0x01	0.059411522
163	0x00	0.0
164	0x04	0.23764609
165	0x02	0.118823044
166	0xf8	-0.47529218
167	0xfd	-0.17823456
168	0xf7	-0.5347037
169	0x0c	0.71293825
170	0xfb	-0.2970576
171	0xf9	-0.41588065
172	0x06	0.35646912
173	0xf7	-0.5347037
174	0x02	0.118823044
175	0x01	0.059411522
176	0xf8	-0.47529218
177	0xfd	-0.17823456
178	0xfa	-0.35646912
179	0xf9	-0.41588065
180	0xfd	-0.17823456
181	0x0a	0.5941152
182	0x0d	0.7723498
183	0x01	0.059411522
184	0x0a	0.5941152
185	0xfd	-0.17823456
186	0x0a	0.5941152
187	0xf6	-0.5941152
188	0x0c	0.71293825
189	0xfd	-0.17823456
190	0xfa	-0.35646912
191	0x00	0.0
192	0x08	0.47529218
193	0xf8	-0.47529218
194	0x03	0.17823456
195	0x03	0.17823456
196	0xfd	-0.17823456
197	0x06	0.35646912
198	0xf4	-0.71293825
199	0xff	-0.059411522
200	0xf7	-0.5347037
201	0x03	0.17823456
202	0x02	0.118823044
203	0x01	0.059411522
204	0x05	0.2970576
205	0xf8	-0.47529218
206	0xfa	-0.35646912
207	0xfb	-0.2970576
208	0x02	0.118823044
209	0xf7	-0.5347037
210	0xfe	-0.118823044
211	0xfc	-0.23764609
212	0xf6	-0.5941152
213	0x04	0.23764609
214	0x05	0.2970576
215	0x05	0.2970576
216	0x0a	0.5941152
217	0xf7	-0.5347037
218	0x00	0.0
219	0xff	-0.059411522
220	0x0a	0.5941152
221	0xfe	-0.118823044
222	0xfb	-0.2970576
223	0xf9	-0.41588065
224	0x03	0.17823456
225	0xfb	-0.2970576
226	0x03	0.17823456
227	0x02	0.118823044
228	0xfc	-0.23764609
229	0x06	0.35646912
230	0xf1	-0.8911728
231	0xff	-0.059411522
232	0xf8	-0.47529218
233	0x07	0.41588065
234	0xff	-0.059411522
235	0xff	-0.059411522
236	0x04	0.23764609
237	0xf8	-0.47529218
238	0xfe	-0.118823044
239	0xfb	-0.2970576
240	0xfe	-0.118823044
241	0xf9	-0.41588065
242	0x03	0.17823456
243	0x00	0.0
244	0xf7	-0.5347037
245	0x00	0.0
246	0x06	0.35646912
247	0x04	0.23764609
248	0x09	0.5347037
249	0xfb	-0.2970576
250	0x04	0.23764609
251	0xfa	-0.35646912
252	0x0c	0.71293825
253	0x00	0.0
254	0xff	-0.059411522
255	0xfd	-0.17823456
